core/pretrained_nets/domain_classifier_te.ckpt (torch, 727094 bytes, 30 tensors)

conv1.weight f4 [16, 3, 5]
0	0x3ddd76e1	0.1081369
1	0xbd709c9c	-0.058743104
2	0x3e1b291a	0.15152398
3	0x3c4201e0	0.011841267
4	0xbd07cf9f	-0.033156987
5	0xbe528995	-0.20560296
6	0x3e60e055	0.21960576
7	0x3e42722b	0.18988864
8	0xbe0dbf3b	-0.1384248
9	0xbe19c5a9	-0.15016808
10	0x3d41d324	0.0473205
11	0x3c81d22d	0.01584729
12	0x3d8a865c	0.06763908
13	0x3e6d1ff2	0.23156717
14	0xbc654a51	-0.013994769
15	0x3db781d1	0.089603074
16	0x3e52fbb9	0.20603837
17	0xbc80bdee	-0.015715566
18	0x3e2fcfa1	0.17169048
19	0x3e213ebe	0.1574659
20	0x3d2149e2	0.0393771
21	0x3e4b6acd	0.1986496
22	0x3e826786	0.25469607
23	0xbe0078ee	-0.12546131
24	0x3d15a832	0.036537357
25	0x3e889fdc	0.26684463
26	0x3e499c96	0.19688639
27	0xbda584f8	-0.080820024
28	0x3e17c5e8	0.14821589
29	0x3e14cc5c	0.14531082
30	0x3c3ea134	0.0116351135
31	0xbc5aa462	-0.013344856
32	0x3e782ab0	0.24235034
33	0xbe55934f	-0.20856975
34	0x3e473754	0.194547
35	0x3dd21719	0.10258312
36	0x3e845ecf	0.25853583
37	0x3e66e789	0.22549261
38	0x3d45e59d	0.04831468
39	0xbe379a7e	-0.17930028
40	0x3d6698c0	0.056298018
41	0xbd72a4b0	-0.05923909
42	0xbdffb66a	-0.124859646
43	0x3e0c7c8e	0.13719389
44	0xbe3e9fd1	-0.18615653
45	0x3e5ce5be	0.21572015
46	0x3d0dd99b	0.034631353
47	0xbe0bf824	-0.13668877
48	0xbdc309b6	-0.095233366
49	0x3e4c1662	0.19930413
50	0x3b8b1f9f	0.004245713
51	0x3d9909d2	0.07472576
52	0x3e06240a	0.13099685
53	0xbe2dac46	-0.16960248
54	0x3e159b6f	0.14610074
55	0xbdc13b1d	-0.09435103
56	0x3e11af38	0.14226997
57	0xbd8a666a	-0.06757815
58	0xbe12476f	-0.14285062
59	0xbe13f11f	-0.14447449
60	0xbcf794ab	-0.030222258
61	0xbe0474be	-0.12935159
62	0x3c9e27c3	0.01930607
63	0xbe80362f	-0.2504134
64	0xbe1ac142	-0.15112785
65	0xbd97ae24	-0.074062616
66	0x3d24578c	0.040122554
67	0x3e0fdef8	0.140499
68	0xbe660e9f	-0.22466515
69	0xbd289d42	-0.041165598
70	0xbe7d289c	-0.24722522
71	0xbc15d630	-0.009145305
72	0xbe43e1c5	-0.19129093
73	0xbe34f645	-0.1767207
74	0x3e062199	0.13098754
75	0x3dafc0d3	0.085817
76	0xbd7a328d	-0.061083365
77	0x3dacc85b	0.08436652
78	0x3e6beee3	0.23040347
79	0xbd4f60a8	-0.050629288
80	0xbe7c9f49	-0.24670137
81	0xbda48ba5	-0.080344476
82	0x3e7f95ed	0.24959536
83	0xbda70741	-0.081556804
84	0x3d2df702	0.042471893
85	0x3c6d42ca	0.014481256
86	0xbe69f5ce	-0.22847673
87	0xbb72b9c7	-0.0037037001
88	0xbdabd2d7	-0.08389824
89	0x3dfb0546	0.12256865
90	0x3e135e85	0.14391525
91	0x3e1b5230	0.15168071
92	0xbe5df3b1	-0.21674992
93	0xbe71ae28	-0.23601592
94	0xbe142cc7	-0.14470206
95	0x3e819c1f	0.25314423
96	0xbe134d73	-0.14385013
97	0xbe90f1f1	-0.28309587
98	0x3de816c8	0.1133247
99	0xbe46ff86	-0.19433412
100	0xbce998c2	-0.028515223
101	0x3dc3f057	0.095673256
102	0x3d0c59de	0.03426539
103	0x3d3c28df	0.045937415
104	0x3e82deea	0.25560695
105	0x3e100646	0.14064893
106	0xbde8e65a	-0.11372061
107	0xbe3fa619	-0.18715705
108	0x3d2b684f	0.041847523
109	0xbe0db5af	-0.13838838
110	0xbe5a8103	-0.21338277
111	0xbdd23296	-0.10263555
112	0x3d1a3c76	0.037655316
113	0x3d7fde2a	0.06246773
114	0x3e052f0c	0.13006228
115	0xbe566eb7	-0.20940672
116	0xbe72d224	-0.23712975
117	0x3e211114	0.15729171
118	0x3c1a5f0e	0.009422077
119	0x3d733e13	0.05938537
120	0xbe780382	-0.24220088
121	0x3da2ab0a	0.07942779
122	0xbe605fc7	-0.21911536
123	0xbdbf88cc	-0.09352264
124	0x3dca220f	0.098697774
125	0xbdb3e642	-0.087841526
126	0x3d585c09	0.052822147
127	0x3c612ba2	0.013743313
128	0x3d472084	0.048614994
129	0x3e3a58b7	0.18197905
130	0x3e645fd2	0.22302178
131	0xbdfc3a4d	-0.123158075
132	0xbe19c1ae	-0.15015289
133	0xbe1c0833	-0.15237503
134	0x3c893f83	0.016753918
135	0xbe640a73	-0.22269611
136	0x3e10c4b7	0.14137541
137	0xbd154c25	-0.03644957
138	0x3e7c6a6c	0.24649972
139	0x3e35dfb5	0.17761119
140	0x3d1cfb21	0.038325433
141	0x3dcf32a6	0.10117082
142	0x3e792c73	0.24333362
143	0x3d963cd7	0.07335823
144	0x3de1801b	0.11010762
145	0xbd85505a	-0.065094665
146	0x3e2adc56	0.16685614
147	0x3e8090f4	0.2511059
148	0xbbd4c50f	-0.006493218
149	0xbe562906	-0.20914087
150	0x3e132aee	0.14371845
151	0xbdb959a7	-0.09050303
152	0xbe353968	-0.1769768
153	0x3e66df00	0.22546005
154	0x3e32d9d2	0.17465904
155	0x3d476b3b	0.048686247
156	0xbe07eec0	-0.1327467
157	0x3e167dc0	0.14696407
158	0xbda50929	-0.08058388
159	0x3e4516bd	0.19246955
160	0x3e231785	0.1592694
161	0xbdc4dc01	-0.09612275
162	0x3e61db50	0.22056317
163	0x3e5a36bf	0.21309946
164	0xbd02152d	-0.031758476
165	0x3e856c2b	0.26059088
166	0xbe77dc96	-0.2420524
167	0x3dbbee10	0.09176266
168	0xbe0dbe67	-0.13842164
169	0xbe0d9cb2	-0.13829306
170	0xbe677cca	-0.22606197
171	0xbde49135	-0.111605085
172	0xbe1ac2ad	-0.15113325
173	0xbe4d4f5a	-0.20049801
174	0x3e522723	0.20522742
175	0xbe0d3c1d	-0.13792463
176	0xbc5717c1	-0.013128222
177	0xbe078a83	-0.13236432
178	0x3e838199	0.25684813
179	0xbe3af383	-0.18256955
180	0xbd4f429a	-0.050600626
181	0x3d95a7d5	0.07307402
182	0x3e179624	0.14803368
183	0x3db19baa	0.08672269
184	0x3de824f8	0.11335176
185	0x3e80ab4c	0.2513069
186	0xbdada50e	-0.08478747
187	0xbe3276a3	-0.17428069
188	0xbe8a7ca4	-0.27048218
189	0xbe2658d1	-0.16244818
190	0x3df92f12	0.12167181
191	0xbd14793a	-0.036248423
192	0xbde17439	-0.11008496
193	0x3e8ba2aa	0.2727254
194	0xbd779a12	-0.060449667
195	0x3d8aeca5	0.067834176
196	0x3d3a78b1	0.045525257
197	0x3e100a18	0.1406635
198	0x3e7b5e0a	0.24547592
199	0x3e844046	0.25830287
200	0x3e1509df	0.14554547
201	0x3e6e1833	0.23251419
202	0x3d775a56	0.060388885
203	0xbdbf4ee2	-0.093412176
204	0x3db0de7d	0.08636186
205	0x3d36b9f6	0.04461094
206	0x3d450011	0.048095766
207	0xbdf7b90d	-0.120958425
208	0x3e23d577	0.15999399
209	0xbd846178	-0.06463903
210	0x3e75b0f5	0.23993285
211	0x3d8b009a	0.06787224
212	0x3e405828	0.18783629
213	0x3d8e786f	0.06956565
214	0xbe57a900	-0.21060562
215	0xbc35922a	-0.0110822115
216	0xbe5ab5e7	-0.21358453
217	0xbdf48d79	-0.11941046
218	0xbd8109f6	-0.06300728
219	0x3e07ba98	0.13254774
220	0xbe90afb7	-0.2825906
221	0x3e2e4439	0.17018212
222	0xbe8854a0	-0.26627064
223	0x3e00d323	0.12580542
224	0x3dfd2f9d	0.12362597
225	0xbe25e332	-0.1619995
226	0x3e4dd8f5	0.20102294
227	0x3d67ea7a	0.0566201
228	0xbc839564	-0.016062446
229	0xbe30f59a	-0.1728119
230	0xbe2e3b1b	-0.17014734
231	0x3e50e636	0.20400319
232	0x3e099c0a	0.1343843
233	0xbd0ddfd9	-0.034637306
234	0xbd586d22	-0.052838452
235	0x3e81bd63	0.25339803
236	0x3e6a2cf4	0.22868711
237	0xbe7bb7bc	-0.24581808
238	0xbe709725	-0.23495157
239	0x3da6e04f	0.08148252

conv1.bias f4 [16]
0	0x3dd84cb7	0.10561507
1	0xbe551cc1	-0.2081175
2	0xbc07aad0	-0.008280471
3	0xbe19ea3d	-0.15030761
4	0xbcb92771	-0.022601815
5	0xbe2783a3	-0.16358809
6	0xbe72ef9f	-0.2372422
7	0x3d6d27ce	0.05789929
8	0xbe3d57f5	-0.18490584
9	0xbe3c781c	-0.18405193
10	0xbde31982	-0.110888496
11	0x3e0875f5	0.13326247
12	0xbda980c2	-0.08276512
13	0x3e451efc	0.19250101
14	0x3e061be3	0.13096575
15	0x3e1761e5	0.14783438

bn1.weight f4 [16]
0	0x3f81700e	1.0112321
1	0x3f823afe	1.0174253
2	0x3f7fd459	0.9993339
3	0x3f7ffacd	0.99992067
4	0x3f7daabb	0.9908864
5	0x3f818937	1.012
6	0x3f825adc	1.0183978
7	0x3f7fca13	0.99917716
8	0x3f7c66f7	0.9859461
9	0x3f7fec20	0.99969673
10	0x3f81531c	1.0103488
11	0x3f78d76c	0.9720371
12	0x3f803834	1.0017152
13	0x3f7d3ce0	0.9892101
14	0x3f81f7ab	1.0153707
15	0x3f7e2bb9	0.99285465

bn1.bias f4 [16]
0	0x3c8adceb	0.016951045
1	0x3cdcf990	0.02697447
2	0x3cff39a7	0.03115542
3	0x3cf91ef7	0.030410273
4	0x3c623566	0.0138066765
5	0x3d184e07	0.037183788
6	0x3cf52f50	0.029929787
7	0x3d200aaa	0.03907267
8	0x3d3a74a2	0.045521386
9	0x3c4da88c	0.012552392
10	0xbc8a9b72	-0.016919825
11	0x3cc05468	0.023477748
12	0x3d48100c	0.04884343
13	0x3ca42cc2	0.020040873
14	0x3cd05170	0.025429457
15	0x3cf08933	0.029362297

bn1.running_mean f4 [16]
0	0x3eba08a4	0.36334717
1	0x3f41715a	0.75563586
2	0x3e991a14	0.2990271
3	0xbd4ceede	-0.05003249
4	0xbf3a94cd	-0.728833
5	0xbdc6fcf9	-0.097162195
6	0xbec8d24a	-0.39222938
7	0xbe8d3c39	-0.2758501
8	0xbee3a630	-0.44462729
9	0x3ec68c90	0.38779116
10	0x3ecb0362	0.39651018
11	0xbea8383b	-0.328554
12	0x3d5ff791	0.054679457
13	0x3f7c4881	0.9854813
14	0x3e40b67e	0.18819615
15	0x3e25bf01	0.16186143

bn1.running_var f4 [16]
0	0x3b0eb2fb	0.002177416
1	0x3c314186	0.010818845
2	0x3b2bdde0	0.0026224777
3	0x3b0aa606	0.0021156087
4	0x3bf8bff0	0.00759124
5	0x3b3f3bdd	0.0029179968
6	0x3be4defb	0.006984589
7	0x3b6ad171	0.0035830403
8	0x3b947ef8	0.0045317374
9	0x3badca99	0.0053036925
10	0x3b8ea28f	0.0043528746
11	0x3b67e749	0.003538566
12	0x3b9552f0	0.004557006
13	0x3c365a2b	0.011129896
14	0x3ba0bbba	0.0049051913
15	0x3b4baccd	0.003107834

conv2.weight f4 [32, 16, 5]
0	0x3d888dd2	0.06667675
1	0xbd10bf64	-0.035338774
2	0x3dd82aba	0.105550244
3	0xbb7a78fa	-0.003821908
4	0x3d515b63	0.051112544
5	0x3d7e7622	0.06212438
6	0x3d048472	0.032352872
7	0x3d360ba6	0.044444703
8	0xbd8bba8a	-0.06822689
9	0xbdc91582	-0.098185554
10	0x3d108366	0.03528156
11	0x3b874fa2	0.004129366
12	0xbbc53f0b	-0.006019478
13	0x3d252636	0.040319644
14	0xbc5f820b	-0.0136418445
15	0xbd852975	-0.06502048
16	0xbd704e59	-0.05866847
17	0xbba0c272	-0.004905992
18	0xbd02bcc8	-0.031918317
19	0xbc88c570	-0.016695708
20	0xbc4293d7	-0.011876068
21	0xbd9042bf	-0.07043981
22	0xbd177893	-0.036980223
23	0xbd81a04c	-0.06329402
24	0xbc6e1c01	-0.014533044
25	0xbe0197c7	-0.12655555
26	0x3d18d773	0.037314843
27	0xbd29b3b2	-0.041431136
28	0xbde82853	-0.11335816
29	0x3d225076	0.039627515
30	0xbdb8fb07	-0.09032255
31	0x3cbb4f91	0.022865089
32	0xbc8d6422	-0.017259661
33	0x3d3736bc	0.044729933
34	0xbdcf958e	-0.10135947
35	0x3d888591	0.06666101
36	0x3cbdef92	0.023185525
37	0xbd4004e7	-0.046879675
38	0x3dcb02a9	0.09912617
39	0x3c2648b4	0.01014917
40	0xbc99242e	-0.01869401
41	0xbdbb5c23	-0.09148433
42	0xbdb3e081	-0.08783055
43	0x3b377d05	0.0027998101
44	0xbc4b4b3e	-0.012408076
45	0x3d23cc68	0.03998986
46	0x3d028721	0.03186715
47	0xbcfc8a65	-0.03082771
48	0x3db093dd	0.08621953
49	0x3bb6534b	0.0055641285
50	0xbcf2943f	-0.029611705
51	0x3d930053	0.07177796
52	0x3d899321	0.06717516
53	0x3d8a187a	0.0674295
54	0xbd0730f1	-0.03300566
55	0xbd47a569	-0.04874173
56	0xbdb22b97	-0.0869972
57	0xbb89b392	-0.0042023147
58	0x3d0f2e0c	0.034956023
59	0xbdb1cb7d	-0.086813904
60	0xbd6231fc	-0.05522345
61	0xbd92176e	-0.07133375
62	0xbd385e18	-0.04501161
63	0xbd7f08cb	-0.062264245
64	0xbdab8e78	-0.08376783
65	0x3ce1a9b9	0.02754675
66	0x3db6da21	0.089283235
67	0x3d0b846e	0.03406184
68	0xbad4dcf9	-0.0016240171
69	0x3db82100	0.08990669
70	0xbda3c14b	-0.07995852
71	0x3d9dc21c	0.07703039
72	0xbcf51dab	-0.029921373
73	0x3d03adaf	0.03214806
74	0xbc534bcc	-0.012896489
75	0xbc240573	-0.010011065
76	0xbcb480f6	-0.02203415
77	0x3d2e9a32	0.04262752
78	0xbc8a5b8b	-0.016889354
79	0xbc71af47	-0.014751262
80	0xbb84bfd3	-0.0040511875
81	0xbd416476	-0.047214948
82	0x3d3f1e72	0.046659894
83	0xbde97290	-0.11398804
84	0x3c5557e2	0.013021441
85	0xbcc46e3e	-0.023978349
86	0xbd1e61a4	-0.038667336
87	0xbdfd4d2f	-0.12368237
88	0x3d048393	0.03235204
89	0x3da2baf0	0.07945812
90	0x3dbc93f2	0.09207906
91	0xbdb54a4b	-0.08852061
92	0x3c7b9b9a	0.0153569225
93	0xbdac71b8	-0.08420128
94	0x3d978112	0.07397665
95	0xbd4da67e	-0.050207607
96	0xbd95d16d	-0.073153354
97	0xbce3ab8a	-0.027791757
98	0xbdabc0e7	-0.083864026
99	0xbdb6cab5	-0.08925382
100	0xbdd994ea	-0.10624106
101	0xbd148a2c	-0.036264583
102	0x3da840c0	0.08215475
103	0xbb5b8bad	-0.0033500001
104	0x3d0972cc	0.033556744
105	0xbd4dc8c4	-0.050240293
106	0xbc361826	-0.011114156
107	0xbd8c04b4	-0.068368345
108	0x3c9d3f5d	0.019195253
109	0xbd64bd38	-0.055844516
110	0x3bfe1ea1	0.007755116
111	0xbba295f9	-0.004961726
112	0x3d4fb317	0.050707903
113	0x3d07d124	0.033158436
114	0xbd3c88ea	-0.04602901
115	0x3d90d09c	0.07071039
116	0xbd4fc210	-0.05072218
117	0xbcb1174a	-0.02161755
118	0xb6c5343e	-5.8771393e-06
119	0xbdc21592	-0.094767705
120	0xba5e4111	-0.00084783236
121	0x3d8945b7	0.0670275
122	0xbcac4731	-0.02103004
123	0x3ddfa426	0.10919981
124	0x3d993121	0.07480074
125	0x3c4e8489	0.012604841
126	0xbd689478	-0.056782216
127	0x3cb95d72	0.022627566
128	0xbdc23d48	-0.09484345
129	0x3cd99725	0.02656133
130	0x3d5d9568	0.054097563
131	0x3bb24329	0.005440135
132	0xbe155921	-0.14584781
133	0xbd004279	-0.031313393
134	0xbb96fa9d	-0.004607512
135	0xbba3fd25	-0.0050045424
136	0x3d9fc5e5	0.07801417
137	0xbdd143b9	-0.10217995
138	0x3db2976c	0.08720288
139	0x3d8e881c	0.069595546
140	0xbd5b06ca	-0.05347327
141	0x3d694f40	0.056960344
142	0xbe01b40d	-0.1266634
143	0xbdf13e20	-0.117794275
144	0xbdf7c6f2	-0.12098493
145	0x3daacdb1	0.08340014
146	0xbdac28de	-0.08406232
147	0xbce714cd	-0.02820816
148	0xbd85b8e6	-0.06529407
149	0xbd6a05a1	-0.057134274
150	0xbd9cad89	-0.07650287
151	0xbd2251a4	-0.03962864
152	0xbd9aeb16	-0.0756437
153	0x3dbb4f24	0.09145954
154	0xbca58e00	-0.020209312
155	0x3dcb3f94	0.09924236
156	0x3d78c986	0.060739063
157	0xbda2db07	-0.079519324
158	0xbc4c65c9	-0.012475439
159	0x3b9b722c	0.004743835
160	0xbd25b770	-0.040458143
161	0xbdd770ac	-0.10519537
162	0x3de1d2d5	0.11026541
163	0xbcbf275b	-0.023334196
164	0x3d925983	0.07145979
165	0x3bf854e9	0.0075784815
166	0xbd8fbf33	-0.0701889
167	0x3c9a660f	0.018847493
168	0x3e068e02	0.13140109
169	0xbd78fd48	-0.060788423
170	0xbdd02d8f	-0.101649396
171	0xbd2b4d3c	-0.041821703
172	0xbd7174c5	-0.05894925
173	0x3ccefc89	0.025266903
174	0x3c4c41da	0.012466872
175	0x3d69bc33	0.057064246
176	0x3dc083fc	0.09400174
177	0x3da34d20	0.07973695
178	0x3d5c3a3d	0.053766478
179	0xbd9dceec	-0.07705483
180	0x3db9a8f0	0.090654254
181	0xbdd1f36e	-0.10251509
182	0xbc338399	-0.010956668
183	0xbcb0c9f9	-0.021580683
184	0xbd50d29f	-0.050982114
185	0xbda92953	-0.08259835
186	0xbd4feee2	-0.050764926
187	0xbd865bd0	-0.065604806
188	0x3da3b05c	0.07992622
189	0x3dc1d21a	0.09463902
190	0xbd66dcbf	-0.056362864
191	0xbd250b8e	-0.040294223
192	0x3d590c2a	0.052990116
193	0x3dba924c	0.09109935
194	0xbd65679a	-0.056007005
195	0xbc95b222	-0.018273417
196	0xbd36b33f	-0.044604536
197	0x3dcdfd9d	0.100581385
198	0xbdc3bc90	-0.0955745
199	0xbda5c52d	-0.08094249
200	0xbdeb4cfd	-0.11489294
201	0xbdd91ba7	-0.106009774
202	0x3cc4dd02	0.024031166
203	0xbd91a68c	-0.071118444
204	0x3ccb2ca8	0.024801567
205	0x3df0d277	0.11758893
206	0xbd83a4a5	-0.06427888
207	0x3d730a2f	0.059335884
208	0x3da5fdfa	0.08105083
209	0xbacca310	-0.0015612561
210	0x3e055cb2	0.13023642
211	0x3de07557	0.10959881
212	0xbc2cc738	-0.010545544
213	0x3d91a6a6	0.07111864
214	0x3e0453ba	0.12922564
215	0x3c792f19	0.015208983
216	0xbd042034	-0.032257274
217	0x3d741226	0.05958762
218	0x3d442768	0.047889143
219	0x39e6ff4a	0.00044059224
220	0xbd092535	-0.03348275
221	0x3db12474	0.08649531
222	0x3bc9448e	0.0061422056
223	0xbda179af	-0.078845374
224	0x3ba7d4c4	0.005121799
225	0xbd9391db	-0.07205554
226	0x3d1a501c	0.037674055
227	0x3dc4758e	0.09592734
228	0x3bbd549a	0.0057779076
229	0xbcc9cfd8	-0.02463524
230	0xbce7ff0a	-0.028319854
231	0xbd14c133	-0.03631706
232	0xbda4c776	-0.08045857
233	0x3d1ec620	0.038763165
234	0x3d650316	0.055911146
235	0xbd088e21	-0.03333867
236	0x3d0ac3bf	0.033878084
237	0x3dc1c0f6	0.094606325
238	0x3da60ea9	0.08108265
239	0x3d96a455	0.073555626
240	0x3c8ca23c	0.017167203
241	0xbca2a860	-0.019855678
242	0xbdde1744	-0.10844281
243	0x3d811df8	0.06304544
244	0x3dcd64e6	0.100290105
245	0xbc303f17	-0.010757229
246	0x3da19f11	0.07891668
247	0x3cd1f37c	0.025628798
248	0x3ca8db7c	0.02061247
249	0x3d1008ca	0.035164632
250	0x3caa50f6	0.020790558
251	0xbcf75332	-0.030191038
252	0x3dd4125c	0.10355064
253	0x3d81c92d	0.06337199
254	0x3d6aeea1	0.05735648
255	0xbd965257	-0.07339924

conv2.bias f4 [32]
0	0xbcb0180c	-0.021495841
1	0xbddf5eed	-0.109067775
2	0x3de171d8	0.11008042
3	0xbcff3e3a	-0.031157602
4	0xbdcfbedb	-0.10143825
5	0xbddf60f3	-0.109071635
6	0x3d30ec70	0.043194234
7	0x3de1e091	0.11029161
8	0x3bf48600	0.007462263
9	0xbd407431	-0.04698581
10	0xbdb037f1	-0.0860442
11	0xbd916215	-0.07098786
12	0x3c865e95	0.016402522
13	0x3d5d2f73	0.05400033
14	0x3d3fb9f2	0.04680819
15	0x3b224dc2	0.0024765586
16	0x3d360043	0.044433843
17	0x3c50d028	0.012744941
18	0x39ca6eaf	0.00038610908
19	0x3d74bccc	0.059750363
20	0x3d1d151a	0.038350202
21	0xbd575d95	-0.05257948
22	0xbdad4851	-0.08461059
23	0xbc9e22db	-0.01930373
24	0x3d09450e	0.03351312
25	0x3d135a16	0.035974585
26	0xbdb5a82a	-0.088699654
27	0x3c848f5c	0.01618164
28	0xbc6bdd1a	-0.014395976
29	0x3d823b5f	0.063589804
30	0xbdba5f9f	-0.091002695
31	0xbdac86e2	-0.08424164

bn2.weight f4 [32]
0	0x3f81ef04	1.0151067
1	0x3f8229c1	1.0168992
2	0x3f7ee826	0.9957298
3	0x3f7c8e8e	0.9865502
4	0x3f81e394	1.0147576
5	0x3f80ba47	1.0056847
6	0x3f83cef1	1.0297529
7	0x3f7bfcb9	0.984325
8	0x3f7b92a0	0.98270607
9	0x3f813556	1.0094402
10	0x3f7e8967	0.9942841
11	0x3f7e7e73	0.99411696
12	0x3f80d7e9	1.006589
13	0x3f7f8705	0.998154
14	0x3f7d5a51	0.98965937
15	0x3f82097f	1.0159148
16	0x3f7ead15	0.9948285
17	0x3f7ecd83	0.99532336
18	0x3f7d29aa	0.988917
19	0x3f7f0815	0.9962171
20	0x3f7e1482	0.9925004
21	0x3f8115a7	1.0084733
22	0x3f7ad13e	0.9797553
23	0x3f7e2433	0.99273986
24	0x3f7de868	0.9918275
25	0x3f80f2e1	1.0074121
26	0x3f82c726	1.0217025
27	0x3f7a0bf5	0.97674495
28	0x3f835bb8	1.0262365
29	0x3f7ecbba	0.9952961
30	0x3f838145	1.0273825
31	0x3f814099	1.0097839

bn2.bias f4 [32]
0	0x3c65d745	0.014028375
1	0xbbcc5ff2	-0.0062370235
2	0xbc4a1fa5	-0.012336646
3	0x3c33d477	0.010975949
4	0xbc871b6b	-0.016492566
5	0xbc1a53b2	-0.009419369
6	0xbcc6ab73	-0.024251675
7	0x3ccc367b	0.024928322
8	0x39f02767	0.00045805724
9	0x3ae09c4b	0.0017136423
10	0x3c2f74a5	0.010708963
11	0xbd08acf0	-0.03336805
12	0x3c699896	0.014257571
13	0xbbb27174	-0.0054456536
14	0xbc79ba08	-0.015242107
15	0xbbee2a04	-0.0072681922
16	0x3b124151	0.0022316764
17	0x3b482704	0.0030540833
18	0xbc092e18	-0.008372806
19	0x3c8f33ad	0.017480696
20	0xbcdeb341	-0.027185084
21	0x3bb3c6bf	0.005486339
22	0x3caac764	0.02084703
23	0xba92bfb2	-0.0011196046
24	0x3cb7419a	0.022370148
25	0xba220d9a	-0.00061818364
26	0xbc1dea9f	-0.009638458
27	0xbc851ebe	-0.01625001
28	0x3c6c3160	0.014416069
29	0xbc158a17	-0.009127161
30	0x3bf201b1	0.0073854555
31	0xbd2a0cbb	-0.041516047

bn2.running_mean f4 [32]
0	0xbe98f008	-0.2987063
1	0xbf2bc780	-0.6710129
2	0x3ea9e915	0.3318564
3	0x3e60ed9e	0.21965644
4	0xbe1b2e10	-0.1515429
5	0x3e8747a4	0.26421845
6	0xbe4c51a8	-0.19953024
7	0x3ea5dcb9	0.3239496
8	0x3e6532d9	0.22382678
9	0xbeb19a88	-0.3468821
10	0xbe46a45d	-0.19398637
11	0xbe1d8416	-0.15382418
12	0xbe72a1ed	-0.23694582
13	0x3e871d83	0.26389703
14	0xbdfe3814	-0.1241304
15	0xbe718fab	-0.23589961
16	0x3f088044	0.5332072
17	0xbe1110ac	-0.14166516
18	0x3e3bccac	0.18339795
19	0x3d9fa0d5	0.07794348
20	0xbd1d2a11	-0.038370196
21	0xbe8b95e7	-0.27262804
22	0xbd7b1066	-0.061294936
23	0x3d6dfc76	0.058102094
24	0x3df56741	0.11982585
25	0x3d0afed2	0.03393442
26	0xbe9f086b	-0.3106111
27	0xbd43a947	-0.047768857
28	0xbe558506	-0.20851526
29	0x3c43e17e	0.011955617
30	0xbe57c5e6	-0.21071586
31	0xbddfe025	-0.10931424

bn2.running_var f4 [32]
0	0x3e1b7efd	0.15185161
1	0x3eb76c32	0.35824734
2	0x3e3ad62f	0.18245767
3	0x3e45d19a	0.19318238
4	0x3da7ce41	0.08193637
5	0x3e429371	0.19001557
6	0x3de982b1	0.114018805
7	0x3db7fb1e	0.08983444
8	0x3dd29e8a	0.10284145
9	0x3e1841ec	0.14868897
10	0x3e739e47	0.23790847
11	0x3e2115eb	0.15731017
12	0x3e0d6182	0.13806728
13	0x3dd593fc	0.104286164
14	0x3e25dbe1	0.16197158
15	0x3e60de04	0.21959692
16	0x3ea54c86	0.32284945
17	0x3e1974aa	0.1498591
18	0x3e5da478	0.21644771
19	0x3e14661f	0.14492081
20	0x3dec428a	0.11536129
21	0x3e08a40d	0.1334383
22	0x3dc8318c	0.09775075
23	0x3db4c9de	0.088275656
24	0x3e473c6a	0.1945664
25	0x3dde0b45	0.10841993
26	0x3e26ed31	0.16301419
27	0x3de6d514	0.1127111
28	0x3df943db	0.121711455
29	0x3db0973f	0.08622598
30	0x3e2c9ed7	0.16857468
31	0x3daaea49	0.083454676

conv3.weight f4 [64, 32, 5]
0	0x3d3b1955	0.045678455
1	0x3da7c3ca	0.08191641
2	0x3d4c05fc	0.049810395
3	0x3da12b93	0.07869639
4	0xbd6d993e	-0.05800747
5	0xbd921cea	-0.07134421
6	0xbd483b3c	-0.048884615
7	0xbcbd29c3	-0.023091203
8	0xbd1b9966	-0.03798809
9	0xbd50569e	-0.050863855
10	0xbca25baf	-0.019819109
11	0x3cff905a	0.031196762
12	0xbc13c688	-0.0090195015
13	0x3c238a0e	0.009981645
14	0xbcaeb8db	-0.02132838
15	0x3d9341cb	0.071902834
16	0xbd39137c	-0.045184597
17	0xbd3cd086	-0.0460973
18	0x3c931272	0.017953131
19	0x3bcc1466	0.0062280176
20	0x3d2e9502	0.042622574
21	0x3d74427d	0.05963372
22	0x3d6ea4ef	0.05826276
23	0xbd52adfe	-0.051435463
24	0x3d49ce00	0.049268723
25	0x3bc87159	0.0061170277
26	0x3c9b9065	0.018989751
27	0x3c83ba3d	0.016080016
28	0x3d412e74	0.04716344
29	0x3d624d90	0.05524975
30	0xbca480aa	-0.020080883
31	0xbab2eaba	-0.0013650276
32	0xbd7000e6	-0.058594607
33	0xbd78dad1	-0.060755555
34	0xbd011c40	-0.031521082
35	0x3b52735e	0.0032112221
36	0xbd3ac8c9	-0.04560164
37	0x3ce2b9f6	0.027676564
38	0x3d5a8770	0.05335182
39	0x3d1a1b63	0.037623774
40	0xbc2bd34a	-0.010487387
41	0xbc666bc4	-0.014063779
42	0xbd166fb4	-0.036727622
43	0xbb83a2aa	-0.004017194
44	0xbd85a99e	-0.065264925
45	0x3d23ca0a	0.0399876
46	0x3d769d76	0.06020876
47	0x3d9f791c	0.07786772
48	0xbbfb05dd	-0.007660611
49	0x3d14193b	0.036156874
50	0xbda39996	-0.079882786
51	0x3c82297f	0.015888928
52	0x3d443faf	0.047912296
53	0xbd106fe3	-0.035262953
54	0xbd7d3a5d	-0.061823238
55	0xbd92e8f8	-0.071733415
56	0x3d951b52	0.072806016
57	0x3d04a781	0.032386307
58	0xbd094605	-0.03351404
59	0xbc754add	-0.014971462
60	0xbbf494d4	-0.0074640308
61	0x3d911569	0.07084162
62	0x3d41dff6	0.047332726
63	0x3d7bfc19	0.061519716
64	0xbbf2dd9a	-0.007411671
65	0x3c9f10a5	0.019417116
66	0x3d523a16	0.051324926
67	0xbbd7a826	-0.006581324
68	0xbcf07a3a	-0.029355157
69	0x3d394b91	0.04523808
70	0xbda6fdf6	-0.08153908
71	0xbb3fa044	-0.0029239813
72	0xbd2343ca	-0.03985957
73	0x3d968a53	0.07350602
74	0xbd1dfbc3	-0.038570177
75	0x3d98517e	0.074374184
76	0x3d72d458	0.059284538
77	0xbb8cc3ad	-0.0042957873
78	0x3d867847	0.0656591
79	0xbb9e1474	-0.0048242155
80	0xbd7c78a1	-0.06163848
81	0x3c8b9dbe	0.01704299
82	0x3bb40a4d	0.005494392
83	0x3d58d46f	0.052936967
84	0xbc1fe9c1	-0.009760321
85	0x3d02a01d	0.031890977
86	0xbd90d900	-0.070726395
87	0xbd1ab02b	-0.037765663
88	0x3d12e00d	0.035858203
89	0x3da0e38f	0.07855903
90	0xbd3df9ba	-0.046380736
91	0xbb282e55	-0.0025662382
92	0x3c7002cd	0.014649105
93	0xbc313c95	-0.010817667
94	0xbca016c7	-0.019542111
95	0xbd72e04b	-0.059295934
96	0x3d82b45c	0.06382057
97	0x3cb64488	0.022249475
98	0xbd83eb92	-0.06441416
99	0xbcdc7eea	-0.026915986
100	0x3d96af7c	0.0735769
101	0x3d36c6c3	0.044623148
102	0x3d2170dd	0.039414275
103	0x3d7281d6	0.059205852
104	0x3d85df27	0.065367036
105	0xbd580f59	-0.05274901
106	0x3b262e15	0.0025357057
107	0xbd09f82d	-0.033683944
108	0x3d8a91d4	0.06766096
109	0xbd19801e	-0.037475698
110	0x3c8f10c2	0.017464045
111	0x3d03703a	0.03208945
112	0x3d9265f8	0.07148355
113	0x3c4fe837	0.012689642
114	0xbd391888	-0.04518941
115	0xbacb0c4b	-0.0015491334
116	0xbd3634a9	-0.044483814
117	0x3bae491b	0.0053187734
118	0x3b81c443	0.003960164
119	0x3d4501ce	0.048097424
120	0x3cef554f	0.029215483
121	0x399b8d1f	0.00029669047
122	0x3d2b3395	0.04179724
123	0xbd30c598	-0.04315719
124	0xbbd41927	-0.006472725
125	0x3d71f660	0.059072852
126	0x3d5ca95a	0.053872444
127	0x39e489d1	0.0004359023
128	0xbd72c4b6	-0.05926963
129	0x3d48d367	0.049029734
130	0x3d7817e4	0.06056966
131	0xbc454af5	-0.012041797
132	0x3c0c64a3	0.008568916
133	0x3d179be2	0.037013896
134	0x3d404e51	0.04694969
135	0x3c93181b	0.01795583
136	0xbd2abc22	-0.041683324
137	0xbd46a14f	-0.04849368
138	0xbc936a96	-0.01799516
139	0x3d85c854	0.0653235
140	0xbc837c3f	-0.016050456
141	0xbd34f75b	-0.04418121
142	0xbd133889	-0.035942588
143	0xbd0a748a	-0.033802547
144	0x3d98e8fc	0.07466313
145	0xbc7163fb	-0.01473331
146	0x3d00a139	0.031403754
147	0xb8255bee	-3.942468e-05
148	0xbd69c887	-0.057076003
149	0xbbf1526c	-0.007364562
150	0x3d3269fe	0.043558113
151	0x3c384bf7	0.01124858
152	0x3d88b0c4	0.0667434
153	0x3d03cb0d	0.032176066
154	0x3832ac63	4.2599055e-05
155	0xbcb4d0ec	-0.022072278
156	0x3d945975	0.07243625
157	0x3d593bcf	0.053035554
158	0xbd6caad5	-0.057780106
159	0xbd617c92	-0.05505044
160	0x3da0eb07	0.07857328
161	0x3cbbe414	0.022935905
162	0x3d477107	0.048691776
163	0x3c245512	0.010030048
164	0x3c7cda77	0.015432945
165	0x3d1d9dae	0.038480453
166	0xbc83b4a4	-0.016077347
167	0xbd7a2099	-0.061066244
168	0xbc41a015	-0.011817952
169	0x3bed3e5b	0.0072400994
170	0xbd412ac8	-0.04715994
171	0x3c925fc8	0.017867938
172	0x3d5d7c19	0.054073427
173	0xbce116c8	-0.027476683
174	0x3cb892a2	0.022530857
175	0xbd55143f	-0.05202126
176	0x3c33540f	0.010945334
177	0x3c416d4c	0.011805844
178	0x3b7777fc	0.0037760725
179	0x3d4da24c	0.050203606
180	0xbd8b2d25	-0.0679572
181	0x3c90b165	0.017662713
182	0x3d803965	0.06260947
183	0xbc854949	-0.016270297
184	0x3bfd14d7	0.0077234316
185	0x3d017640	0.031606913
186	0x3d3c5605	0.045980472
187	0xbd0eeccb	-0.034893792
188	0x3c187a35	0.00930648
189	0x3c281128	0.010257997
190	0xbd270e82	-0.04078532
191	0xbd9fda3a	-0.07805295
192	0x3d191477	0.037373032
193	0xbd27fe31	-0.0410139
194	0x3cfd18f2	0.030895684
195	0xbca166e8	-0.01970239
196	0xbb26d469	-0.0025456196
197	0x3d411b47	0.047145154
198	0x3ca982ed	0.020692313
199	0x3d2e5f69	0.04257146
200	0xbd93acba	-0.07210679
201	0xbdaa1133	-0.08304062
202	0xbdb5b687	-0.08872705
203	0xbd407967	-0.04699078
204	0xbd946d08	-0.072473586
205	0xbd7a8343	-0.061160337
206	0xbd091dca	-0.033475675
207	0x3d5c0356	0.05371412
208	0xbd7a918d	-0.061173964
209	0x3b5cd1e3	0.0033694438
210	0x3c932488	0.017961755
211	0xbd4bb2e9	-0.04973117
212	0x3c20645d	0.0097895535
213	0xbd14148d	-0.03615241
214	0x3ce8556c	0.028361045
215	0x3c744225	0.014908348
216	0xbd9d271d	-0.07673476
217	0x3cee9cf0	0.029127568
218	0xbd817d9a	-0.06322785
219	0x3c3d63d7	0.011559448
220	0xbd9b1c95	-0.07573811
221	0x3d5db9d1	0.054132286
222	0x3b0cc819	0.0021481572
223	0xbd2e67fe	-0.042579643
224	0xbc9a588b	-0.018841049
225	0xbd8904a5	-0.06690339
226	0x3cda0932	0.026615713
227	0x3cba9073	0.022773957
228	0x3d568b9c	0.052379236
229	0x3dafff38	0.08593601
230	0xbd5a904e	-0.053360276
231	0xbd77789d	-0.06041776
232	0x3d969419	0.07352466
233	0xbd4bba7a	-0.049738385
234	0x3c23d928	0.010000505
235	0x3c88d679	0.016703831
236	0xbc13ca11	-0.009020344
237	0xbd7066c1	-0.058691744
238	0x3d8c7b95	0.06859509
239	0x3b10d284	0.0022098133
240	0xbb800438	-0.003906753
241	0xbd71ff7f	-0.05908155
242	0xbc86c61e	-0.016451892
243	0xbaa5815d	-0.0012627054
244	0x3ce5def7	0.02806042
245	0x3ce23898	0.027614877
246	0x3addd6ac	0.0016924939
247	0xbc86b2a9	-0.016442614
248	0x3d17de73	0.03707738
249	0x3c98e4a5	0.018663714
250	0x3d04d24f	0.03242713
251	0x3b5b77a7	0.0033488066
252	0x3cc4bf11	0.024016889
253	0xbc1aff84	-0.009460334
254	0xbcca88c2	-0.024723414
255	0x3a3e7201	0.0007264913

conv3.bias f4 [64]
0	0xbd3bb332	-0.04582519
1	0xbd0164aa	-0.03159014
2	0xbd3fc566	-0.046819113
3	0x3d9871c2	0.074435726
4	0xbd8e3941	-0.06944514
5	0xbd92273b	-0.07136389
6	0x3bdd9ca3	0.0067630573
7	0x3d4d8bc3	0.050182115
8	0xbc89ea34	-0.01683531
9	0x3be07db5	0.006850923
10	0x3cb91993	0.022595203
11	0x3d5ad723	0.053427827
12	0x3b940720	0.004517451
13	0x3d0137c1	0.03154731
14	0x3d5c42c9	0.05377463
15	0x3cfae20e	0.03062537
16	0x3d15ecff	0.03660297
17	0x3d0b8171	0.03405899
18	0xbbb73701	-0.005591274
19	0xbd864aac	-0.06557211
20	0xbd1bf6d9	-0.03807721
21	0xbc53db5f	-0.01293072
22	0xbd9db649	-0.07700784
23	0x3d7817a2	0.060569413
24	0xbc9242b5	-0.017854074
25	0x3d461761	0.04836214
26	0x3c4ea141	0.012611688
27	0x3d7116bd	0.058859576
28	0xbd5b0fef	-0.053481992
29	0x3d9c3520	0.0762732
30	0x3b442c2e	0.002993356
31	0xbd8d1f80	-0.06890774
32	0x3ce60306	0.028077614
33	0x3cf135bd	0.02944457
34	0x3ce23399	0.027612494
35	0x3c413905	0.01179338
36	0xbd28cc88	-0.04121068
37	0x3d9b1f90	0.075743794
38	0xbd560881	-0.052254204
39	0xbda00d9a	-0.07815094
40	0xbcd0ff8d	-0.025512481
41	0xbc0b95d0	-0.008519605
42	0xbd27ee11	-0.040998522
43	0x3d9b1373	0.07572069
44	0xbd424293	-0.04742677
45	0xbd56653f	-0.05234265
46	0xbbd5765e	-0.0065143546
47	0xbd491366	-0.049090765
48	0x3d09c12c	0.03363149
49	0xbd8d8d1a	-0.069116786
50	0xbd42225d	-0.047396053
51	0xbd445dbf	-0.047940966
52	0xbc227160	-0.009914726
53	0xbd597b2c	-0.05309598
54	0xbcaec52d	-0.021334255
55	0xbd1a026d	-0.03759997
56	0x3d815d22	0.06316592
57	0xbd338b79	-0.043834183
58	0xbca1a80b	-0.01973345
59	0xbd4f768d	-0.05065017
60	0xbcba8dfd	-0.022772783
61	0xbbcca568	-0.006245304
62	0x3d9d385a	0.07676764
63	0xbc954401	-0.018220903

bn3.weight f4 [64]
0	0x3f7402e4	0.9531691
1	0x3f7fa61f	0.99862856
2	0x3f7f4905	0.99720794
3	0x3f812910	1.0090656
4	0x3f7e32fd	0.9929655
5	0x3f8357bc	1.026115
6	0x3f7ef21d	0.99588186
7	0x3f8335f3	1.0250839
8	0x3f7e49ba	0.9933125
9	0x3f81163a	1.0084908
10	0x3f7928c9	0.9732786
11	0x3f81fd28	1.0155382
12	0x3f80519b	1.0024904
13	0x3f7a7961	0.9784146
14	0x3f80aa57	1.0051984
15	0x3f80c949	1.0061427
16	0x3f833977	1.0251912
17	0x3f7c66e5	0.98594505
18	0x3f769480	0.96320343
19	0x3f811f64	1.0087705
20	0x3f81c96e	1.0139596
21	0x3f829985	1.02031
22	0x3f7f5e4a	0.9975325
23	0x3f81af4c	1.0131621
24	0x3f809b78	1.0047445
25	0x3f79e04f	0.9760789
26	0x3f818e89	1.0121623
27	0x3f7f9a03	0.9984438
28	0x3f7bc40a	0.98346007
29	0x3f843c34	1.0330873
30	0x3f7f48ab	0.9972026
31	0x3f811adf	1.0086325
32	0x3f7de0d9	0.99171215
33	0x3f825d74	1.018477
34	0x3f82d6a5	1.0221754
35	0x3f797678	0.97446394
36	0x3f789123	0.9709646
37	0x3f7c5ea6	0.9858192
38	0x3f7ed271	0.9953986
39	0x3f7eac2f	0.9948148
40	0x3f8070b4	1.0034394
41	0x3f7ef6dd	0.99595433
42	0x3f7e3155	0.99294025
43	0x3f7cd786	0.9876636
44	0x3f7c7fca	0.9863249
45	0x3f84c5df	1.0372885
46	0x3f7ea8d0	0.9947634
47	0x3f803043	1.0014728
48	0x3f833276	1.0249774
49	0x3f83f304	1.0308537
50	0x3f808400	1.0040283
51	0x3f81803a	1.0117257
52	0x3f8167e3	1.0109829
53	0x3f822f1c	1.0170627
54	0x3f788b38	0.9708743
55	0x3f7eb193	0.99489707
56	0x3f7a6330	0.978076
57	0x3f75cfa6	0.9601997
58	0x3f7fed33	0.9997131
59	0x3f846e8a	1.0346234
60	0x3f74af3c	0.95579886
61	0x3f80d921	1.0066262
62	0x3f8185d7	1.011897
63	0x3f854a90	1.041338

bn3.bias f4 [64]
0	0xbc3bccc4	-0.011462394
1	0xbced6a7c	-0.02898144
2	0xbcb69ff0	-0.022293061
3	0xbc1c7e4d	-0.009551597
4	0xbce5b2e6	-0.028039407
5	0xbc261c1e	-0.01013854
6	0xbccc251e	-0.024920043
7	0x3bc77cce	0.006087876
8	0xbc194df5	-0.009356965
9	0xbc528d1d	-0.012851027
10	0x3b021598	0.0019849297
11	0xbd0fcdd7	-0.035108414
12	0xbc40dce4	-0.011771414
13	0xbcb3b40f	-0.021936445
14	0xbcc45e6e	-0.023970809
15	0xbc448b5c	-0.0119961165
16	0xbc8086e4	-0.01568932
17	0xbcd5291e	-0.026020583
18	0xbcb66238	-0.022263631
19	0xbca1fb34	-0.019773103
20	0xba8ba8f0	-0.0010655206
21	0x3b261fd1	0.0025348554
22	0x3a8b54c8	0.0010630125
23	0xbbe9e421	-0.007137791
24	0xbce4644d	-0.027879858
25	0xbcdd0178	-0.02697824
26	0xbc2e5a7f	-0.010641693
27	0xbc7fa6a9	-0.0156037
28	0xbc3feb3c	-0.011713799
29	0x3b50d109	0.0031862876
30	0xbcf3332e	-0.02968749
31	0xbc567e7f	-0.013091682
32	0xbc98a6ba	-0.018634189
33	0xbc789746	-0.015172785
34	0xbc13e17b	-0.009025927
35	0xbc00eddb	-0.007869209
36	0x3bcaf26b	0.0061934493
37	0xbcbf3c2e	-0.023344126
38	0xbc216333	-0.009850311
39	0xbbe029ce	-0.006840921
40	0xbcd926d4	-0.026507773
41	0xbc3aab25	-0.011393343
42	0xbcd936e0	-0.026515424
43	0xbc43a485	-0.01194108
44	0xbc5a9d6f	-0.013343199
45	0xbb0e0818	-0.0021672305
46	0xbcc16897	-0.023609443
47	0xbcf64327	-0.030061318
48	0xbc7ba42c	-0.015358966
49	0xbba4e0c5	-0.0050316774
50	0xbc08fef3	-0.008361566
51	0xbc77ebfd	-0.015131948
52	0xbc8a45dc	-0.016879015
53	0xbcf77d0d	-0.030210996
54	0xbcc8e950	-0.024525315
55	0xbc2947ae	-0.010332031
56	0xbc4fe1a7	-0.012688077
57	0xbbfe3b0a	-0.007758503
58	0xbcef92e0	-0.02924484
59	0xbcde8258	-0.027161762
60	0xbc404797	-0.011735818
61	0xbc3653c7	-0.0111283725
62	0xbc8dfb24	-0.017331667
63	0xbb19ea1b	-0.0023485485

bn3.running_mean f4 [64]
0	0x3efe2490	0.4963727
1	0xbec56865	-0.3855621
2	0xbf0f1fdb	-0.5590798
3	0xbe57689a	-0.21035996
4	0xbebecc7b	-0.3726538
5	0xbeb254f5	-0.34830442
6	0xbed375fc	-0.41300952
7	0xbf0302e2	-0.51176274
8	0xbef3c529	-0.4761136
9	0xbeee0324	-0.4648677
10	0xbe8b27a6	-0.27178687
11	0xbe84c327	-0.2593014
12	0xbee774bb	-0.45206246
13	0xbe8675a6	-0.26261634
14	0xbeb104c7	-0.34573957
15	0xbee933f0	-0.45547438
16	0xbc7ad632	-0.015309857
17	0x3f28e7cf	0.6597871
18	0x3e7ccb20	0.24686861
19	0xbecc93d9	-0.3995655
20	0xbe1a2b12	-0.15055493
21	0xbe728be0	-0.2368617
22	0xbe514367	-0.20435868
23	0x3d6c7277	0.05772635
24	0xbee66271	-0.4499698
25	0xbe30b288	-0.17255604
26	0xbf184cb3	-0.59492034
27	0x3ed76d3e	0.42075533
28	0xbe589265	-0.21149595
29	0xbe84ff5f	-0.25976083
30	0xbf10d688	-0.5657735
31	0xbebbbde2	-0.36668307
32	0x3e61bc90	0.22044587
33	0xbe1aabac	-0.1510455
34	0xbe92f9ca	-0.287062
35	0xbedc6929	-0.4304898
36	0x3f0e8312	0.5566875
37	0xbd730044	-0.059326425
38	0xbe4ec901	-0.20193864
39	0xbf4a6c0a	-0.79071105
40	0xbe25ee9f	-0.16204308
41	0xbeeff8c7	-0.4686949
42	0xbe7cfedb	-0.24706595
43	0xbe4fba98	-0.20286024
44	0xbf327091	-0.6970301
45	0xbef397cb	-0.47576746
46	0xbe954575	-0.29154554
47	0xbef20635	-0.4727036
48	0xbcc38746	-0.023868214
49	0xbf29e4ee	-0.66364944
50	0x3bac961b	0.0052669174
51	0xbe8f7592	-0.28019387
52	0x3e1caae8	0.1529957
53	0x3e3d39a9	0.18479027
54	0xbf019ac1	-0.5062676
55	0x3c0a55f5	0.008443345
56	0x3d7518ac	0.059837982
57	0x3f1c3a96	0.61026895
58	0x3d973637	0.073833875
59	0xbda7b83f	-0.08189439
60	0x3f0e9b7c	0.55706
61	0xbea99740	-0.33123207
62	0xbf002e67	-0.50070804
63	0xbe7b57ed	-0.2454526

bn3.running_var f4 [64]
0	0x3ddbf5bc	0.107402295
1	0x3dffaf82	0.12484647
2	0x3e2c3a56	0.16819128
3	0x3e34cb9a	0.17655793
4	0x3e3f79d5	0.18698819
5	0x3e09e58f	0.13466476
6	0x3e1a9b1f	0.15098237
7	0x3e3c5b9e	0.18394324
8	0x3e1b0944	0.15140253
9	0x3e82e46a	0.2556489
10	0x3dd10f84	0.102080375
11	0x3e0a269d	0.13491292
12	0x3e2b019b	0.16699831
13	0x3ebd137b	0.36928925
14	0x3e09d127	0.13458692
15	0x3e338fae	0.17535278
16	0x3dd408c3	0.10353234
17	0x3de3d484	0.111245185
18	0x3e565962	0.20932534
19	0x3df4ff68	0.119627774
20	0x3e4b085d	0.19827409
21	0x3e06d8a6	0.13168582
22	0x3e11c091	0.14233615
23	0x3dfc6262	0.123234525
24	0x3e7fac03	0.24967961
25	0x3dd932f3	0.10605421
26	0x3e401796	0.18758997
27	0x3e18bb01	0.14915086
28	0x3eb823a8	0.35964704
29	0x3e066ec0	0.13128185
30	0x3e1c9eb8	0.15294921
31	0x3e02ff1a	0.12792626
32	0x3dfdc6ce	0.123914346
33	0x3debbce8	0.115106404
34	0x3dfefeb7	0.12450927
35	0x3e44d3e5	0.19221456
36	0x3e19345b	0.14961378
37	0x3df7a564	0.12092093
38	0x3e162897	0.14663921
39	0x3e35272f	0.17690729
40	0x3ddfb4ff	0.10923194
41	0x3e2fb799	0.1715988
42	0x3e2f9a2e	0.17148659
43	0x3e5be247	0.21473037
44	0x3e787a74	0.24265462
45	0x3e0760d3	0.1322053
46	0x3e0186b0	0.12649035
47	0x3e29b4b2	0.16572836
48	0x3e1cd1aa	0.15314355
49	0x3dc7f1e3	0.09762933
50	0x3e31afa6	0.17352161
51	0x3e4c85cb	0.19972913
52	0x3e073b67	0.13206254
53	0x3dc19edf	0.094541304
54	0x3e4a6a32	0.19767073
55	0x3de11874	0.10990992
56	0x3de0be0c	0.109737486
57	0x3e9c438d	0.30520287
58	0x3e4efc09	0.20213331
59	0x3dc2f91d	0.09520171
60	0x3e653669	0.22384037
61	0x3de4064a	0.11134012
62	0x3e16884a	0.14700428
63	0x3dffa0d1	0.12481845

conv4.weight f4 [128, 64, 5]
0	0x3cbe686b	0.02324315
1	0x3ce5b80e	0.028041866
2	0x3c8173ad	0.015802229
3	0xbd00613b	-0.031342726
4	0xbd00e93b	-0.031472426
5	0xbd290273	-0.0412621
6	0xbd1af010	-0.037826598
7	0xbb39c634	-0.0028346898
8	0xbd9280f5	-0.07153503
9	0xbcac67ce	-0.021045592
10	0x3cfacaaf	0.030614225
11	0xbcad3ac0	-0.021146178
12	0x3c511303	0.01276088
13	0x3d7ef452	0.06224472
14	0xbad55d1e	-0.0016278361
15	0x3d0509dc	0.032480106
16	0x3d53c010	0.051696837
17	0x3d80b53b	0.06284567
18	0xbd26b60d	-0.04070096
19	0x3ca18748	0.019717827
20	0x38b8c39d	8.8102395e-05
21	0xbc1fc763	-0.009752127
22	0x3c4ae61c	0.012383964
23	0x3c5957d2	0.013265567
24	0x3c1e55f6	0.009664049
25	0xbd74af3c	-0.05973743
26	0x3c9068a1	0.017628016
27	0x3c3f6292	0.011681216
28	0x3d0605fe	0.03272056
29	0x3c1d7dcb	0.009612511
30	0xbcffb245	-0.031212935
31	0x3d81df78	0.063414514
32	0xbc527eef	-0.012847646
33	0xbccd4237	-0.025055988
34	0x3c99c3a0	0.01877004
35	0x3c6caf58	0.014446102
36	0x3d29a009	0.041412387
37	0x3d6c950e	0.057759337
38	0xbb52ff5f	-0.003219567
39	0x3cf753f5	0.030191401
40	0xbc972401	-0.018449785
41	0x3c6185fa	0.013764853
42	0x3c339e93	0.0109631
43	0x3bbbd487	0.0057321223
44	0xbc31e847	-0.010858602
45	0xbcf679fe	-0.030087467
46	0x3db6a864	0.08918837
47	0x3d1ea8a5	0.03873505
48	0x3caba809	0.020954149
49	0x3bc6142f	0.0060448865
50	0x3d0169cf	0.031595048
51	0xbd150151	-0.03637821
52	0xbca194fd	-0.019724363
53	0xbd022872	-0.031776853
54	0xbd2b90ce	-0.041886143
55	0xbc8f6cab	-0.017507872
56	0xbc824c8c	-0.015905641
57	0x3d21bad3	0.03948481
58	0xba4f5896	-0.00079096237
59	0xbcbb3966	-0.022854518
60	0xbc819c31	-0.015821548
61	0x3c14141c	0.009037998
62	0xbc91f9fd	-0.017819399
63	0x3c9560fe	0.018234726
64	0x3d073f31	0.03301925
65	0xbcfcd631	-0.030863853
66	0x3d13500b	0.035965007
67	0xbbd69f42	-0.0065497467
68	0xbd19b478	-0.037525624
69	0xbc749c3f	-0.01492983
70	0xbce5ca1a	-0.028050471
71	0x3c48f7ef	0.012266143
72	0xbbf362f1	-0.007427566
73	0xbd3da247	-0.046297338
74	0xbccfa393	-0.025346553
75	0x3d800cfc	0.062524766
76	0xbc5f3c5f	-0.013625233
77	0x3cd00f59	0.025397943
78	0x3c80cecb	0.015723607
79	0x3d402e34	0.046919063
80	0xbbf92108	-0.0076028146
81	0xbd2c3466	-0.04204216
82	0x3c871725	0.016490528
83	0x3c4e9edc	0.012611117
84	0x3b5a3872	0.0033297804
85	0xbc5c6b42	-0.013453307
86	0xbd0aea9a	-0.03391514
87	0xbd1eb48f	-0.038746413
88	0x3ccaaee5	0.0247416
89	0x3a9bdbec	0.0011891103
90	0x3cb7d0a3	0.022438353
91	0xbd3fbbb8	-0.046809882
92	0xbbfa9c63	-0.0076480373
93	0xbb5f0c2e	-0.003403436
94	0xbcda1eec	-0.026626073
95	0x3ca7bd08	0.02047588
96	0x3d4bca4e	0.04975348
97	0xbd355d38	-0.044278353
98	0x3d05fe45	0.032713193
99	0xbd1b7eff	-0.03796291
100	0xbd16e5ac	-0.036840126
101	0x3d41efc0	0.047347784
102	0xbcd12d46	-0.025534283
103	0x3cf671ef	0.030083625
104	0xbd49d08b	-0.049271148
105	0xbd05a998	-0.03263244
106	0xbd4ffa56	-0.05077585
107	0x3c6dae3d	0.014506874
108	0x3c8b4982	0.017002825
109	0x3c706efb	0.014674897
110	0xbc9f0a2f	-0.019414036
111	0xbd47e4eb	-0.048802298
112	0xbcbab025	-0.02278907
113	0x3b011333	0.0019695282
114	0xbb380b94	-0.0028083073
115	0xbcb3f27c	-0.021966211
116	0x3d21df01	0.039519314
117	0x3cb14327	0.021638466
118	0xbcfd1d3a	-0.030897725
119	0xbce5ab9c	-0.028035931
120	0xbd5e7800	-0.05431366
121	0xbbe609e2	-0.007020221
122	0xbd27c4ff	-0.040959354
123	0xb9e5b4c7	-0.00043812973
124	0xbd6f9261	-0.058489207
125	0xbca85877	-0.020549996
126	0x3beb6f1d	0.0071848766
127	0xbc1bf31b	-0.00951841
128	0xbafbfb06	-0.0019224591
129	0xbab1fb1d	-0.0013578866
130	0xbcc47db0	-0.023985714
131	0xbd11f6bf	-0.035635706
132	0xbca4fd61	-0.020140352
133	0xb99897e4	-0.00029104867
134	0xbc867e27	-0.016417576
135	0xbc612b68	-0.013743259
136	0x3cd37b08	0.025815502
137	0x3be84fcc	0.0070895907
138	0xbceba870	-0.02876684
139	0xbce0ff97	-0.027465625
140	0x398956b2	0.0002619527
141	0x3cd3ffcb	0.025878808
142	0x3d5828f5	0.052773435
143	0xbcf89880	-0.030346155
144	0xbb323f76	-0.002719847
145	0xbd551b4d	-0.05202799
146	0x3ccbf410	0.024896652
147	0x3c02dfe6	0.007987952
148	0x3d001192	0.031266756
149	0x3c58aa61	0.013224215
150	0x3cf82001	0.030288698
151	0x3d74604b	0.059662145
152	0x3c436ad7	0.011927328
153	0x3d196d96	0.037458025
154	0xbd00e30c	-0.03146653
155	0xbd37efd9	-0.04490647
156	0xbd1d0ae2	-0.038340457
157	0xbd3d2999	-0.04618225
158	0x3b3ef64c	0.0029138504
159	0x3a761013	0.00093865505
160	0xbd0abd93	-0.0338722
161	0xba6fa0a7	-0.00091410655
162	0x3d509bad	0.050929714
163	0x3ce8672c	0.028369509
164	0x3cadd622	0.02122027
165	0x3bcd3d09	0.0062633795
166	0xbd499544	-0.049214616
167	0x3c4c13a7	0.012455857
168	0x3d208d84	0.03919746
169	0xbd2e28df	-0.042519446
170	0x3cb20b28	0.021733835
171	0xbcaa10a8	-0.020759895
172	0xbc32d075	-0.010913958
173	0x3d0c5f7d	0.034270752
174	0x3bddc87d	0.006768285
175	0x3c744cfb	0.014910932
176	0xbc51560b	-0.012776862
177	0xbd3c60e1	-0.04599083
178	0xbcb6bbfb	-0.022306433
179	0x3ca6d56c	0.02036544
180	0x3cd193a4	0.025583096
181	0xbd50a505	-0.050938625
182	0xbd80c9e1	-0.06288505
183	0xbc02aef4	-0.007976282
184	0xbbb7184e	-0.005587614
185	0x3bcee9d5	0.006314496
186	0xbcb3fe6b	-0.021971902
187	0x3cdb7ab4	0.026791908
188	0xbd4d563c	-0.050131068
189	0xbc45527d	-0.0120435925
190	0xbd129d05	-0.035794277
191	0xbcbb879c	-0.022891812
192	0x3c1cbb16	0.009566089
193	0xbd0599d0	-0.03261739
194	0xbd830ecb	-0.06399306
195	0xbb992976	-0.004674132
196	0x3d57bba1	0.05266917
197	0x3d28090d	0.041024256
198	0xbd10f79a	-0.03539238
199	0x3ce71a99	0.028210925
200	0xbd8fba74	-0.07017985
201	0xbcf93cb0	-0.030424446
202	0xbb825d56	-0.0039784117
203	0xbd5d8858	-0.054085106
204	0xbd10e99c	-0.035379037
205	0xbd474be6	-0.048656367
206	0xbd1b5e98	-0.03793201
207	0xbd385fd5	-0.045013268
208	0xbcb42f10	-0.021995097
209	0x3cb2101e	0.0217362
210	0xbcbddcec	-0.023176633
211	0xbc166c34	-0.009181071
212	0x3c85803d	0.0162965
213	0x3d62f8b8	0.055412978
214	0x3c7c3f6c	0.01539598
215	0x3b8529d0	0.0040638223
216	0x3d28964b	0.041158956
217	0xbd3e06ef	-0.04639333
218	0x3d54df29	0.051970635
219	0xbd0ea3b2	-0.03482408
220	0xbcd6fb9b	-0.026243022
221	0x3d0b7710	0.034049094
222	0xbd121877	-0.035667863
223	0xbc044ab8	-0.008074455
224	0x3d08249f	0.03323805
225	0x3d633071	0.05546612
226	0x3c85790b	0.01629307
227	0x3b0694da	0.00205355
228	0xbc9c2479	-0.01906036
229	0x3c9107b8	0.017703876
230	0xbd54e92a	-0.051980175
231	0x3b7374bc	0.0037148437
232	0x3cff94c1	0.031198861
233	0xbd6143b2	-0.0549962
234	0xbcc39a06	-0.023877155
235	0x3c6a2c35	0.014292766
236	0xbcafd499	-0.02146368
237	0xbcbdec97	-0.023184104
238	0x3cfe85cb	0.031069657
239	0xbc55c9d6	-0.01304861
240	0xbbfc581c	-0.007700933
241	0x3a81f990	0.0009916294
242	0x3c8c3658	0.017115757
243	0x3d494094	0.049133852
244	0xbcafc306	-0.0214553
245	0xbd08b14a	-0.0333722
246	0x3b69ee4c	0.0035695015
247	0x3d1c9aad	0.038233448
248	0x3d2ca163	0.042146098
249	0x3ce94b5c	0.028478317
250	0x3d7ec450	0.062198937
251	0xbd33050d	-0.04370599
252	0xbc9df10a	-0.019279975
253	0xbd1ba551	-0.037999455
254	0x3d2486c2	0.040167578
255	0x3cc36c2b	0.02385529

conv4.bias f4 [128]
0	0xbd280b91	-0.041026656
1	0xbcc5016a	-0.024048526
2	0xbc816a58	-0.015797779
3	0xbcc3edc2	-0.023917083
4	0xbbfa5b85	-0.0076403045
5	0xbd02c735	-0.03192826
6	0xbca69c84	-0.020338304
7	0xbb56d518	-0.0032780822
8	0x3b3eb11f	0.0029097272
9	0x3b5d9253	0.003380914
10	0xbd3c140f	-0.045917567
11	0x3c520dd0	0.012820676
12	0xbccd423b	-0.025055995
13	0x3d55cf07	0.05219939
14	0xbc003222	-0.007824453
15	0xbd649c8f	-0.05581337
16	0xbd3849a4	-0.044992104
17	0xbd548e71	-0.051893655
18	0x3cd869d4	0.02641765
19	0xbd0c3f0b	-0.03423981
20	0x3d15c7a5	0.03656735
21	0xbc35187d	-0.011053202
22	0x3cc4622e	0.023972597
23	0xbcb2d268	-0.021828845
24	0x3c4e6504	0.012597326
25	0x392d81ed	0.00016546967
26	0xbca3e8e2	-0.020008508
27	0xbca78d5c	-0.020453148
28	0xbd0a159e	-0.033712022
29	0x3d27e826	0.04099288
30	0x3d477ee9	0.048705015
31	0x3c32f7dd	0.010923353
32	0xbd46045b	-0.048343997
33	0xbc964de3	-0.018347686
34	0xbd0e3d27	-0.03472629
35	0x3c6ee228	0.014580287
36	0x3ba635ac	0.005072316
37	0xbccb6246	-0.024827134
38	0xbca1fbf2	-0.019773457
39	0xbd1f4992	-0.03888852
40	0xbd29566c	-0.041342184
41	0xbc563928	-0.013075151
42	0xbd10dd97	-0.035367575
43	0xbc462333	-0.012093353
44	0xbd3477b5	-0.044059474
45	0xbd266a69	-0.040628824
46	0xbb51417c	-0.00319299
47	0xbc4fe26f	-0.012688263
48	0x3c75e89f	0.0150090745
49	0x3d5f95f6	0.054586373
50	0x3d2e1d66	0.042508505
51	0x3cafe8e8	0.021473363
52	0x3c1f6983	0.009729746
53	0xbb7fb963	-0.0039020411
54	0xbc839aa3	-0.016064947
55	0x3cceb924	0.025234766
56	0x3c2d64dd	0.01058313
57	0xbd0aaf97	-0.03385886
58	0xbd34d9ff	-0.04415321
59	0x3cf862a0	0.030320466
60	0xba34cd6a	-0.0006897064
61	0x3d158197	0.03650054
62	0x3c7d7b2a	0.015471259
63	0xbd166b47	-0.0367234
64	0xbca0b5b0	-0.019617885
65	0x3c7c5964	0.015402172
66	0xbc53ef3c	-0.012935456
67	0xbb946692	-0.004528829
68	0xbc8a4a16	-0.01688103
69	0xbd4fee19	-0.050764177
70	0xbd268dda	-0.040662624
71	0x3ccd21cc	0.02504053
72	0xbc2b9c5b	-0.01047429
73	0x3d13ee65	0.036116023
74	0xbc9867ce	-0.018604185
75	0x3d2627bb	0.040565234
76	0xbd29de5d	-0.041471828
77	0xbca66d7e	-0.020315882
78	0xbd603203	-0.054735195
79	0x3b6664db	0.003515533
80	0x3d2d68ea	0.042336382
81	0xbcf573f7	-0.029962523
82	0xbd35c12c	-0.044373676
83	0xbd25ce0e	-0.040479712
84	0xbd044fee	-0.03230279
85	0x3d5fa68c	0.05460219
86	0x3cb09bcc	0.021558665
87	0x3b4f3f3a	0.003162338
88	0xbd305c66	-0.043056868
89	0x3d4da64b	0.050207417
90	0xbb9c1b4a	-0.0047639953
91	0x3c78f314	0.015194673
92	0xbd426ead	-0.04746883
93	0x3c2ef233	0.010677862
94	0x3c0c3a25	0.008558785
95	0xbb69c307	-0.0035669224
96	0xbd34c3ff	-0.04413223
97	0x3cce6861	0.025196256
98	0xbd170f7b	-0.036879998
99	0xbd37199b	-0.044702154
100	0x3ceacf5f	0.028663335
101	0xbc81c03d	-0.015838737
102	0xbd5719c8	-0.05251482
103	0xbcb27af0	-0.021787137
104	0x3cc3a5d8	0.023882791
105	0x3cf44540	0.029818177
106	0x3c84c1da	0.016205717
107	0xbcc4debc	-0.02403199
108	0xbd02618e	-0.031831317
109	0xbd2e7a82	-0.0425973
110	0x3cf599b7	0.029980524
111	0xbcd00b80	-0.025396109
112	0x3d1203b7	0.035648074
113	0xbbb221b6	-0.0054361476
114	0xbcbb8d86	-0.022894632
115	0x3c817f12	0.015807662
116	0x3d1f5907	0.038903262
117	0xbcb7801e	-0.022399958
118	0x3c3209ec	0.010866623
119	0x3c043ada	0.008070672
120	0xbd403b6f	-0.04693168
121	0xbd300a89	-0.042978797
122	0x3ce97caf	0.028501837
123	0x3d26d33b	0.04072879
124	0xbd52cfef	-0.051467832
125	0x3d63b19a	0.055589296
126	0x3c3c7030	0.011501357
127	0x3d24d53a	0.04024241

bn4.weight f4 [128]
0	0x3f872a3a	1.0559762
1	0x3f88d6ba	1.0690529
2	0x3f877dce	1.0585268
3	0x3f8963b7	1.0733556
4	0x3f88b3d7	1.0679883
5	0x3f88b064	1.067883
6	0x3f884adb	1.0647844
7	0x3f876232	1.0576842
8	0x3f89d547	1.0768212
9	0x3f86b424	1.0523725
10	0x3f876fd4	1.0581002
11	0x3f86c2f1	1.0528241
12	0x3f87d051	1.0610448
13	0x3f86a3f1	1.0518781
14	0x3f87bd16	1.060458
15	0x3f87455a	1.056804
16	0x3f8734c3	1.0562977
17	0x3f88a2f2	1.0674727
18	0x3f879810	1.0593281
19	0x3f8a5b7d	1.080917
20	0x3f87735f	1.0582083
21	0x3f89bae2	1.0760157
22	0x3f87446f	1.0567759
23	0x3f88c563	1.0685238
24	0x3f894d2f	1.072668
25	0x3f8566ca	1.0421994
26	0x3f887027	1.0659226
27	0x3f87a95f	1.0598563
28	0x3f896f89	1.0737163
29	0x3f872651	1.0558568
30	0x3f8998e5	1.0749785
31	0x3f87de4b	1.0614713
32	0x3f890f9d	1.070789
33	0x3f8879ad	1.0662133
34	0x3f87d40b	1.0611585
35	0x3f88775f	1.0661429
36	0x3f8743ff	1.0567626
37	0x3f87e64b	1.0617155
38	0x3f88d3ee	1.0689676
39	0x3f86bd41	1.0526506
40	0x3f8827b7	1.063712
41	0x3f88ff06	1.0702827
42	0x3f85e38d	1.0460068
43	0x3f8991d6	1.0747631
44	0x3f88ebfc	1.0697017
45	0x3f872bdb	1.0560259
46	0x3f86e780	1.0539398
47	0x3f87a19e	1.0596197
48	0x3f892c74	1.0716691
49	0x3f86f992	1.0544913
50	0x3f87db7d	1.0613858
51	0x3f895ff1	1.0732404
52	0x3f88666d	1.0656258
53	0x3f88099b	1.0627931
54	0x3f87eb08	1.0618601
55	0x3f888b57	1.0667523
56	0x3f87bc96	1.0604427
57	0x3f882469	1.0636111
58	0x3f86582c	1.0495658
59	0x3f8748d6	1.0569103
60	0x3f89564d	1.0729462
61	0x3f879e2f	1.0595149
62	0x3f86f132	1.0542357
63	0x3f898c8e	1.0746019
64	0x3f87dac2	1.0613635
65	0x3f85f960	1.0466728
66	0x3f8679d5	1.050593
67	0x3f882f1a	1.0639374
68	0x3f875883	1.0573887
69	0x3f88b969	1.0681583
70	0x3f898d4b	1.0746244
71	0x3f875e8c	1.0575728
72	0x3f85e3fb	1.0460199
73	0x3f884620	1.06464
74	0x3f86eda7	1.0541276
75	0x3f88e0ff	1.0693663
76	0x3f8aac88	1.0833902
77	0x3f89a774	1.0754228
78	0x3f877dbd	1.0585247
79	0x3f864a72	1.0491469
80	0x3f86e61a	1.0538971
81	0x3f86da54	1.0535378
82	0x3f87f4f4	1.0621629
83	0x3f87f71e	1.0622289
84	0x3f86d104	1.0532537
85	0x3f87a731	1.0597898
86	0x3f88c190	1.068407
87	0x3f876f02	1.0580752
88	0x3f8751f0	1.057188
89	0x3f8890c8	1.0669184
90	0x3f87726e	1.0581796
91	0x3f8699ec	1.0515723
92	0x3f8747d7	1.0568799
93	0x3f87cac9	1.060876
94	0x3f88f670	1.0700207
95	0x3f8867db	1.0656694
96	0x3f889f66	1.0673645
97	0x3f87486c	1.0568976
98	0x3f8a362f	1.0797786
99	0x3f87f849	1.0622646
100	0x3f8871be	1.0659711
101	0x3f87f17b	1.0620569
102	0x3f88b5c6	1.0680473
103	0x3f87d22d	1.0611016
104	0x3f874aca	1.0569699
105	0x3f867358	1.050395
106	0x3f8852da	1.0650284
107	0x3f87921d	1.0591465
108	0x3f8886f9	1.066619
109	0x3f86b90e	1.0525224
110	0x3f88cd75	1.06877
111	0x3f889e26	1.0673263
112	0x3f87dc92	1.0614188
113	0x3f890bee	1.0706766
114	0x3f87611c	1.057651
115	0x3f88828a	1.0664837
116	0x3f8856cc	1.0651488
117	0x3f888646	1.0665977
118	0x3f871dac	1.055593
119	0x3f869678	1.051467
120	0x3f869a4f	1.0515841
121	0x3f8732f5	1.0562426
122	0x3f86fc1e	1.054569
123	0x3f881df6	1.0634143
124	0x3f87aed7	1.0600232
125	0x3f875292	1.0572073
126	0x3f8834cf	1.0641116
127	0x3f8947e6	1.0725067
