core/pretrained_nets/domain_classifier_tr.ckpt (torch, 731190 bytes, 30 tensors)

conv1.weight f4 [16, 3, 5]
000000 49 d9 a0 3d 1c 3c d1 bd fd 26 db 3d 93 08 26 bc
       0.07853944 -0.10216543 0.10700796 -0.01013388
000010 45 44 46 bd 11 88 1f be cc 0e 81 3e bb 04 81 3e
       -0.04840495 -0.15579249 0.25206602 0.25198922
000020 2c 1b a1 bd f5 a8 b7 bd ac 13 9e 3d f6 61 e4 3c
       -0.07866511 -0.08967773 0.07718596 0.027878743
000030 63 16 97 3d da be 7d 3e f0 51 0d bb 42 bc 9b 3d
       0.07377317 0.24779835 -0.002156373 0.07604267
000040 a0 8a 51 3e 8f 15 97 3c fc 07 5d 3e 3b 2b 30 3e
       0.20463037 0.018442897 0.21585077 0.17203991
000050 34 c7 8a 3b 5a 4c 32 3e 16 e5 60 3e 96 59 00 be
       0.0042351726 0.17411938 0.2196239 -0.12534174
000060 3b a3 d5 bb d7 d2 84 3e 4d f6 4c 3e db 6e a5 bd
       -0.0065197027 0.25942108 0.20015831 -0.08077785
000070 b5 a5 1e 3e 47 66 1b 3e a2 7b 0d 3d 80 91 d5 3b
       0.154929 0.15175734 0.034541734 0.006517589
000080 44 c2 85 3e 2a 4b 4b be 90 c8 4a 3e c9 5e 28 3e
       0.26124775 -0.19852892 0.19803071 0.16442408
000090 1e 89 5b 3e c9 1c 1b 3e 77 7b 73 3d 24 53 fe bd
       0.21439025 0.151477 0.059443917 -0.124182016
0000a0 e6 8c 38 3d 71 20 79 bd d3 c1 1b be 43 2e 8b 3d
       0.045056246 -0.060821954 -0.15210657 0.06795933
0000b0 5b ea 7a be 4d 71 60 3e 26 f5 ea 3c 3d 60 27 be
       -0.24503462 0.21918221 0.028681349 -0.16345306
0000c0 8d 97 ce bd 5d eb 69 3e d4 0b 62 bc de 17 3f 3d
       -0.100875 0.2284369 -0.013796765 0.04665362
0000d0 d8 96 cd 3d 3b 1c 5a be 2f 63 df 3d 68 2d be bd
       0.10038537 -0.21299832 0.1090759 -0.09286004
0000e0 04 ad 07 3e 65 96 9d bd 61 0d d0 bd 31 eb a6 bd
       0.13249594 -0.07694701 -0.10158802 -0.08150328
0000f0 ab 92 1e bd 4f 6f 0e be 85 1c 13 3c b9 e4 67 be
       -0.038714092 -0.13909648 0.008978968 -0.22645845
000100 29 8e f8 bd 33 f7 cd bc e2 3f 6f 3d 9c 63 05 3e
       -0.1213649 -0.025142288 0.058410533 0.13026279
000110 f9 b5 56 be 69 02 1f bd 82 1b 96 be d7 2c 51 bd
       -0.20967855 -0.038820658 -0.29317862 -0.051068153
000120 05 e5 3d be be e8 0e be ff 9b 37 3e cc 22 b0 3d
       -0.18544395 -0.13955972 0.17930602 0.08600387
000130 2b e6 6f bd 17 c1 bf 3d ef 9b 85 3e c8 2a 06 bd
       -0.058569115 0.09363001 0.2609553 -0.032755643
000140 64 1b 90 be e0 ae b7 bd a6 38 7e 3e d5 05 39 bd
       -0.28145897 -0.08968902 0.24826297 -0.045171577
000150 90 79 a2 3d 48 ab 19 3d 87 66 3e be fd 35 88 3c
       0.079333425 0.037516862 -0.18593799 0.016627306
000160 c0 1e 8b bd bc 8f d1 3d 4c de ff 3d 1a 83 17 3e
       -0.067929745 0.10232493 0.12493572 0.14796105
000170 00 7c 72 be ec c5 84 be ec 0a 1c be c3 29 71 3e
       -0.23680115 -0.25932252 -0.15238541 0.23551087
000180 a8 61 17 be b6 c5 8a be de 4a 03 3e 3b e9 39 be
       -0.14783347 -0.27103966 0.12821528 -0.18155377
000190 9b 2f 5a bd de 38 c2 3d 8d 4a 48 3d d3 d3 52 3d
       -0.053268056 0.09483503 0.048899222 0.051471543
0001a0 9f 67 73 3e a6 85 1a 3e 31 67 05 be 04 15 3b be
       0.23769997 0.15090045 -0.13027646 -0.18269736
0001b0 89 eb 9f 3d dc 77 b8 bd a8 ba 2f be fa db 94 bd
       0.07808597 -0.09007236 -0.17161047 -0.0726852
0001c0 f5 be a8 bc dd ba 3d bd 72 1a 8e 3d 42 2e 81 be
       -0.020598868 -0.046320785 0.06938638 -0.25230604
0001d0 b2 6d 91 be 17 96 ea 3d 7f d3 8e ba 44 32 68 3d
       -0.28404003 0.114544086 -0.0010896771 0.056688562
0001e0 b9 89 93 be 22 90 9d 3d 16 9d 34 be ea dd 7b bd
       -0.28816012 0.07693507 -0.17638049 -0.06149093
0001f0 4e 90 e4 3d a8 d4 a6 bd 40 5b 78 3d cd dd 4f bc
       0.111603364 -0.0814603 0.060633898 -0.012687159
000200 9e 49 60 3b f5 a1 21 3e f4 6d 4a 3e 58 bc 02 be
       0.0034223567 0.15784438 0.19768506 -0.1276716
000210 6a 96 24 be f8 0f 4f be 4c 40 37 bb c0 5d 3e be
       -0.16073003 -0.20220935 -0.0027961908 -0.1859045
000220 84 a9 42 3e a2 2d fd ba a1 97 96 3e 7a fc 70 3e
       0.19009978 -0.0019315968 0.2941256 0.23533812
000230 48 0b 76 3b 70 65 a8 3c e9 de 58 3e ce 44 93 3d
       0.0037543345 0.020556182 0.21178783 0.07190858
000240 82 82 e9 3d c0 67 7b bd 88 b2 11 3e de 98 5d 3e
       0.114018455 -0.06137824 0.1422826 0.21640345
000250 9b 94 29 bd fe 38 6c be bc 3b 0a 3e 14 06 da bd
       -0.041401487 -0.23068616 0.1349935 -0.106456906
000260 67 1e 48 be 6a 25 5d 3e 09 ad 21 3e 15 96 2a 3c
       -0.19542848 0.21596304 0.15788664 0.010411759
000270 33 57 1c be d3 03 27 3e 15 a9 cc bd 46 99 0e 3e
       -0.15267639 0.16310053 -0.09993187 0.13925657
000280 a6 33 2f 3e df 2a c5 bd e7 de 61 3e 16 6d 62 3e
       0.17109546 -0.09627318 0.22057687 0.22111925
000290 28 57 02 bd 86 60 75 3e a0 d6 7d be 3e 02 70 3d
       -0.0318214 0.23962602 -0.24788904 0.05859589
0002a0 c0 ee 27 be 0b 74 12 be eb 35 5e be 61 64 19 be
       -0.1639967 -0.1430208 -0.21700256 -0.14979698
0002b0 32 f1 38 be 25 2c 3a be d1 f3 68 3e 46 e5 1a be
       -0.18060759 -0.18180902 0.22749259 -0.15126523
0002c0 43 6d 02 bd 54 b0 1a be e8 31 84 3e a3 8d 05 be
       -0.03184248 -0.15106326 0.25819325 -0.13042311
0002d0 d3 3f d8 bc 1d 55 c7 3d 3b 52 40 3e 3f 32 f6 3d
       -0.026397621 0.09733031 0.18781368 0.120213024
0002e0 1c ef 05 3e 14 4f 4b 3e 6a f1 bd bd 59 30 0f be
       0.13079494 0.19854385 -0.09274562 -0.13983287
0002f0 d7 8d 89 be b0 f1 54 be 37 d2 ab 3d ee b0 86 bd
       -0.26866028 -0.20795321 0.08389705 -0.065767154
000300 77 55 0d be bc 27 80 3e bd bb 16 bd 9e af 59 3d
       -0.13802134 0.25030315 -0.036800135 0.053145997
000310 92 74 23 3d 24 84 26 3e bd d4 98 3e 18 b4 87 3e
       0.039906092 0.16261345 0.29849806 0.26504588
000320 d1 11 ad 3d 6f a5 46 3e 73 9c 71 3d a8 d8 da bd
       0.08450664 0.19399045 0.058987092 -0.10685855
000330 95 d9 9c 3d a8 69 9f 3c 6c b7 0f 3d 8f 11 e0 bd
       0.07658688 0.01945956 0.035087034 -0.10940849
000340 a2 44 3b 3e 87 ae ac bd 87 53 67 3e bc fc 7a 3d
       0.182879 -0.08431726 0.22590457 0.061276183
000350 a8 13 4c 3e 60 92 82 3d 12 ad 76 be 39 c0 43 3d
       0.19929373 0.06375575 -0.24089459 0.04779074
000360 f3 1f 77 be ff 7f 26 be c3 03 7b bd 5e c6 25 3e
       -0.24133281 -0.16259764 -0.061282884 0.16188952
000370 8c a1 68 be 63 54 36 3e a1 28 7d be e1 57 f8 3d
       -0.22717875 0.17805628 -0.2472253 0.121261366
000380 1d 80 fb 3d 6b b6 25 be 5b 1d 4c 3e 9d 8c 48 3d
       0.12280295 -0.16182868 0.19933073 0.048962224
000390 a2 0f e8 bc 03 dc 51 be c3 d5 06 be 4b 86 80 3e
       -0.028327767 -0.20494084 -0.13167481 0.25102457
0003a0 fa c8 07 3e 28 6f de bc 86 bd 82 bc bc c7 79 3e
       0.1326026 -0.027152613 -0.015959512 0.24392599
0003b0 8b c1 5f 3e c7 7d 6a be 85 44 5c be 9e c7 a3 3d
       0.21851175 -0.22899543 -0.21510513 0.07997058

conv1.bias f4 [16]
000000 eb 09 b3 3d 34 d0 52 be b4 7d 27 bc 32 7d 0e be
       0.08742126 -0.20587236 -0.010222841 -0.13914946
000010 b8 86 e5 bc f6 cd 1e be 11 a9 69 be d8 8d 77 3d
       -0.02801834 -0.15508255 -0.228184 0.060438007
000020 ae c8 39 be 8f 72 38 be fd 04 e5 bd 97 c3 19 3e
       -0.1814296 -0.1801245 -0.11182592 0.15016018
000030 13 0a c3 bd 92 d8 44 3e 20 87 0d 3e 4a 44 21 3e
       -0.09523406 0.1922324 0.13821077 0.15748706

bn1.weight f4 [16]
000000 b8 4c 81 3f d9 4c 81 3f 09 c6 7c 3f c9 3e 80 3f
       1.0101538 1.0101577 0.9873968 1.001916
000010 13 95 80 3f c7 57 7e 3f 21 66 81 3f 61 99 7e 3f
       1.0045494 0.9935269 1.0109292 0.9945279
000020 49 e6 7f 3f 8b e5 79 3f a8 45 81 3f 3b 61 7c 3f
       0.9996076 0.9761588 1.0099382 0.9858586
000030 19 a2 7e 3f 7b 65 81 3f 1a 1e 81 3f 91 a9 81 3f
       0.9946609 1.0109094 1.0087311 1.0129873

bn1.bias f4 [16]
000000 19 26 b0 3c b6 c1 c0 3b 2d 69 90 3c 17 28 b2 3c
       0.021502541 0.005882467 0.017628277 0.021747632
000010 b7 c4 64 3d dd a7 7e 3d a6 6d 0b 3c e0 2f 2d 3d
       0.055851664 0.062171806 0.008510029 0.042281985
000020 ae 73 68 3d 67 b3 5e 3d fd f2 40 3c a6 b0 05 3d
       0.056750946 0.05437031 0.011776683 0.03263917
000030 b0 b6 8d 3d 27 3b 96 3c a8 10 26 3d d5 cc 62 3d
       0.069196105 0.018338753 0.04054323 0.055371124

bn1.running_mean f4 [16]
000000 b3 9d d1 3e 6f f9 41 3f 03 3d 87 3e d1 ee b1 bd
       0.40940627 0.7577123 0.26413736 -0.08688129
000010 bf df 2e bf 41 0e 40 3b fb 3a da be 94 f9 bb be
       -0.6831016 0.002930537 -0.42623124 -0.3671385
000020 33 4b 02 bf c1 d5 d8 3e 0c cf 9c 3e 45 85 c5 be
       -0.50895995 0.4235058 0.30626714 -0.3857824
000030 5b 72 7c 3d 9f 26 73 3f 69 3e 52 3e 4f 9d 53 3e
       0.061632495 0.94980806 0.2053162 0.20665477

bn1.running_var f4 [16]
000000 9b 10 fb 3a d3 bb 56 3c 8c 71 5e 3b 05 5d f0 3a
       0.0019154729 0.013106304 0.003394219 0.0018338269
000010 2a d7 f9 3b 91 cc 7d 3b 61 de fc 3b 08 de 6f 3b
       0.0076245265 0.0038726667 0.0077169393 0.0036600847
000020 7e b8 9d 3b ae 03 10 3c 47 44 85 3b 8e 21 a1 3b
       0.004813253 0.00878994 0.004066977 0.00491733
000030 0a 29 d6 3b 75 9a 56 3c 6b 8d a8 3b c6 f9 85 3b
       0.006535654 0.013098349 0.0051438115 0.004088613

conv2.weight f4 [32, 16, 5]
000000 cd 30 8f 3d ec 93 11 bd 8f 00 c9 3d b3 5b 9d 3c
       0.0699173 -0.03554146 0.0981456 0.019208765
000010 04 17 98 3d 50 30 52 3d d9 a3 27 3d c8 eb 18 3d
       0.07426265 0.051315606 0.04092774 0.037334234
000020 38 5a 84 bd 54 15 f8 bd e1 9c 1d 3d d4 8a c5 3c
       -0.0646252 -0.12113443 0.03847969 0.02411405
000030 27 6f 67 3c 4a 98 00 3d 66 a3 1b 3b ed cf 8c bd
       0.014125622 0.031395234 0.0023748516 -0.06875596
000040 49 72 6e bd 9f 2f a2 37 4e e5 2e bd 38 52 c7 3c
       -0.05821446 1.933408e-05 -0.04269915 0.024331197
000050 c2 a3 7a bb ea ab 8e bd 3d 84 32 bd 01 25 63 bd
       -0.003824458 -0.06966384 -0.043583144 -0.05545521
000060 78 c0 b3 3b 5e 25 e8 bd 21 8c 04 3d 01 6e 27 bd
       0.0054855905 -0.11335252 0.0323602 -0.040876392
000070 42 93 a5 bd f1 34 c7 3b 82 1f 9e bd 92 e7 46 3c
       -0.08084728 0.006079309 -0.077208534 0.012140172
000080 1c 9b 40 bd 4e fe d5 3c 5c 77 9d bd ba a8 a3 3d
       -0.047022924 0.026122238 -0.076887816 0.079911664
000090 a9 94 01 3c 3d ae 7c bd c8 28 b4 3d b8 fa a6 3c
       0.0079089785 -0.061689604 0.08796841 0.020383224
0000a0 54 12 d2 bc bd f9 a2 bd ec 19 6b bd ff 47 be 3c
       -0.025643505 -0.0795779 -0.057397768 0.02322769
0000b0 02 93 c0 3b 9a bb 27 3d 16 a3 20 3d 06 64 b2 b9
       0.0058768997 0.040950395 0.03921803 -0.0003402533
0000c0 0b 80 ac 3d 61 e5 01 3c 45 df 1f bd b7 cf 76 3d
       0.0842286 0.007928223 -0.039031286 0.060256686
0000d0 24 5e 8b 3d 49 35 6f 3d 4b 5f 37 bd a3 3b 2d bd
       0.06805065 0.058400426 -0.044768613 -0.042293202
0000e0 fd 9c 85 bd 2c 13 27 3b bf 40 2f 3d 68 eb 89 bd
       -0.06524084 0.0025493605 0.042786356 -0.06734353
0000f0 81 d6 ad bd ae c7 a1 bd 48 14 1a bd e0 92 9a bd
       -0.08488179 -0.07899414 -0.037616998 -0.075475454
000100 ec a7 cf bd d4 fa fd 3c 91 d6 d1 3d 19 74 72 3d
       -0.101394504 0.031003393 0.102460034 0.05919275
000110 50 70 bf 3b 45 6a 98 3d 8e 9a b1 bd 78 67 8d 3d
       0.005842246 0.07442144 -0.08672057 0.06904501
000120 56 ed d1 bc bf dc 90 3d 48 40 8b bc 0d 25 16 3a
       -0.025625866 0.07073354 -0.016998425 0.0005727567
000130 76 fb e7 bc 88 c1 83 3d be 21 bd 3c 57 70 dd 3c
       -0.028318148 0.064333975 0.023087379 0.027031107
000140 c2 b3 a5 3b ea be 47 bd 72 bc af 3c 82 5e 82 bd
       0.005056829 -0.048766054 0.021452162 -0.06365682
000150 36 dc 62 3c af 7a 96 bc b4 85 64 bc 5d 85 f9 bd
       0.013846448 -0.018369047 -0.013947893 -0.1218364
000160 48 1f 8c 3d 86 54 a3 3d 6e 15 de 3d 5b 57 91 bd
       0.06841904 0.07975106 0.10843931 -0.0709674
000170 17 6d 0a 3c c9 ce 7e bd 9c 0f a7 3d 41 a3 2e bd
       0.008448861 -0.062208924 0.08157274 -0.04263616
000180 0d 07 76 bd 09 50 5c bd 2b 64 c7 bd 0b 8e 99 bd
       -0.060065318 -0.053787265 -0.097359024 -0.07497796
000190 28 5c f1 bd 71 39 1a bd 3b 8a a0 3d 8e ec 6a bc
       -0.117851555 -0.037652437 0.07838865 -0.014338626
0001a0 85 df f1 3c 3e bd 1f bd b5 08 f7 bc 97 c5 8b bd
       0.029525528 -0.038998835 -0.030155519 -0.06824797
0001b0 53 6b b7 3c 11 cf a5 bd fb 9d 32 3b 82 42 f7 bb
       0.022390043 -0.080961354 0.0027254808 -0.00754577
0001c0 0d 78 0e 3d 7c fa d4 ba f8 5d a6 bd e1 6b 75 3d
       0.034782458 -0.0016248967 -0.08123392 0.059917334
0001d0 f7 22 8a bd 13 07 ad bc 0b 31 e0 bb 87 14 e7 bd
       -0.0674495 -0.021121537 -0.006841784 -0.11283212
0001e0 c1 b0 4e bc f2 43 86 3d 96 cd 1d bc 6c d1 e3 3d
       -0.012615384 0.06555928 -0.009631535 0.111239284
0001f0 b5 84 99 3d d7 07 f5 3c e8 e4 93 bd c8 92 ca 3c
       0.07496015 0.029910965 -0.07221395 0.024728194
000200 0c 7d df bd 22 35 9f 3c cc 8c 5d 3d d6 fc 0b 3c
       -0.10912523 0.019434515 0.054089352 0.0085441675
000210 8c 41 fd bd ff 71 56 bd d2 1c 1b bd 6e 01 f0 bb
       -0.12366018 -0.05235481 -0.037869282 -0.007324389
000220 d6 b3 94 3d aa 65 c0 bd f9 15 a5 3d b0 61 82 3d
       0.072608635 -0.09394391 0.080608316 0.06366289
000230 01 8d 93 bd 03 46 94 3d 76 cb 08 be 1b 1a fc bd
       -0.07204629 0.07239916 -0.13358864 -0.12309667
000240 16 2c e3 bd dc 18 94 3d b3 ce a6 bd 65 fc 32 bd
       -0.11092393 0.07231304 -0.081448935 -0.043697733
000250 0d cf 81 bd 3d 1c 63 bd 39 82 51 bd d5 ba 1d bd
       -0.0633832 -0.055446852 -0.05114958 -0.038508255
000260 3d f8 87 bd 06 93 83 3d cd b0 e8 bb 71 8c bf 3d
       -0.066391446 0.06424527 -0.0071011544 0.09352959
000270 a6 68 49 3d 59 e3 e6 bd 9e eb 3c bd 54 39 bb bc
       0.049172066 -0.11273832 -0.04612314 -0.022854485
000280 20 c5 de bc a7 26 da bd 99 27 e3 3d d9 c3 20 bd
       -0.027193606 -0.106519036 0.11091537 -0.039249275
000290 ab c7 28 3d c3 dc 4a bc 1a cb bf bd 5c 25 d5 bb
       0.041206043 -0.012381735 -0.093649104 -0.0065046977
0002a0 b6 23 f3 3d 24 1d e2 bd 60 99 04 be 25 11 32 bd
       0.11872046 -0.110407144 -0.12949133 -0.04347338
0002b0 6a 9c 83 bd e2 e5 1a 3c 21 3e 59 3c be 76 1b 3d
       -0.06426318 0.009454222 0.013259442 0.03795504
0002c0 03 81 ad 3d e6 71 a3 3d a9 25 6c 3d aa 65 63 bd
       0.08471873 0.07980709 0.057653103 -0.055516876
0002d0 65 76 9d 3d eb ee cb bd e1 29 82 bc 58 8c 1b bd
       0.076885976 -0.09957679 -0.01588911 -0.03797564
0002e0 48 8d 28 bd e5 0d 99 bd ee 89 68 bd b6 be 93 bd
       -0.04115036 -0.07473353 -0.056772165 -0.072141096
0002f0 20 3c ab 3d 84 77 ca 3d 9c e9 7a bd 11 84 b0 bb
       0.08361077 0.09886077 -0.061257944 -0.0053868373
000300 3f 5e 4f 3d 91 8c 2a 3d c8 58 af bd 43 92 3d bd
       0.05062699 0.04163796 -0.085618556 -0.046282064
000310 7b 74 66 bd f2 a4 b5 3d a3 2e 03 be f5 a1 be bd
       -0.05626343 0.088693514 -0.12810759 -0.093082346
000320 09 36 02 be a5 4a ec bd 02 b1 fb 3c c8 01 7f bd
       -0.12715925 -0.11537675 0.030724052 -0.062257558
000330 f5 af af 3c fe 25 b3 3d a4 fd c0 bd 9e 15 c3 3c
       0.021446208 0.08747481 -0.09423378 0.023814019
000340 da b7 8d 3d 9e 31 f0 3c eb ae 01 3e 63 59 d8 3d
       0.069198325 0.029320534 0.12664382 0.10563924
000350 51 5f 68 bc 99 a7 a6 3d 62 62 e2 3d 1b 4e 9a bc
       -0.014182881 0.081374355 0.11053921 -0.018836072
000360 61 21 aa bc 10 03 32 3d 7f d4 77 3c 0a 5f 07 3c
       -0.02076787 0.043459952 0.015126347 0.008262405
000370 29 b7 4b bd 5c 62 a6 3d cd f4 2d 3c 39 d6 88 bd
       -0.049735222 0.08124229 0.010617447 -0.06681485
000380 ac c1 cd bc 73 48 be bd 87 18 8e 3c 02 ff 9c 3d
       -0.025116764 -0.09291162 0.01734568 0.076658264
000390 58 56 cc 3b 28 50 30 bd 62 ec 9f bc 51 72 4a bd
       0.006235879 -0.043045193 -0.019521896 -0.049425427
0003a0 ab b8 d5 bd 11 4a 04 3d 9b 33 5c 3d 25 7a 10 bd
       -0.10435613 0.032297198 0.053760152 -0.035272736
0003b0 16 8f 3c 3d 70 2e 8f 3d ca ab 77 3d 6d 1b c9 3d
       0.046034895 0.06991279 0.060466565 0.09819684
0003c0 b2 14 6f bc cb 61 92 bc 87 d0 69 bd 68 2e a2 3d
       -0.0145923365 -0.017868897 -0.057083633 0.079190075
0003d0 da 7b f5 3d 78 3d 0a bd 34 ed 80 3d 6d 63 c0 38
       0.119865134 -0.033750027 0.06295243 9.173793e-05
0003e0 7a 16 3f 3c 93 08 42 3d 1e 30 a6 3c 12 30 a0 bc
       0.011663074 0.04737146 0.020286616 -0.019554172
0003f0 b8 4b 00 3e 82 d6 95 3d e9 6c 58 3d 80 2f 27 bd
       0.12528884 0.07316305 0.05283824 -0.040816784

conv2.bias f4 [32]
000000 52 07 b7 bc 15 94 e8 bd 46 85 e0 3d c8 08 fe bc
       -0.022342358 -0.113563694 0.1096292 -0.031010047
000010 b9 39 cd bd 0c a9 de bd 57 69 36 3d ba 05 e5 3d
       -0.10020775 -0.10872087 0.044534054 0.11182733
000020 ff e2 4a 3c 33 f5 3c bd 89 d5 b5 bd 52 52 95 bd
       0.012383222 -0.046132278 -0.08878619 -0.07291092
000030 75 e7 8d 3c 3b ec 73 3d ff dc 43 3d 9e 45 1a 3a
       0.017322281 0.05955146 0.04781818 0.00058850076
000040 85 96 35 3d 37 e0 82 3c 74 b2 b4 39 cc 93 84 3d
       0.044333 0.015976055 0.00034465233 0.064735025
000050 9c 73 df 3c f7 e6 5c bd af b0 a0 bd d3 9d ab bc
       0.027276807 -0.053931203 -0.078462 -0.02094928
000060 fd 14 0e 3d 27 ea 19 3d 78 82 b8 bd e5 20 93 3c
       0.034687985 0.03757682 -0.0900926 0.017960021
000070 50 5b 40 bc 68 3d 78 3d d0 b0 c2 bd ec 09 a8 bd
       -0.011740521 0.060605437 -0.095063806 -0.082050174

bn2.weight f4 [32]
000000 2a 1b 81 3f 4c 30 87 3f 8c bc 80 3f f3 b7 7c 3f
       1.0086415 1.0561614 1.005754 0.98718184
000010 1d 39 7b 3f 85 a3 80 3f f5 f4 84 3f 5d cb 7b 3f
       0.9813402 1.0049902 1.0387255 0.9835718
000020 01 0e 7d 3f cc e6 81 3f 9a d7 7f 3f d5 db 7f 3f
       0.98849493 1.0148559 0.99938357 0.9994481
000030 5b 5f 7f 3f 3b 87 80 3f 14 ca 7f 3f 4e 1a 81 3f
       0.99754876 1.0041269 0.9991772 1.0086153
000040 fa e7 7e 3f a3 b7 82 3f da f9 7e 3f cf b0 79 3f
       0.9957272 1.0212291 0.99599993 0.97535414
000050 aa a4 81 3f 96 2f 7b 3f 0a 82 80 3f bd c0 78 3f
       1.0128376 0.98119485 1.0039685 0.97169095
000060 05 d4 7d 3f d8 46 7b 3f 76 e7 82 3f b8 af 7e 3f
       0.9915164 0.98154974 1.0226886 0.99486876
000070 22 ee 81 3f c6 35 81 3f 9a 28 82 3f f6 80 7d 3f
       1.0150797 1.0094535 1.0168641 0.99024904

bn2.bias f4 [32]
000000 4b c1 cc bc b7 a3 bf 3c 3a ea bf 3c 0b 3a 21 3b
       -0.024994513 0.023393495 0.023427118 0.0024601247
000010 e3 63 33 bd 07 bd 68 bc d6 c3 06 bb 29 cb 9e 3c
       -0.04379643 -0.014205224 -0.0020563505 0.019383984
000020 af 97 47 3c 3f fc 5d 3c 04 b5 66 bc 45 23 d5 bc
       0.01218216 0.01354891 -0.014081243 -0.026017794
000030 51 d2 8e 3c 22 d3 ce 3c 20 77 c2 bc 03 6f 2e bd
       0.017434271 0.02524716 -0.023738444 -0.042586338
000040 8b d6 03 3d 7d ac 0c bd f3 d1 04 3c 39 57 6d bb
       0.032187026 -0.034344185 0.008106696 -0.0036215319
000050 1b dc be 3c 08 2b 14 3c 43 2f ff ba 6c 81 15 bc
       0.023298314 0.009043463 -0.0019469041 -0.009125095
000060 b0 4e 03 3c 1f 85 7b 3b 92 c0 f5 bc f8 67 0e bd
       0.008014366 0.0038378907 -0.029999051 -0.03476712
000070 7e 68 d3 3b 67 94 36 3b bf f0 bd 3c 46 d4 a6 bc
       0.0064516654 0.002785945 0.023186086 -0.020364892

bn2.running_mean f4 [32]
000000 a9 39 14 be b6 0b 48 bf 57 80 09 3d b1 d6 6b 3e
       -0.1447512 -0.7814287 0.03356966 0.23031117
000010 0a e2 83 bd 49 98 2f 3e 8a 28 c1 be a6 f7 e9 3e
       -0.06439598 0.17147936 -0.3772624 0.45696753
000020 07 ee 72 3e 84 26 b7 be 0c ad 99 3d ba ac 80 be
       0.23723613 -0.35771573 0.07503709 -0.2513178
000030 1f de ba bd ad cb 07 3d 92 bc 7c bd 18 45 e9 be
       -0.091243975 0.033153225 -0.061703272 -0.45560527
000040 09 7f db 3e 0a 17 5a be 10 3d 16 3d b3 67 06 3e
       0.42870358 -0.21297851 0.036679327 0.13125496
000050 49 df 26 be 62 02 63 be fe 64 6e 3e 21 99 9e 3d
       -0.16296114 -0.22168878 0.23280713 0.07744051
000060 28 67 fb 3e 69 81 49 bd 3f 01 91 be 44 07 33 3d
       0.4910214 -0.04919568 -0.28321263 0.0437081
000070 0c 06 70 be 4b c3 86 3d 08 69 a3 be d3 6e ed bd
       -0.23439807 0.06580218 -0.3191607 -0.11593404

bn2.running_var f4 [32]
000000 9c 7e 0c 3e 7d a9 be 3e 32 64 4c 3e 7b d1 5a 3e
       0.13720173 0.37238684 0.19960096 0.21368973
000010 72 1b c0 3d b2 08 43 3e d7 37 27 3e b2 e2 22 3e
       0.09380235 0.19046286 0.16329895 0.1590679
000020 3a 7d f0 3d 89 9e 26 3e cd a4 72 3e 53 86 36 3e
       0.11742635 0.16271414 0.23695679 0.17824678
000030 37 6f e1 3d 81 0f 55 3e c5 66 3a 3e dd 3d 8b 3e
       0.11007541 0.20806696 0.18203266 0.27195635
000040 58 14 4d 3e 9a a9 e3 3d 08 26 7f 3e bf 69 e0 3d
       0.20027292 0.11116333 0.24916852 0.109576695
000050 25 84 cf 3d bf 22 0d 3e 2b 7c 5e 3e 02 e3 03 3e
       0.101326264 0.13782786 0.21727054 0.12879565
000060 72 43 58 3e cf b0 ef 3d 0d 27 f1 3d b6 41 e0 3d
       0.21119478 0.117036454 0.117750265 0.10950033
000070 ea 22 3d 3e a8 c0 d3 3d b9 7a 61 3e 30 de 3f 3e
       0.1847035 0.10339481 0.22019471 0.18737102

conv3.weight f4 [64, 32, 5]
000000 e7 66 7f 3d e8 4d 97 3d 72 4a 51 3d bd 69 bf 3d
       0.062353995 0.07387906 0.051096387 0.0934634
000010 85 fe 11 bd 74 82 6b bd 0a 93 7c bd c0 06 5e bd
       -0.03564312 -0.057497457 -0.061663665 -0.054205656
000020 94 e0 69 bd 0b 7e bf bd 01 4f c4 bc 7a ca f3 bb
       -0.05709894 -0.09350213 -0.023963453 -0.0074399086
000030 7b b1 fa bc 81 0f f0 ba aa 91 c7 bc d1 42 7b 3d
       -0.030602207 -0.0018315167 -0.02436145 0.061343018
000040 78 54 1a bd 76 f6 8f bd d8 7f b5 3c a9 fd 59 3b
       -0.037678212 -0.070294306 0.022155687 0.0033262766
000050 6f d4 9c 3c ab 64 bb 3c 4d b7 2c 3d ea 25 9c bd
       0.019144265 0.02287515 0.042166997 -0.07624419
000060 9f 1b 7e 3d ae 64 e4 ba d1 4c de bb f4 01 f8 3a
       0.06203806 -0.0017425024 -0.0067840596 0.001892148
000070 e1 83 20 3d f1 1d 66 3d 4e 33 3b bc b7 76 5f bc
       0.03918827 0.056180898 -0.011425806 -0.013639144
000080 ac 81 b8 bd 89 f2 93 bd aa 45 4f bc 46 6a 9b bc
       -0.09009108 -0.07223994 -0.012650887 -0.018971574
000090 3c a8 98 bd 18 f3 23 bb bf 7c e9 3c e1 e2 e8 3c
       -0.07453963 -0.0025016721 0.028501866 0.028428497
0000a0 6f 8b 69 3b b0 18 c1 bc ec 9c 29 bd cf 70 c7 3a
       0.0035636087 -0.023571342 -0.041409418 0.0015216115
0000b0 12 74 89 bd 84 00 ac 3d 28 3f 4e 3d 13 00 78 3d
       -0.06711592 0.08398536 0.0503532 0.060546946
0000c0 b2 0b d7 bc 9d 97 3c 3d 3c 37 80 bd 59 de c7 3c
       -0.026250694 0.046043027 -0.06260535 0.024398016
0000d0 62 78 91 3c 7a 52 2c bd f9 f2 85 bd 33 e4 6c bd
       0.017757598 -0.042070843 -0.06540484 -0.057834815
0000e0 ad 89 4a 3d 16 9b 2d 3d d7 fb 0d bd 2e 21 28 bd
       0.049447704 0.04238423 -0.034664 -0.041047268
0000f0 47 9b a6 3c 78 fb 8a 3d 32 f0 3b 3d fc 3e 83 3d
       0.020337714 0.06786245 0.045883365 0.06408498
000100 9a b8 48 bc 42 91 23 3c 7c 11 49 3d 50 67 19 bd
       -0.012251044 0.009983363 0.04908894 -0.037452042
000110 1a f0 27 bd 79 94 14 3d ee d3 4b bd 56 78 a3 39
       -0.041000463 0.036274407 -0.04976266 0.0003117944
000120 ad 01 7e bd d2 16 b7 3d 55 7a e4 bc 55 8a c2 3d
       -0.062013317 0.089398995 -0.027890364 0.09499041
000130 54 18 4c 3d 0b c6 bf bb 85 44 19 3d 61 47 07 bd
       0.04982789 -0.005852466 0.03741886 -0.033027057
000140 a6 cc 92 bd 4f 92 da bb e9 cc 63 3a 9b dc 36 3d
       -0.0716794 -0.0066702734 0.0008689897 0.04464398
000150 b6 7c 02 bc cc f9 33 3d 91 63 74 bd a7 29 80 bd
       -0.007964304 0.043939397 -0.059665266 -0.062579446
000160 c3 71 65 3c fb a7 08 3d 6b 47 41 bd f0 06 98 bc
       0.014004174 0.033363324 -0.04718725 -0.018557996
000170 71 5a 4c 3c 71 be dc bc 05 69 65 bc b0 ac c8 bd
       0.012472735 -0.026946278 -0.014002089 -0.097985625
000180 2f 97 d9 3c b6 99 83 3b 0d 7f 8a bd c8 5f 09 bd
       0.026561348 0.0040161265 -0.06762514 -0.03353861
000190 34 a4 89 3d 6b f9 46 3d bf 75 9a 3c cf c5 a4 3d
       0.067207724 0.048577707 0.018854974 0.080455415
0001a0 59 a4 31 3d ea b8 80 bd e8 dc a1 bc 91 20 0f bd
       0.043369625 -0.062852696 -0.019758657 -0.034943167
0001b0 d4 85 25 3d e1 8a a4 bc f9 a5 87 bc d3 5d 83 3b
       0.04041083 -0.020085754 -0.016558634 0.0040089875
0001c0 1e 4d 73 3d 01 c9 58 3b bd 93 5f bd 9a 66 eb 3b
       0.059399717 0.0033078792 -0.054584254 0.007183862
0001d0 06 c1 98 bd 14 95 e5 bc 1d 8a 39 3b aa 3b 77 3d
       -0.07458691 -0.028025188 0.0028311082 0.060359634
0001e0 fa b2 ce 3c b0 38 2e bc ee ef 27 3d b7 29 56 bd
       0.025231827 -0.010633633 0.0410003 -0.052285876
0001f0 bf d9 e9 bb 93 5b 43 3d 95 d4 3b 3d 84 f2 8a 3c
       -0.007136553 0.047694754 0.04585703 0.016961344
000200 d3 41 5c bd a1 f6 d1 3c b6 01 b7 3d 7e c3 fb 3b
       -0.053773712 0.025630297 0.08935873 0.0076832166
000210 99 fa 4a 3c 19 f2 81 3d 95 f6 47 3d 04 53 a2 3c
       0.012388849 0.063450046 0.048819143 0.019814976
000220 9b 64 95 bc 4b 8b fc bc 3f 03 11 3c c4 9f 06 3d
       -0.018236449 -0.030828139 0.008850872 0.032867208
000230 be b9 84 bb 0d f5 68 bd f5 2b 31 bd 94 55 c0 bc
       -0.0040504625 -0.056874324 -0.04325481 -0.023478307
000240 5d 05 85 3d 7b e9 ad bc d4 9b 13 3c 43 46 f2 bb
       0.064951636 -0.021229496 0.00900932 -0.0073936298
000250 dc 44 49 bd 99 58 ab 3c ad 35 82 3c 2f 96 83 bb
       -0.049137935 0.02091627 0.015894735 -0.004015706
000260 55 84 81 3d a3 59 68 bc 59 72 15 bd d7 ca d2 bc
       0.063240685 -0.014181527 -0.036486004 -0.025731487
000270 cc 0b 5a 3d 7e 7f 43 3d 3b c0 4a bd 66 61 ab bd
       0.053233907 0.047729008 -0.04949973 -0.08368187
000280 55 f8 1d 3d 23 fc 02 3c a7 f4 8f 3d 3d a6 ef 3c
       0.038566906 0.007994684 0.070290856 0.029254073
000290 92 7d 4d bc ac 10 b2 3d e8 01 12 3c bb 3a 76 bd
       -0.012542145 0.08694586 0.008911587 -0.060114603
0002a0 9e c3 25 3c eb 8d 29 3d fd 14 93 bd 68 c9 43 3b
       0.01011744 0.04139511 -0.071817376 0.0029874686
0002b0 c1 09 8c 3d 7a 1f 50 bd 47 66 8e 3c 05 df 4b bd
       0.06837798 -0.05081127 0.017382754 -0.049773235
0002c0 1d d6 2d 3c 82 02 be 3b 9e f0 d9 bc 37 96 04 3d
       0.010610131 0.005798639 -0.026603993 0.03236982
0002d0 a5 fa 89 bd b9 2f 71 3c fa ea 12 3d 08 00 89 bc
       -0.0673726 0.014720851 0.035868622 -0.016723648
0002e0 c9 a3 df bb 37 a6 86 3c 5b f6 79 3c 6f 62 2d bd
       -0.0068249446 0.01643668 0.01525649 -0.0423302
0002f0 88 cf ba 3a 70 bd 3b 3c 62 3b ab bc b4 70 ab bd
       0.0014252523 0.01145874 -0.02090234 -0.08371106
000300 82 26 47 3d 7d 44 0b 3c b0 2a c2 3c ce 45 88 bc
       0.04862071 0.008500216 0.023701996 -0.016634848
000310 0a f5 e3 bb c0 2c 2b 3d ce 0b 8e bb b7 5a b4 3c
       -0.006956701 0.041790724 -0.0043349033 0.022015912
000320 ef 78 6d bd 71 dc 8d bd 16 d6 b5 bd 47 87 20 bd
       -0.05797666 -0.069268115 -0.08878724 -0.03919151
000330 4c b5 2d bd f9 27 0c bd c1 13 0e bc e8 e3 02 3d
       -0.042409226 -0.03421781 -0.008671702 0.03195563
000340 d7 6c 10 bd 80 15 a0 bc 5a e2 a8 3c 7d 1a 1c bd
       -0.035260048 -0.019541502 0.020615745 -0.0381112
000350 50 e2 11 3c 0d d8 64 bd f1 c0 02 3d 29 af 07 3d
       0.008904055 -0.055870105 0.031922285 0.03312603
000360 77 f9 95 bd c6 16 76 bc 01 78 7a bd c7 ac 9e 3c
       -0.07322972 -0.015020078 -0.0611496 0.019369496
000370 fc b2 4d bd 54 f5 66 3d a4 33 98 3c c6 19 3c bc
       -0.05021952 0.056386307 0.018579312 -0.011480754
000380 3a b3 94 bc ac 77 a0 bd 71 ed c2 3c c9 ca f7 3b
       -0.018151868 -0.078353256 0.023794862 0.0075620157
000390 df f3 46 3d c5 32 97 3d b2 32 b8 bd 49 f6 94 bd
       0.048572417 0.073827304 -0.08994044 -0.07273538
0003a0 c2 4a 9b 3d fb 6a 98 bd 7f 37 45 3c 55 53 3a 3d
       0.07582618 -0.0744228 0.012037157 0.045489628
0003b0 1d e9 07 bd b5 47 93 bd 21 3c 81 3d f9 60 5e ba
       -0.0331813 -0.071914114 0.06310297 -0.0008483078
0003c0 ca 09 92 bc c2 f2 9e bd 65 b8 4a bc cb 34 d0 bc
       -0.017826933 -0.07761146 -0.012373065 -0.025415799
0003d0 ef 62 30 3d 66 ee 48 3d 6f fa a6 3b 94 0a 63 bb
       0.0430631 0.04905548 0.005095772 -0.0034643756
0003e0 62 97 90 3d a9 8c 06 3d b9 dd c2 3c 74 09 84 3c
       0.07060124 0.032848988 0.023787366 0.016117789
0003f0 4a e2 1c 3d 27 07 89 bc 86 e3 31 3c ce c5 1f bd
       0.038301744 -0.016727043 0.0108574685 -0.039007

conv3.bias f4 [64]
000000 3f 78 40 bd a9 88 fb bc 88 9d 37 bd 1f 57 9b 3d
       -0.046989676 -0.030704813 -0.044827968 0.075849764
000010 c7 13 8d bd ec 06 93 bd 1a 4b cb 3b e1 3f 4d 3d
       -0.06888538 -0.071790546 0.006204021 0.050109748
000020 e5 cb 8f bc 04 99 7b 3b 68 e9 be 3c a0 fe 5a 3d
       -0.01755328 0.0038390765 0.023304656 0.053465486
000030 f5 70 9e 3b e8 75 04 3d a8 31 5f 3d 51 76 f4 3c
       0.004835243 0.032339007 0.054490715 0.029841574
000040 f1 d2 29 3d 3a ae 0f 3d 2f 94 b7 bb 0e 8f 82 bd
       0.041460935 0.035078265 -0.0056023817 -0.06374942
000050 bc bc 19 bd 5a 56 83 bc 12 c3 9a bd 7a 77 74 3d
       -0.037533507 -0.016032387 -0.07556738 0.059684254
000060 99 80 99 bc 7d 33 47 3d f9 e3 67 3c d5 21 6f 3d
       -0.018738078 0.048633087 0.014153474 0.058381874
000070 1c 7e 5a bd 23 68 9e 3d c2 9d 00 3b 1d f1 8c bd
       -0.053342924 0.07734706 0.001962528 -0.06881926
000080 dc 34 eb 3c 5e 89 f2 3c e1 d7 e3 3c 83 cd 3e 3c
       0.028711729 0.029606517 0.0278129 0.0116456775
000090 1a 15 27 bd 09 1c 98 3d 2d 4c 57 bd 52 a4 96 bd
       -0.04079161 0.07427222 -0.05256288 -0.0735556
0000a0 dd c8 d4 bc 3c fc 10 bc b8 99 23 bd d4 03 99 3d
       -0.025974685 -0.0088492 -0.03994152 0.07471433
0000b0 ca 1f 3e bd 7e 1f 4e bd f1 7f d6 bb 95 2a 48 bd
       -0.046417035 -0.050323002 -0.0065460135 -0.048868734
0000c0 3b d0 12 3d 0d b3 8a bd 1f 9e 46 bd f3 48 57 bd
       0.035843115 -0.067724325 -0.04849064 -0.052559804
0000d0 cd 1d 3c bc f8 02 57 bd cf 5d b4 bc 5d 26 1d bd
       -0.011481714 -0.052493066 -0.022017388 -0.038366664
0000e0 d4 6e 81 3d 20 07 36 bd 3b e1 98 bc 69 b1 52 bd
       0.06319967 -0.04444039 -0.018662086 -0.051438723
0000f0 c6 7c a3 bc 6e 2a b5 bb 1e f8 9d 3d 85 7e 9a bc
       -0.019956958 -0.0055287397 0.0771334 -0.018859157

bn3.weight f4 [64]
000000 0c 4d 7e 3f e7 18 80 3f 63 dc 81 3f d0 41 84 3f
       0.99336314 1.00076 1.0145382 1.0332584
000010 ed b9 7e 3f 41 d9 80 3f 72 bc 81 3f e6 3f 84 3f
       0.9950245 1.0066301 1.0135634 1.0332
000020 b4 1f 81 3f e3 39 83 3f 27 a6 7c 3f ff 9c 7d 3f
       1.00878 1.0252041 0.9869103 0.9906768
000030 10 60 83 3f e7 9e 75 3f ea 03 77 3f 1b 90 7b 3f
       1.0263691 0.9594559 0.9649035 0.9826676
000040 7f 9e 87 3f 2e d4 7a 3f 71 72 72 3f 6c 7d 81 3f
       1.0595244 0.9798001 0.94705874 1.0116401
000050 9c a2 7a 3f 21 9f 84 3f 93 08 73 3f e5 82 7c 3f
       0.9790437 1.0361062 0.9493496 0.9863723
000060 cc bf 7d 3f 2b b4 81 3f 53 62 81 3f 1d 60 7d 3f
       0.99120784 1.0133108 1.0108131 0.9897478
000070 09 32 74 3f c4 9e 81 3f 98 08 7e 3f 0b 6e 82 3f
       0.9538885 1.0126576 0.99231863 1.0189832
000080 bc 55 82 3f 47 3c 83 3f 12 5b 81 3f d6 fd 76 3f
       1.0182414 1.025277 1.0105917 0.9648107
000090 a6 c5 78 3f 5a aa 7e 3f c5 fc 7f 3f de d3 80 3f
       0.9717659 0.99478686 0.9999507 1.0064657
0000a0 f8 46 80 3f fa 7d 82 3f 97 d8 84 3f 69 c5 79 3f
       1.0021658 1.0194695 1.0378598 0.9756685
0000b0 7f 1c 79 3f d6 64 81 3f 5c c4 78 3f d9 24 83 3f
       0.97309107 1.0108898 0.9717462 1.024562
0000c0 59 25 81 3f 94 4d 7e 3f 8e ba 7f 3f 70 91 82 3f
       1.0089523 0.99337125 0.99894035 1.0200634
0000d0 c5 fa 7f 3f 33 e6 7f 3f d3 0d 82 3f f3 86 75 3f
       0.9999202 0.9996063 1.0160469 0.9590904
0000e0 be 12 80 3f 44 c0 75 3f 4f de 84 3f 5f f7 86 3f
       1.000572 0.959965 1.0380343 1.0544242
0000f0 d7 89 7b 3f 20 6f 7c 3f b2 07 80 3f 75 bd 7f 3f
       0.982572 0.98607063 1.0002348 0.99898463

bn3.bias f4 [64]
000000 2a f3 98 bb a8 81 e6 bc f2 9f f8 bc 41 6e c6 bc
       -0.0046676593 -0.028137997 -0.030349705 -0.024222495
000010 b6 0b 6e bd a5 42 a4 bc d2 60 a3 bc 2a d5 f3 bb
       -0.058116637 -0.02005131 -0.019943628 -0.0074411826
000020 cc b1 1e bd ae b7 06 bd e2 09 c7 bc 47 4d 53 bd
       -0.03874378 -0.032890014 -0.024296705 -0.05158737
000030 f1 b1 35 3c d7 d1 13 bd 15 d8 40 bd 3a 35 26 bd
       0.011089788 -0.03608879 -0.047081072 -0.040578105
000040 79 c1 75 bd fd 9c 1d bd 68 cd 1c bd b7 6f 5d bd
       -0.059998963 -0.038479794 -0.03828183 -0.054061618
000050 44 e3 43 bd f6 1a d6 bc e6 41 7d bd 7d b8 33 bd
       -0.04782416 -0.026135903 -0.061830424 -0.043877114
000060 3e 79 a4 bc 3f f3 d6 bc 67 2b 03 bd b0 56 6c bc
       -0.020077344 -0.026239036 -0.032023814 -0.014424965
000070 72 7a 0d bd 8a 66 88 bc 8e fd 38 bd de b2 e7 bb
       -0.0345406 -0.016650457 -0.045163684 -0.007070883
000080 a1 08 f3 bc a0 35 9e bc f5 a5 33 bd 37 59 ff bc
       -0.0296672 -0.01931268 -0.04385944 -0.03117047
000090 34 41 62 bc 85 6d 47 bd c0 9b cd bc 88 e8 8d bc
       -0.013809491 -0.04868843 -0.025098681 -0.017322794
0000a0 2f e6 87 bc cb 79 ed bc 36 7a 23 bd d9 d4 60 bd
       -0.016589252 -0.02898874 -0.03991147 -0.054890487
0000b0 68 26 43 bd 41 1a fa 3a 29 21 41 bd 10 ed a2 bc
       -0.04764405 0.0019081311 -0.047150765 -0.01988843
0000c0 32 bc ec bc d9 15 35 bd 79 86 3c bd 92 03 64 bc
       -0.028898332 -0.04421029 -0.04602668 -0.013916867
0000d0 17 e2 0b 3a 53 be 4a bd 2a e8 de bc 81 44 2f bd
       0.0005336119 -0.049497914 -0.027210314 -0.04278994
0000e0 e6 a4 05 bd 35 6c b0 bc 06 12 80 bb ca e2 33 bc
       -0.032627963 -0.021535972 -0.0039083986 -0.010979364
0000f0 fa be 2d bd 95 1e ad bc c6 87 da bc 9d a2 12 bd
       -0.042418458 -0.021132747 -0.02667607 -0.03579961

bn3.running_mean f4 [64]
000000 6e 35 cd bd 0a 79 0b bf ab 79 b0 be 99 7b f0 bd
       -0.100199565 -0.54481566 -0.34467825 -0.117423244
000010 2d f0 46 3c 11 bf aa be f6 74 11 bf 02 7a 59 be
       0.012142223 -0.33348897 -0.56819093 -0.21237949
000020 5b da ae be 15 c8 25 bf fd 89 0c bf 95 03 c5 be
       -0.34150967 -0.64758426 -0.54898053 -0.38479295
000030 51 a5 d1 be b2 65 8a bd c4 db 0b bf 4e cb b0 be
       -0.4094644 -0.06757678 -0.5463221 -0.3453011
000040 78 1e 74 3c f8 82 92 3e 16 47 00 be 03 c6 b2 be
       0.014899842 0.28615546 -0.12527117 -0.34916696
000050 6a a0 04 be ef 0d ee be 62 b6 04 3e be 98 d7 bd
       -0.12951818 -0.46495005 0.12960199 -0.1052718
000060 b7 30 05 bf 73 ca 8d be 4c 23 1d bf e5 fd 85 bd
       -0.5202746 -0.2769352 -0.61381984 -0.06542567
000070 01 91 f8 bd 2d e5 4b 3d ac 41 1a bf c7 40 ef be
       -0.12137032 0.049779106 -0.6025646 -0.4672911
000080 63 68 5a be 5c af bb be f8 46 61 be 29 66 2a bd
       -0.21328883 -0.36657226 -0.21999729 -0.041601334
000090 31 a4 56 bd db eb 22 be a7 49 a5 bc dc 11 dd be
       -0.05240268 -0.15910284 -0.020176722 -0.43177688
0000a0 c2 a4 c4 be 10 39 19 bf 19 4e 4e bd 23 49 71 be
       -0.3840695 -0.59852695 -0.05036745 -0.23563056
0000b0 b6 6a f1 be 2e 47 5b bf 5f c7 0e bf 43 92 11 bf
       -0.47151726 -0.85655487 -0.55772966 -0.568638
0000c0 81 db 08 bf 42 83 2b bf 6a fb e7 bc 94 06 1e bf
       -0.53459936 -0.6699716 -0.028318126 -0.6172879
0000d0 27 64 90 3d 5b b5 96 bd fd 84 c1 be 6a cf 09 3e
       0.070503525 -0.073588096 -0.37796775 0.13458028
0000e0 0c 7b a3 be ac 8c 00 3f 9c f4 b0 be 24 e3 ec be
       -0.31929815 0.5021465 -0.34561622 -0.46267045
0000f0 1e 02 28 3e d1 6b e6 be 50 ba 80 be 08 b2 2c 3d
       0.16407058 -0.45004132 -0.25142145 0.04216197

bn3.running_var f4 [64]
000000 ba 58 d1 3d a9 df 5f 3e 79 f5 02 3e f7 00 f8 3d
       0.102220014 0.21862663 0.12788953 0.12109559
000010 16 59 df 3d 8c 4b e8 3d ac e5 1a 3e 8c 91 fc 3d
       0.10905664 0.113425344 0.15126675 0.12332448
000020 c4 cd 67 3e 20 14 03 3e 51 ba 8c 3e 0c 90 fc 3d
       0.22637087 0.12800646 0.27485898 0.12332162
000030 59 5e 27 3e 7b 1b 97 3e fa 08 b7 3e 7a e5 2a 3e
       0.16344585 0.29513153 0.35749036 0.16689101
000040 22 1e b6 3d 02 fb 1d 3e 99 55 1d 3e 77 49 2e 3e
       0.08892466 0.15427783 0.15364684 0.17020212
000050 d4 b4 5d 3e 06 2b 27 3e d6 bd 30 3e 9f c5 0c 3e
       0.21651012 0.16325006 0.17259917 0.13747261
000060 6f a6 65 3e 2a 7c da 3d 95 6a 58 3e 62 d6 87 3e
       0.2242677 0.10668214 0.21134408 0.2653075
000070 47 5f a7 3e 38 9d 24 3e 85 09 ba 3d 7e 05 3e 3e
       0.32689878 0.16075599 0.09083847 0.18556783
000080 ca c4 03 3e 54 35 33 3e 09 2e 23 3e 33 d2 19 3e
       0.12868038 0.17500812 0.1593553 0.15021591
000090 c0 e2 e0 3d ac e9 bf 3d 5f 3a 40 3e 02 8d 08 3e
       0.10980749 0.09370741 0.18772267 0.1333504
0000a0 05 89 7a 3e 31 63 32 3e 28 34 f7 3d 70 29 5c 3e
       0.24466331 0.17420651 0.12070495 0.21500182
0000b0 76 39 57 3e 42 aa e7 3e 4b fc 4d 3e 60 82 43 3e
       0.21018013 0.45247084 0.20115773 0.19092703
0000c0 35 8b ee 3d 5d 63 1f 3e f5 62 f5 3d da 34 14 3e
       0.116476454 0.15565248 0.11981765 0.14473286
0000d0 5a e0 24 3e 08 eb 4e 3e 9d bf 5f 3e 82 9a 1f 3e
       0.16101208 0.20206845 0.21850438 0.15586284
0000e0 f2 91 12 3e 05 97 2b 3e 25 f1 15 3e 6c 85 c5 3d
       0.14313486 0.16756828 0.1464277 0.09644589
0000f0 dd 9f fb 3d 76 de 57 3e 8b f1 fa 3d 5d 6a f1 3d
       0.12286351 0.21080956 0.12253102 0.11787865

conv4.weight f4 [128, 64, 5]
000000 7d d3 79 bc 27 81 20 3c 82 72 3b 3d 75 f1 bb bc
       -0.015248177 0.009796417 0.0457635 -0.022942284
000010 b6 3a b8 bc d9 9e 4e bd 8b 66 2c bd c1 7e c0 3c
       -0.022488933 -0.050444458 -0.04208998 0.023497941
000020 ed 4a 89 bd e0 7d 3b 3a a5 27 0d 3d b5 48 1f bc
       -0.06703744 0.0007152241 0.034461636 -0.009721925
000030 5e 95 d8 3c 64 42 10 3d 4a f6 8a bb e6 ca 6b bc
       0.026438411 0.035219565 -0.0042407857 -0.0143916365
000040 58 06 67 3d b7 41 a1 3c 0c c5 ba bc 85 58 e1 3b
       0.056402534 0.019684656 -0.022799037 0.0068770074
000050 4c e4 41 bc 13 68 c7 bb 7f f4 85 3c 6f 55 95 bc
       -0.011834215 -0.0060854047 0.016351936 -0.018229214
000060 47 11 c7 3c b0 e1 26 bd 75 a0 fe bb ca b7 e5 bc
       0.02430023 -0.040742576 -0.007770593 -0.028041739
000070 cf ce 89 3b 3d b6 b6 3c 06 ac 9b bc 30 7e 51 3d
       0.0042055617 0.022303695 -0.019002926 0.051145732
000080 c8 37 0f 3c 40 56 b3 bc c1 88 10 3d 54 dc 01 3c
       0.008741327 -0.021891713 0.03528667 0.0079260655
000090 79 8e f3 3c c3 85 14 3d ff 7f 16 bc a1 33 1d bc
       0.029731022 0.036260378 -0.00918579 -0.009594829
0000a0 b1 a9 9c bc 32 8d 33 3d 91 f7 96 38 9e c0 44 3c
       -0.019123884 0.043835826 7.19867e-05 0.012008814
0000b0 61 57 1c bd 78 b9 3f bd 01 74 72 3d 86 10 58 3d
       -0.03816927 -0.046807736 0.05919266 0.052750133
0000c0 5a 22 28 3a 59 85 07 3d d1 a8 59 3d 7e 9b d3 bc
       0.000641381 0.033086155 0.05313951 -0.02583098
0000d0 a2 f7 5b bc 29 16 5a bc f3 a6 b0 bc ea 3a 36 bd
       -0.0134257395 -0.013310947 -0.021563983 -0.04448978
0000e0 63 1b b3 3c c3 1a a7 3c b9 6c 63 3c db 0d 40 bd
       0.021863645 0.020398503 0.013880902 -0.046888214
0000f0 3b 8b ad bc d5 01 a0 bb 65 b5 c6 3b 05 9d 02 3c
       -0.021184554 -0.004883031 0.0060641044 0.007972007
000100 b4 f2 ee 3c 64 ea e5 bc 27 07 4c 3d f7 eb 00 bc
       0.029168464 -0.028065868 0.04981151 -0.007868758
000110 95 15 11 bd 3a 5d 06 bd ad 8d 9f bc 30 7f 03 3c
       -0.035420973 -0.03280375 -0.019476736 0.008025929
000120 42 76 53 ba 55 bd dc bc 8d 54 3b bd 8c 68 a7 3d
       -0.0008066633 -0.02694575 -0.04573493 0.081742376
000130 45 3f 62 38 ca 68 01 3d 58 d1 13 3d c5 ef b1 3c
       5.3941523e-05 0.031594075 0.036088318 0.021720776
000140 3a 8b ae bc 38 61 bb bc cb 4b 8a bc c4 76 c7 3c
       -0.021306623 -0.022873506 -0.016881844 0.024348624
000150 68 8e 94 bb 13 7b b6 bc ad e1 2a bd 8d f6 a3 bc
       -0.0045335777 -0.022275483 -0.041719127 -0.020015026
000160 5f 0b 02 3d 27 04 42 3c b0 1d 07 3d 7c d8 0d bd
       0.031749126 0.01184181 0.032987297 -0.034630284
000170 80 23 89 3c 78 a7 6a 3b 31 c1 6e bc 87 eb ea 3c
       0.01674056 0.0035805386 -0.014572428 0.028676761
000180 59 e3 65 3d a1 a1 0e bc dd 56 65 3d 29 01 cb 3b
       0.05612502 -0.0087055275 0.055991042 0.0061952067
000190 a7 7f 96 bc f6 04 74 3d 24 7e 01 bc 47 66 2d 3c
       -0.018371416 0.059575044 -0.007903609 0.010583467
0001a0 59 18 6b bd bd 41 9e bc 01 f6 38 bc f5 cd 42 3b
       -0.057396267 -0.019318456 -0.011289121 0.002972481
0001b0 cd c9 6e 3d f1 4a 7a 3d 21 aa 38 3b 5c c7 83 bc
       0.05829792 0.061106626 0.0028177577 -0.016086273
0001c0 29 10 09 bd 2c 70 88 3c 57 e1 c7 ba 28 86 c3 bc
       -0.033462677 0.01665505 -0.0015249652 -0.023867682
0001d0 34 9b 3b 3d a0 db 08 3d 59 cb ac bb 97 0b fa bc
       0.04580231 0.033412576 -0.0052732644 -0.030523105
0001e0 a9 5e b2 bd 27 68 3c bd f2 a5 42 bd f1 b9 59 bc
       -0.08709461 -0.045997765 -0.04752154 -0.013288961
0001f0 3e e1 af bc a5 36 1d bd 12 ca 82 bc 64 8e 32 bd
       -0.021469709 -0.03838219 -0.015965495 -0.043592826
000200 ad f7 53 bc dc 66 99 bb f4 74 86 3b ad 55 80 3a
       -0.0129374685 -0.0046814512 0.0041032974 0.0009791158
000210 c8 7f 81 bc 66 d0 82 bb 17 0c 24 bd 3e cb 29 b9
       -0.015808001 -0.003992128 -0.040050592 -0.0001619281
000220 20 97 87 3c bc 63 5e 3b 43 54 a8 bc 7a 8e 88 bc
       0.016551554 0.0033933958 -0.020547992 -0.0166695
000230 98 05 4b bc ef 7c d0 3c 04 50 6a 3d 96 0f 46 bc
       -0.01239147 0.025450198 0.057205215 -0.012088677
000240 e8 fd 15 bc 23 f9 9d bc db f3 07 3d 1c b3 5f 3c
       -0.009154774 -0.019283837 0.033191543 0.013653543
000250 8c 9c e3 3c 77 c0 97 39 a7 a2 09 3d 3e b0 85 3d
       0.027784608 0.00028944362 0.033602383 0.06527756
000260 59 0c 03 3d db 61 4e bc 53 a6 d3 bc 96 a4 97 bc
       0.031994198 -0.012596573 -0.025836146 -0.018511098
000270 49 76 7e bd fb 4d ec bc 8c 7d 1c bc c6 2e af 3c
       -0.062124524 -0.028845778 -0.009551417 0.021384608
000280 44 28 b3 3b aa db b8 3c e1 94 82 3d 78 74 4c 3d
       0.0054674465 0.022565681 0.06376053 0.04991576
000290 a6 5b cf 3c 17 85 92 3a 67 8d 7e bd 25 c5 c9 3b
       0.025312256 0.001117858 -0.06214657 0.0061575347
0002a0 e4 4e db 3c 83 26 0a bd db 25 41 3d aa 01 d6 3b
       0.026771016 -0.033728134 0.047155242 0.00653096
0002b0 21 b2 4e 3c 25 15 82 3d 0c 0f da 3b ab cb 9b 3c
       0.012615711 0.06351689 0.0066546258 0.019018015
0002c0 02 47 65 bc fa fc 4b bd 43 08 27 bc 5f 0d b3 3c
       -0.01399398 -0.049801804 -0.010194841 0.021856962
0002d0 30 53 5f bc 62 10 91 bd 88 a5 4b bd 68 f5 0c bd
       -0.013630673 -0.07083203 -0.04971841 -0.034413725
0002e0 80 bb 99 bc 9d e1 a4 3c 30 ec 35 bd 15 e7 34 3d
       -0.018766165 0.020127112 -0.0444147 0.04416569
0002f0 17 15 25 bd 05 9c 8b bc 19 ab 8c bc 7f 3c 73 3a
       -0.040303316 -0.01704217 -0.01717143 0.0009278729
000300 6d 37 21 3c 6c 58 1b bd 9d f0 55 bd c6 28 d0 3a
       0.009839875 -0.037926123 -0.05223142 0.0015881292
000310 7f 39 ef 3c 9a 01 80 3c be 76 2e bd 4f df b8 3c
       0.029202221 0.015625764 -0.04259371 0.02256742
000320 77 33 12 bd 0e 4f 60 bd 08 62 50 bc 5a 82 61 bd
       -0.035693612 -0.054762892 -0.012718685 -0.055055954
000330 db d2 07 bd 51 01 22 bd f5 de d7 bc e0 af 43 bc
       -0.03316007 -0.039552037 -0.026351431 -0.011943787
000340 5f 41 39 bb 7c 86 6f 3d f4 ac 89 bc 7e 14 94 3c
       -0.0028267724 0.058477864 -0.016806103 0.018076178
000350 6e 02 24 b9 d4 fa 97 3d fa 13 c3 3c 9a e0 d7 bc
       -0.00015641164 0.074208885 0.023813237 -0.026352216
000360 b1 a3 f8 3c 4c fe 10 bd b1 af 54 3d 31 9e ec bc
       0.030351492 -0.035398766 0.051925365 -0.028884025
000370 e3 cc 8c bc 42 9b e7 3c 6e f8 a2 bc e6 da 0b 3c
       -0.017187541 0.028272275 -0.019893851 0.008536076
000380 f6 3b c2 3c cd 27 5a 3d ac 61 57 3c 2d 0b c0 bc
       0.023710232 0.053260613 0.013145845 -0.023442829
000390 a4 26 d2 bc 96 32 00 bb 1e ab 3b bd fe 1f a3 ba
       -0.02565319 -0.0019561402 -0.045817487 -0.0012445448
0003a0 2b b0 20 3d e1 3e 8d bc b7 c5 07 bc 6a ed bf bc
       0.039230507 -0.017241897 -0.008286885 -0.023428638
0003b0 43 19 16 bc f5 c7 5d bd a8 86 b8 3c d7 b7 06 bd
       -0.009161296 -0.054145772 0.022525147 -0.032890167
0003c0 d3 5c 10 bc 86 22 42 3c b3 9c 6f 3d 1f 94 66 3d
       -0.0088111935 0.011849051 0.05849905 0.056293603
0003d0 b6 3f 00 bd d5 df 61 bd 2e 79 f2 bc 9f 35 9d bc
       -0.03131076 -0.055145103 -0.029598799 -0.019190608
0003e0 58 e2 2c 3c 14 e2 9b bc d8 7a 17 3d 42 3e 83 bc
       0.010552011 -0.0190287 0.036982387 -0.016020898
0003f0 3b 2b 13 bd f7 f1 8f ba dc 61 c5 3c f9 c0 1e 3d
       -0.0359299 -0.0010982145 0.024094515 0.03875825

conv4.bias f4 [128]
000000 a4 1f 26 bd d6 b7 bc bc 09 90 82 bc a6 66 c5 bc
       -0.04055752 -0.023036879 -0.015937822 -0.024096798
000010 8c a0 fc bb 42 67 05 bd 36 3d a3 bc 6d b0 91 bb
       -0.0077095684 -0.032569177 -0.019926649 -0.0044460804
000020 9f 0c 27 3b b7 bf 51 3b 3f 43 3c bd c8 cf 51 3c
       0.00254897 0.003200514 -0.04596257 0.012805887
000030 58 fe d0 bc 70 36 55 3d 17 af 00 bc 96 c2 68 bd
       -0.025511906 0.05205387 -0.007854245 -0.056826197
000040 61 e0 38 bd b6 06 56 bd 54 b8 d7 3c ee a4 0b bd
       -0.04513586 -0.052252494 0.026333012 -0.034092836
000050 aa 84 15 3d 2c 64 37 bc cd fa c4 3c 26 20 b5 bc
       0.03650347 -0.011193316 0.024045372 -0.022110056
000060 ce 54 4d 3c aa 80 79 39 d6 e3 96 bc b0 f4 aa bc
       0.012532426 0.00023794422 -0.018419188 -0.02086863
000070 28 b0 08 bd 77 f2 26 3d 08 ad 47 3d 6e a2 2d 3c
       -0.03337112 0.040758576 0.048749 0.010597808
000080 6c 7f 45 bd 01 27 91 bc 65 f4 0d bd ff c9 74 3c
       -0.048217222 -0.017718794 -0.0346569 0.014940738
000090 83 af ac 3b bd 85 c6 bc 11 8c a6 bc 85 c0 1d bd
       0.005269946 -0.024233693 -0.02033046 -0.03851368
0000a0 0c 4a 29 bd e6 00 5c bc 5e 94 0d bd 17 f3 3f bc
       -0.041330382 -0.013427949 -0.034565322 -0.011715672
0000b0 d6 53 33 bd 2d 46 25 bd c0 23 68 bb 95 2b 53 bc
       -0.043781124 -0.040350128 -0.00354217 -0.012888809
0000c0 83 c6 80 3c 0d 7f 61 3d 0d 24 2c 3d 0b b9 ae 3c
       0.015719658 0.055052806 0.04202657 0.02132847
0000d0 6d 5c 2c 3c 73 06 6c bb ed 14 83 bc a1 a5 c9 3c
       0.010520083 -0.0036014586 -0.01600119 0.02461511
0000e0 a8 22 2a 3c d0 c8 0d bd dc b1 33 bd 24 e4 f8 3c
       0.010384239 -0.034615338 -0.04387079 0.030382223
0000f0 8d 8d 2a b9 3a 70 16 3d c8 41 7c 3c 06 47 14 bd
       -0.00016265195 0.03672812 0.015396543 -0.036200546
000100 a7 0b a4 bc 7c ea 7f 3c d3 1b 53 bc 0c 7c 95 bb
       -0.020025088 0.01561987 -0.012885052 -0.0045619067
000110 74 09 85 bc 82 24 4f bd 4a ab 25 bd c7 d8 ce 3c
       -0.01623986 -0.050571926 -0.040446557 0.025249852
000120 5e d3 28 bc 91 ab 13 3d 68 48 99 bc e1 51 28 3d
       -0.0103043 0.03605229 -0.018711284 0.04109371
000130 18 26 2b bd 31 c5 a5 bc f2 83 60 bd 1f d2 5b 3b
       -0.041784376 -0.02023563 -0.054813333 0.003354199
000140 e0 82 2d 3d 83 b9 fd bc a6 0c 37 bd 65 22 26 bd
       0.04236114 -0.030972248 -0.044689797 -0.040560145
000150 db 85 06 bd e9 5c 5c 3d ef 23 b0 3c 6b 26 56 3b
       -0.0328425 0.053799544 0.02150151 0.0032676707
000160 45 eb 2f bd 12 7e 4f 3d 99 b3 9d bb 7c b2 5f 3c
       -0.04294898 0.05065734 -0.0048126695 0.013653394
000170 c2 e2 46 bd 61 7d 2d 3c be d7 0d 3c 1a 83 2b bb
       -0.048556097 0.010588975 0.008657394 -0.0026170672
000180 d3 19 36 bd 85 4d cb 3c e7 d1 16 bd bc 61 38 bd
       -0.04445822 0.024817238 -0.036821272 -0.04501508
000190 33 81 e8 3c 30 94 87 bc 3d 92 56 bd 69 d9 ae bc
       0.02838192 -0.016550153 -0.052385557 -0.021343904
0001a0 dd 3e d0 3c dc 8b f2 3c 4d 21 81 3c 80 8d c4 bc
       0.0254206 0.029607706 0.01576295 -0.023993254
0001b0 d9 4c 05 bd 46 7b 30 bd 87 fd fb 3c 69 b3 cd bc
       -0.03254399 -0.043086313 0.03076054 -0.025109963
0001c0 bb 55 10 3d 7c 05 b1 bb 6b 82 b2 bc a9 4f 82 3c
       0.03523801 -0.005402265 -0.021790704 0.015907126
0001d0 00 7c 21 3d 7d 77 bd bc e6 e3 30 3c fd fc fb 3b
       0.039424896 -0.023128266 0.010796523 0.0076900707
0001e0 e5 6c 40 bd a1 e5 2f bd fd 35 e4 3c 7b 58 27 3d
       -0.04697885 -0.0429436 0.027857775 0.040855866
0001f0 ec 62 53 bd 47 d4 61 3d 2b 5b 41 3c 89 12 25 3d
       -0.05160801 0.055134084 0.011801521 0.04030088

bn4.weight f4 [128]
000000 2c 9f 90 3f 72 98 8f 3f cb 45 8f 3f c0 2e 8f 3f
       1.1298575 1.1218398 1.1193174 1.1186142
000010 99 b2 8d 3f 68 14 8f 3f e5 cc 90 3f a9 63 8d 3f
       1.1070129 1.1178102 1.1312529 1.1046039
000020 34 ca 8c 3f d4 b8 8f 3f 89 80 8c 3f 23 41 8e 3f
       1.0999207 1.122828 1.0976726 1.1113628
000030 35 f9 8c 3f fe 0e 8f 3f 5c 3b 8f 3f 14 87 91 3f
       1.1013552 1.117645 1.118999 1.1369348
000040 ff 6f 8e 3f ba ff 91 3f db fb 8c 3f 8f c5 8e 3f
       1.1127928 1.1406167 1.101436 1.115404
000050 0e 19 8d 3f bc 43 8f 3f 6a e3 91 3f 89 ff 8b 3f
       1.1023271 1.1192546 1.1397526 1.0937358
000060 6a 66 92 3f 07 84 8f 3f 17 78 8f 3f c6 00 8e 3f
       1.1437504 1.1212167 1.1208524 1.1093986
000070 ba 55 8d 3f 14 69 8d 3f 2d bd 8f 3f d4 d0 8d 3f
       1.1041787 1.1047692 1.1229607 1.1079354
000080 0d 01 8e 3f d7 15 91 3f 3b 04 8d 3f 4b f1 8d 3f
       1.1094071 1.133479 1.1016916 1.1089262
000090 50 95 90 3f 30 12 94 3f 1b fc 8e 3f 05 8b 8e 3f
       1.1295567 1.156805 1.1170686 1.1136175
0000a0 85 81 90 3f 52 52 8d 3f 96 44 8f 3f d4 b3 8f 3f
       1.1289526 1.1040747 1.1192806 1.1226754
0000b0 84 9e 8d 3f aa 2c 93 3f f1 3d 90 3f 61 82 90 3f
       1.1064 1.1498005 1.1268903 1.1289788
0000c0 31 4f 90 3f 54 d1 8d 3f 68 77 90 3f 59 c7 8f 3f
       1.1274167 1.1079507 1.128644 1.1232711
0000d0 53 31 90 3f 83 99 92 3f fb 85 8d 3f d0 7c 8d 3f
       1.1265053 1.1453098 1.1056513 1.1053715
0000e0 85 10 8f 3f a3 46 8f 3f 2e bc 8c 3f 5b d6 8d 3f
       1.1176916 1.1193432 1.0994928 1.1081041
0000f0 0a ab 91 3f b7 1f 90 3f 8d f6 90 3f 2e d6 8e 3f
       1.1380322 1.1259679 1.1325241 1.1159112
000100 ca d3 8d 3f 9e 91 8c 3f cc 76 8f 3f 83 f3 91 3f
       1.1080258 1.0981939 1.1208129 1.1402439
000110 ab a6 8d 3f d8 d2 8d 3f 47 ec 8f 3f e2 0e 8c 3f
       1.1066488 1.107997 1.1243981 1.0942042
000120 ad b2 8e 3f 7e 2f 8f 3f 83 b7 8d 3f 7b 6b 91 3f
       1.1148278 1.1186368 1.1071628 1.1360925
000130 f7 2a 92 3f 1e de 90 3f 1a 7b 8d 3f 93 1a 90 3f
       1.1419362 1.1317785 1.1053193 1.125811
000140 8b 9c 8e 3f 7c 4a 92 3f a2 97 8f 3f e8 31 93 3f
       1.1141523 1.1428981 1.121815 1.1499605
000150 5a 27 92 3f a2 cf 8d 3f f2 59 90 3f e2 c1 90 3f
       1.1418259 1.107899 1.1277449 1.1309168
000160 9c e3 8f 3f 1b c6 8c 3f b6 8c 90 3f bb eb 8e 3f
       1.1241336 1.0997957 1.1292942 1.1165689
000170 a6 a2 8f 3f ef d5 8d 3f 01 6b 8d 3f bc c6 8e 3f
       1.1221511 1.1080912 1.104828 1.1154399
000180 c1 46 90 3f 28 41 92 3f a8 73 90 3f 5f eb 8d 3f
       1.1271592 1.1426134 1.1285295 1.1087455
000190 fa 75 8e 3f ca 71 8d 3f 6f c3 90 3f 93 a3 91 3f
       1.1129754 1.1050351 1.1309642 1.1378044
0001a0 df 20 91 3f 0b e0 8f 3f 9d 1d 90 3f df 34 93 3f
       1.1338156 1.1240247 1.1259037 1.150051
0001b0 f1 2c 92 3f ea fc 8e 3f ec 70 91 3f 51 3a 8c 3f
       1.1419965 1.1170933 1.1362586 1.0955297
0001c0 47 66 8d 3f f9 97 8f 3f 7b 48 93 3f 77 0c 8e 3f
       1.1046838 1.1218253 1.1506494 1.1097554
0001d0 41 0b 8f 3f 02 a0 8b 3f c0 92 8e 3f e8 6d 8e 3f
       1.117531 1.0908206 1.1138535 1.1127291
0001e0 5e dd 91 3f 5c 19 8b 3f 42 05 8d 3f 1d 0c 8e 3f
       1.1395681 1.0867114 1.101723 1.1097447
0001f0 65 f3 90 3f 19 f0 8d 3f 64 3a 91 3f 7f f6 90 3f
       1.1324278 1.1088897 1.1345944 1.1325225
