core/pretrained_nets/trts_classifier_tr.ckpt (torch, 642990 bytes, 28 tensors)

conv1.weight f4 [16, 3, 5]
0	0x3dc1c95a	0.09462233
1	0xbd928ebc	-0.07156131
2	0x3e165a8e	0.14682981
3	0x3a8617d9	0.0010230496
4	0xbd593678	-0.05303046
5	0xbe50b4fb	-0.20381539
6	0x3e538886	0.20657548
7	0x3e41d559	0.18929042
8	0xbddebafb	-0.108755074
9	0xbdf96d67	-0.1217907
10	0x3d9eb548	0.077494204
11	0x3cfb4ad4	0.03067533
12	0x3da11fe8	0.07867414
13	0x3e7ea966	0.24869308
14	0xb9307d11	-0.00016831259
15	0x3dbb9077	0.09158414
16	0x3e737732	0.23775938
17	0x3ce39bc7	0.027784241
18	0x3e5060a9	0.20349373
19	0x3e109122	0.14117864
20	0xbbc84ee8	-0.006112922
21	0x3e2c84ae	0.16847488
22	0x3e5f0ff7	0.21783434
23	0xbe1f9d67	-0.15587388
24	0x3c689a1c	0.014196899
25	0x3e754929	0.2395369
26	0x3e3ac699	0.18239821
27	0xbda7f9fe	-0.08201979
28	0x3e2c9302	0.16852954
29	0x3e286e2e	0.1644828
30	0x3d42b3d7	0.04753479
31	0x3c14a13f	0.009071647
32	0x3e813347	0.25234434
33	0xbe547577	-0.20747934
34	0x3e4d05ff	0.20021819
35	0x3dda2901	0.10652352
36	0x3e69872c	0.2280547
37	0x3e1d0ae0	0.1533618
38	0x3cb49609	0.022044199
39	0xbe1c356c	-0.15254754
40	0x3d7c4c0f	0.061595973
41	0xbd86fb46	-0.06590895
42	0xbe1ec2b7	-0.15503965
43	0x3dc61338	0.096716344
44	0xbe6c3a47	-0.23069106
45	0x3e4d6309	0.2005731
46	0x3c8e4a84	0.017369516
47	0xbe243f4c	-0.16039771
48	0xbdd061cf	-0.101749055
49	0x3e552fb2	0.20818976
50	0xbb788c05	-0.0037925255
51	0x3d5f3f38	0.05450365
52	0x3de219a6	0.11040048
53	0xbe43f30a	-0.19135681
54	0x3ddf839a	0.10913773
55	0xbdd67b47	-0.10472732
56	0x3e253bca	0.16136089
57	0xbd2c8365	-0.042117495
58	0xbdf2c529	-0.118540116
59	0xbdfebbac	-0.12438139
60	0xbd1df042	-0.038559206
61	0xbe01718f	-0.12640975
62	0x3ce81ccd	0.028334046
63	0xbe6d05c3	-0.23146729
64	0xbe171208	-0.14752972
65	0xbd6b8315	-0.057498056
66	0x3d4ea8d4	0.050453976
67	0x3e044821	0.1291814
68	0xbe70f777	-0.235319
69	0xbd4e9638	-0.05043623
70	0xbe8097b6	-0.25115746
71	0xbc954ed0	-0.018226057
72	0xbe501649	-0.20321001
73	0xbe501a48	-0.20322526
74	0x3dd54d80	0.104151726
75	0x3dff5ae4	0.12468508
76	0xbc1976d9	-0.009366714
77	0x3dd983e2	0.10620858
78	0x3e52b701	0.20577623
79	0xbd8aaabe	-0.06770848
80	0xbe83b62f	-0.25724933
81	0xbdc274ab	-0.09494909
82	0x3e7665de	0.24062297
83	0xbd8d9319	-0.06912822
84	0x3db79e75	0.0896577
85	0x3d02a6e9	0.03189746
86	0xbe5a8e61	-0.21343376
87	0x3c34ba81	0.011030794
88	0xbdabccde	-0.08388685
89	0x3de7ed95	0.11324612
90	0x3e287163	0.16449504
91	0x3e307b22	0.17234471
92	0xbe50c0e2	-0.20386079
93	0xbe780dab	-0.24223964
94	0xbe05ca17	-0.13065372
95	0x3e85e97a	0.2615469
96	0xbdd1c40e	-0.102424726
97	0xbe625668	-0.22103274
98	0x3e1cb575	0.15303595
99	0xbe217904	-0.1576882
100	0xbd1a9286	-0.037737392
101	0x3ddce0eb	0.10785087
102	0x3d929693	0.07157626
103	0x3d8a4d12	0.06752981
104	0x3e87adfa	0.2649992
105	0x3e10b1e9	0.14130367
106	0xbde336c2	-0.110944286
107	0xbe3606d1	-0.17776038
108	0x3d5e1e5c	0.05422817
109	0xbe073aea	-0.13206068
110	0xbe472a9e	-0.19449851
111	0xbdb96136	-0.09051745
112	0xba15430a	-0.00056938885
113	0xbada28b1	-0.0016644207
114	0x3dbf64be	0.09345387
115	0xbe7b59b7	-0.24545942
116	0xbe8ac460	-0.27102947
117	0x3e07e2db	0.13270132
118	0xbc173645	-0.009229247
119	0x3d179ed6	0.037016712
120	0xbe869569	-0.26285866
121	0x3d949237	0.07254451
122	0xbe5623ca	-0.2091209
123	0xbd93c691	-0.07215608
124	0x3de318e8	0.11088735
125	0xbdde949e	-0.1086819
126	0x3d5fcba9	0.054637585
127	0xbbf26720	-0.0073975474
128	0x3c489f8f	0.012245073
129	0x3e12a3a9	0.14320244
130	0x3e36cd26	0.17851695
131	0xbe1886d2	-0.1489518
132	0xbe2e7abe	-0.1703901
133	0xbe48c81e	-0.19607589
134	0xbc859109	-0.01630451
135	0xbe44cb2c	-0.19218129
136	0x3e3975f3	0.181114
137	0xbba9aec8	-0.0051783063
138	0x3e87f259	0.26552084
139	0x3e22b307	0.15888606
140	0x3b0d8799	0.0021595715
141	0x3d129ba4	0.03579296
142	0x3e75d317	0.24006306
143	0x3df7f629	0.12107498
144	0x3e078608	0.13234723
145	0xbdca63ae	-0.09882294
146	0x3e1167db	0.14199774
147	0x3e6657c4	0.22494417
148	0xbd1fdda0	-0.039029717
149	0xbe789e43	-0.24279122
150	0x3e114cc6	0.14189443
151	0xbdbe74a8	-0.09299594
152	0xbe3981db	-0.18115942
153	0x3e55e87d	0.20889468
154	0x3e17038d	0.14747448
155	0x3c3944c7	0.011307902
156	0xbe183797	-0.14864956
157	0x3e08d8d1	0.13363959
158	0xbdb2f871	-0.08738793
159	0x3e3974e2	0.18110994
160	0x3e2e1d1d	0.17003293
161	0xbdabe3ab	-0.083930336
162	0x3e722c8c	0.23649806
163	0x3e6efc96	0.23338541
164	0xbd3502b4	-0.04419203
165	0x3e7ff072	0.24994066
166	0xbe75ab8e	-0.23991224
167	0x3dace65d	0.08442376
168	0xbe1c90fd	-0.15289684
169	0xbe1d8af4	-0.15385038
170	0xbe4062a3	-0.18787627
171	0xbdebce3d	-0.11513946
172	0xbe434e89	-0.19072928
173	0xbe67115a	-0.22565213
174	0x3e5f9021	0.21832325
175	0xbe015c28	-0.12632811
176	0x3ba92fb3	0.005163157
177	0xbdfd308e	-0.12362777
178	0x3e83fafb	0.2577742
179	0xbe309daf	-0.17247652
180	0xbd2c4134	-0.04205437
181	0x3da7c795	0.08192364
182	0x3e1fb006	0.15594491
183	0x3dd777e4	0.10520914
184	0x3e14a7b0	0.14517093
185	0x3e5c8dea	0.21538511
186	0xbe01e8fa	-0.1268653
187	0xbe236878	-0.1595782
188	0xbe7601b8	-0.24024093
189	0xbe25a464	-0.16175991
190	0x3e0f911e	0.14020202
191	0xbd1be789	-0.038062606
192	0xbe030f5f	-0.12798832
193	0x3e88a8f1	0.26691392
194	0xbd3da5bb	-0.04630063
195	0x3cd170fa	0.025566567
196	0x3c9b521f	0.018960057
197	0x3e0d6c95	0.13810952
198	0x3e8654d1	0.26236585
199	0x3e7bedb8	0.24602401
200	0x3e21cec3	0.1580153
201	0x3e6c1f7e	0.23058888
202	0x3d5dbe9f	0.05413687
203	0xbdbc2594	-0.09186855
204	0x3dcfd7cd	0.101485826
205	0x3c895c0a	0.01676752
206	0x3d17f4e2	0.037098773
207	0xbdd4d785	-0.103926696
208	0x3e4ac548	0.1980182
209	0xbd4ab8e2	-0.049492724
210	0x3e799838	0.24374473
211	0x3d936f0f	0.07198917
212	0x3e4fe301	0.20301439
213	0x3d93e5fe	0.07221602
214	0xbe7955b3	-0.24349098
215	0xbbeebdf1	-0.0072858264
216	0xbe6cd11c	-0.23126644
217	0xbdfce83d	-0.123489834
218	0xbd3c7955	-0.04601415
219	0x3e194bbc	0.14970297
220	0xbe68133f	-0.22663592
221	0x3e555877	0.20834528
222	0xbe7ede19	-0.24889411
223	0x3dfdd959	0.123949714
224	0x3dd37d4c	0.10326633
225	0xbe2c2684	-0.16811568
226	0x3e5606a8	0.20900977
227	0x3d6473e2	0.055774577
228	0xbc9717c6	-0.018443953
229	0xbe34ee68	-0.1766907
230	0xbe0fea94	-0.14054328
231	0x3e6263bd	0.2210836
232	0x3dcacc6c	0.09902272
233	0xbda6738f	-0.0812751
234	0xbd914556	-0.07093303
235	0x3e8298ba	0.25507146
236	0x3e78ec67	0.2430893
237	0xbe67d92f	-0.22641443
238	0xbe5c48c6	-0.21512136
239	0x3db95181	0.09048749

conv1.bias f4 [16]
0	0x3dc95b92	0.09831919
1	0xbe551b75	-0.20811255
2	0xbcc1390c	-0.023586772
3	0xbe086557	-0.13319908
4	0xbc5675d5	-0.013089617
5	0xbe1feacd	-0.15616913
6	0xbe6c6f88	-0.23089421
7	0x3d78bf8f	0.06072956
8	0xbe399953	-0.18124895
9	0xbe3506c9	-0.1767837
10	0xbdd1a243	-0.10236027
11	0x3e067232	0.131295
12	0xbdb76e3f	-0.08956575
13	0x3e4714c0	0.19441509
14	0x3e0c1305	0.1367913
15	0x3e259a1e	0.16172072

bn1.weight f4 [16]
0	0x3f7de797	0.99181503
1	0x3f825a9b	1.01839
2	0x3f7cb30c	0.98710704
3	0x3f7f332c	0.9968746
4	0x3f7fdf0d	0.99949723
5	0x3f7cfcd0	0.9882326
6	0x3f811923	1.0085796
7	0x3f800af9	1.0003349
8	0x3f81ad42	1.0130999
9	0x3f7e92b8	0.99442625
10	0x3f81fcad	1.0155236
11	0x3f7b05cf	0.9805574
12	0x3f7db7f9	0.99108845
13	0x3f8016af	1.0006922
14	0x3f817085	1.0112463
15	0x3f7f3df1	0.9970389

bn1.bias f4 [16]
0	0x3bcfc172	0.006340199
1	0x3b9d0159	0.0047914204
2	0xbc3e2d9e	-0.011607556
3	0xbbaa8a59	-0.0052044806
4	0x3c570dac	0.013125818
5	0x3cdd57a5	0.027019331
6	0x3cdb0500	0.026735783
7	0x3b0a53bd	0.002110704
8	0x3d0d46ff	0.034491535
9	0x3bfe7197	0.007765006
10	0x3c964bde	0.018346723
11	0x3ccba1ab	0.024857363
12	0x3cf45a73	0.029828286
13	0x3cd0317d	0.025414223
14	0x3ca75a0f	0.020428685
15	0x3cc5a301	0.024125578

bn1.running_mean f4 [16]
0	0x3ec50dbb	0.38487038
1	0x3f3ef37f	0.74590296
2	0x3e645d4b	0.22301213
3	0xbdc1e03c	-0.094665974
4	0xbf3f1424	-0.7464011
5	0xbc6f1b75	-0.014593949
6	0xbe4ca623	-0.19985251
7	0xbebf2775	-0.3733479
8	0xbf1242ee	-0.57133377
9	0x3ebf5cc9	0.37375477
10	0x3eb68c6e	0.35654014
11	0xbeb2961e	-0.34880155
12	0x3db8086c	0.08985981
13	0x3f755714	0.95835996
14	0x3e71207d	0.2354755
15	0x3e388b7a	0.18021956

bn1.running_var f4 [16]
0	0x3b102a53	0.0021997883
1	0x3c62eacc	0.013849925
2	0x3b5a3882	0.0033297841
3	0x3aeb8177	0.0017967661
4	0x3c0f2a9e	0.008738188
5	0x3b6a3016	0.0035734228
6	0x3bf7ac65	0.007558393
7	0x3b8aa267	0.0042307856
8	0x3bb084ee	0.00538694
9	0x3be69cf3	0.007037753
10	0x3b939442	0.0045037577
11	0x3b93e2a4	0.0045131017
12	0x3bc139c3	0.0058967783
13	0x3c3d431e	0.0115516465
14	0x3bbf2d23	0.005834238
15	0x3b85e9e1	0.0040867184

conv2.weight f4 [32, 16, 5]
0	0x3d076eab	0.033064526
1	0xbcdbaaea	-0.026814897
2	0x3db1ed49	0.08687837
3	0xbcf6a399	-0.030107306
4	0x3d12bb6c	0.03582327
5	0x3d6e7134	0.058213428
6	0x3d0cb70c	0.034354255
7	0x3d0b4068	0.03399697
8	0xbda992dc	-0.08279964
9	0xbdd9b5d2	-0.106303826
10	0x3d61bc91	0.05511147
11	0x3cd8a80c	0.026447318
12	0x3b92c413	0.0044789403
13	0x3d51331e	0.05107414
14	0x3c25a4b3	0.010110068
15	0xbd9d91d2	-0.07693829
16	0xbd8d1694	-0.06889072
17	0xbbee3757	-0.0072697806
18	0xbd0c723e	-0.034288637
19	0xbc1a9777	-0.009435526
20	0xbc8e9a52	-0.01740757
21	0xbd96d017	-0.07363909
22	0xbd68a081	-0.056793693
23	0xbd9c9353	-0.07645287
24	0xbcb326f9	-0.02186917
25	0xbdde8a24	-0.10866192
26	0x3d5985b8	0.05310604
27	0xbd25ec2d	-0.040508438
28	0xbd9527e4	-0.07282999
29	0x3d29425c	0.04132305
30	0xbde27c21	-0.11058832
31	0x3c9bf5ff	0.019038199
32	0xbc80ec50	-0.015737683
33	0x3ce904b0	0.028444618
34	0xbe04656a	-0.12929311
35	0x3d863b23	0.06554248
36	0x3ca6bebd	0.020354623
37	0xbda3c832	-0.079971686
38	0x3d98a527	0.07453375
39	0x3c46578a	0.012105832
40	0xbc33d06a	-0.010974983
41	0xbdbe433b	-0.09290167
42	0xbdaf99a3	-0.08574226
43	0x3bc4640d	0.0059933723
44	0xbd08feea	-0.03344623
45	0x3cd04968	0.025425628
46	0x3ccff5b1	0.02538571
47	0xbc2e4fe3	-0.010639164
48	0x3db817a8	0.08988887
49	0xbc18ecbd	-0.009333787
50	0xbd582070	-0.05276531
51	0x3d8f85fb	0.070079766
52	0x3da2df20	0.07952714
53	0x3d774832	0.060371585
54	0xbd3ee18e	-0.046601824
55	0xbd709fbf	-0.058746096
56	0xbd772643	-0.060339224
57	0x3b3df56c	0.0028985394
58	0x3d654dbc	0.055982336
59	0xbd9d0134	-0.07666245
60	0xbd03b049	-0.03215054
61	0xbd2e64d1	-0.042576615
62	0xbb7e5854	-0.0038809972
63	0xbd718446	-0.058964036
64	0xbd7658d3	-0.060143303
65	0x3cbc74f7	0.023004992
66	0x3dcb006e	0.09912191
67	0x3d49cd53	0.049268078
68	0xbc8fc11b	-0.017548135
69	0x3db8a88f	0.09016525
70	0xbdb2dddf	-0.08733725
71	0x3db770bb	0.089570485
72	0xbca9f6b4	-0.02074752
73	0x3d5f0224	0.0544454
74	0xbcae96d1	-0.02131215
75	0x3c8e8d75	0.017401436
76	0xbd226d23	-0.039654862
77	0x3d388541	0.045048956
78	0x3cc298cc	0.0237545
79	0xbbdbdd66	-0.0067097424
80	0xbab151f6	-0.0013528455
81	0xbd25e5bd	-0.0405023
82	0x3d353684	0.044241443
83	0xbd8ba8ca	-0.06819303
84	0x3cf0e813	0.029407537
85	0xbcdd4913	-0.027012384
86	0xbc923469	-0.017847257
87	0xbdd4a287	-0.10382562
88	0x3d915223	0.070957445
89	0x3da90259	0.08252401
90	0x3db48484	0.08814338
91	0xbdd49255	-0.10379473
92	0xbc818a0b	-0.015812894
93	0xbda8e5ea	-0.082469776
94	0x3d8ecb6a	0.06972392
95	0xbd4b73b3	-0.049670886
96	0xbda6b663	-0.08140256
97	0xbdb1fb0c	-0.086904615
98	0xbddf0b4a	-0.10890825
99	0xbd99b772	-0.075056925
100	0xbdcfbd38	-0.101435125
101	0xbd1af517	-0.037831392
102	0x3d861b73	0.06548204
103	0xbca223b5	-0.019792417
104	0x3d246481	0.04013491
105	0xbd97faff	-0.074209206
106	0xbd493c24	-0.04912962
107	0xbdb6f8dd	-0.08934186
108	0x3c7a2916	0.015268585
109	0xbdb6530d	-0.089025594
110	0x3cdc41d3	0.026886856
111	0xbc377cc3	-0.011199179
112	0x3cfa864d	0.030581618
113	0x3c9e6345	0.019334445
114	0xbd3a1a5d	-0.0454353
115	0x3d97dca7	0.07415133
116	0xbd56c1bf	-0.052430864
117	0xbd4d6fc2	-0.05015541
118	0xbcd397d9	-0.025829243
119	0xbddbbede	-0.107297644
120	0xbc44d78e	-0.012014283
121	0x3d954edd	0.072904326
122	0xbd134df2	-0.035963006
123	0x3db82374	0.08991137
124	0x3d860b9a	0.065451816
125	0x3a3a8471	0.0007115072
126	0xbd801f6c	-0.06255993
127	0x3c813ef9	0.015777098
128	0xbdf04e9b	-0.11733743
129	0x3c4fcc20	0.012682945
130	0x3d4b6e7e	0.04966592
131	0x3cfb633a	0.030686963
132	0xbdd6adf1	-0.104823954
133	0xbccb4b2f	-0.024816124
134	0xbc479aba	-0.012182886
135	0x3ae323f4	0.001732944
136	0x3d854471	0.06507195
137	0xbdfaf526	-0.122537896
138	0x3da1e873	0.07905664
139	0x3da9ead3	0.08296742
140	0xbda946d7	-0.08265465
141	0x3d6aa2f0	0.057284296
142	0xbdb8adb3	-0.090175055
143	0xbd9dfa96	-0.07713811
144	0xbdcb780e	-0.09935008
145	0x3d7e83b6	0.062137328
146	0xbdae24cb	-0.085031115
147	0xbcdda8ae	-0.027057972
148	0xbd75befb	-0.059996586
149	0xbd5b305d	-0.05351292
150	0xbd8c1465	-0.068398274
151	0xbd8b94bb	-0.068154775
152	0xbdac10dd	-0.08401654
153	0x3dd3d4f9	0.10343356
154	0x3bb98c91	0.005662509
155	0x3d98bf5b	0.07458373
156	0x3d18c651	0.037298504
157	0xbdc89340	-0.09793711
158	0xbc79d987	-0.0152496165
159	0xbbede525	-0.007259982
160	0xbca0902e	-0.0196
161	0xbdc58a3d	-0.096455075
162	0x3db3f1ad	0.0878633
163	0xbc73d9f5	-0.014883508
164	0x3d003d2d	0.03130834
165	0xba939399	-0.0011259197
166	0xbd9aee20	-0.0756495
167	0xbbf6b820	-0.0075292736
168	0x3deb79e6	0.1149786
169	0xbddc7510	-0.107645154
170	0xbd80dd84	-0.06292251
171	0xbc6fdf01	-0.014640571
172	0xbdb3a345	-0.087713756
173	0x3c081171	0.00830494
174	0x3a2bbd93	0.0006551381
175	0x3d519246	0.051164888
176	0x3dba95e4	0.091106206
177	0x3d2c96ce	0.042136006
178	0x3cc485de	0.023989614
179	0xbd949b70	-0.0725621
180	0x3d83969e	0.06425212
181	0xbdc2e588	-0.09516436
182	0xbca64c75	-0.02030013
183	0xbca40b3c	-0.020024888
184	0xbd4518ec	-0.04811947
185	0xbdad026c	-0.084477276
186	0xbd84382e	-0.06456028
187	0xbd9a3d6e	-0.07531248
188	0x3d9bfc99	0.076165386
189	0x3d8eeb5f	0.06978487
190	0xbd58ac99	-0.052898977
191	0xbc7ac425	-0.015305554
192	0x3d4ab46d	0.049488474
193	0x3d92d39a	0.07169266
194	0xbd73ab44	-0.059489504
195	0xbd853a13	-0.065052174
196	0xbd4348c2	-0.04767681
197	0x3dd9c1a1	0.10632635
198	0xbdda93b0	-0.106727004
199	0xbdb9d445	-0.0907369
200	0xbe14b038	-0.14520347
201	0xbded58c3	-0.115891956
202	0x3cf6c5f3	0.030123686
203	0xbdaa086b	-0.08302387
204	0x3c3aed9d	0.0114091905
205	0x3decbc0b	0.11559304
206	0xbdc31236	-0.09524958
207	0x3d21db91	0.039516035
208	0x3dab64bd	0.08368824
209	0xbc26baee	-0.010176403
210	0x3deb0b71	0.11476792
211	0x3db86c30	0.0900501
212	0x3c3075d3	0.010770279
213	0x3d9337d8	0.07188386
214	0x3dcadead	0.09905753
215	0xbca7bf2b	-0.020476898
216	0xbc99e67f	-0.018786667
217	0x3d7ba50f	0.06143671
218	0x3d5f636f	0.054538187
219	0x3cb05cd3	0.021528637
220	0xbd8d7712	-0.069074765
221	0x3da2a8f6	0.07942383
222	0x3cffcffa	0.0312271
223	0xbd8d780a	-0.06907661
224	0xbcddfae5	-0.027097175
225	0xbdcb3c0f	-0.09923565
226	0x3cb75e84	0.022383936
227	0x3dbc9847	0.09208732
228	0xbc51b811	-0.0128002325
229	0xbd8ea9f3	-0.06966009
230	0xbd45b40d	-0.048267413
231	0xbd9001b7	-0.07031577
232	0xbdd37890	-0.1032573
233	0x3cfd6363	0.03093118
234	0x3d2162ac	0.03940074
235	0xbb6facad	-0.0036571429
236	0x3d54155b	0.05177818
237	0x3d9036f5	0.07041732
238	0x3ddb9458	0.10721654
239	0x3dcac07f	0.09899997
240	0x3c87f0b6	0.016594272
241	0xbc2a3dde	-0.010390727
242	0xbdddb6a6	-0.10825853
243	0x3d882c37	0.06649058
244	0x3da9826f	0.08276831
245	0xbc407b92	-0.011748211
246	0x3dab16b3	0.08353939
247	0x3a81182b	0.0009849122
248	0xbb863060	-0.004095122
249	0x3cd8095a	0.026371647
250	0x3c868e20	0.016425192
251	0xbb4415a3	-0.0029920123
252	0x3dbfc0e3	0.09362962
253	0x3d5ad808	0.05342868
254	0x3d038f91	0.032119337
255	0xbd99a4db	-0.07502147

conv2.bias f4 [32]
0	0xbcb83b60	-0.02248925
1	0xbddf95d5	-0.1091725
2	0x3de763a7	0.11298304
3	0xbd0a6e45	-0.033796567
4	0xbdd6cc93	-0.10488238
5	0xbdde7e96	-0.10863988
6	0x3d0ea97f	0.034829613
7	0x3ddc8508	0.10767561
8	0x3c20a506	0.00980497
9	0xbd47b6c3	-0.04875828
10	0xbdae467a	-0.08509536
11	0xbd99bd38	-0.07506794
12	0x3caa5fb6	0.020797592
13	0x3d608d9f	0.05482256
14	0x3d412153	0.04715092
15	0x3a7eb795	0.0009716687
16	0x3d3a0012	0.045410223
17	0x3c64c530	0.013963029
18	0x3b7b1c7d	0.003831654
19	0x3d7f4c96	0.062328897
20	0x3d034177	0.032044854
21	0xbd6965a0	-0.056981683
22	0xbda9dbbe	-0.082938656
23	0xbc990c30	-0.01868257
24	0x3d1364b5	0.035984714
25	0x3d149956	0.036279045
26	0xbdb12221	-0.08649088
27	0x3c9ec87f	0.019382713
28	0xbc644f13	-0.013934868
29	0x3d732aae	0.059366874
30	0xbdbdfacd	-0.09276352
31	0xbdafe002	-0.08587648

bn2.weight f4 [32]
0	0x3f80b98a	1.0056622
1	0x3f823595	1.0172602
2	0x3f827d15	1.0194422
3	0x3f7c871f	0.9864368
4	0x3f7da422	0.9907857
5	0x3f7f8aad	0.9982098
6	0x3f820222	1.0156901
7	0x3f7e042a	0.99225104
8	0x3f7cbcab	0.98725384
9	0x3f7e9fc0	0.9946251
10	0x3f8027d3	1.0012153
11	0x3f812d0c	1.0091872
12	0x3f816512	1.0108969
13	0x3f7fd621	0.9993611
14	0x3f7db6d9	0.9910713
15	0x3f800e31	1.0004331
16	0x3f8003f5	1.0001208
17	0x3f7f6a7b	0.9977185
18	0x3f7e4cd7	0.99336
19	0x3f8089bd	1.0042034
20	0x3f7fb4dd	0.9988535
21	0x3f7cbd38	0.98726225
22	0x3f7f9b2a	0.99846137
23	0x3f7b462d	0.98153955
24	0x3f81287c	1.009048
25	0x3f81814c	1.0117583
26	0x3f8142bb	1.009849
27	0x3f7fe15a	0.99953234
28	0x3f833021	1.0249063
29	0x3f803014	1.0014672
30	0x3f808545	1.0040671
31	0x3f80191d	1.0007664

bn2.bias f4 [32]
0	0x3af4c227	0.0018673585
1	0xbbf9a0c3	-0.0076180412
2	0x3c1f5c9c	0.00972667
3	0xbc200302	-0.009766342
4	0xbcd24331	-0.025666805
5	0xbaa68e9b	-0.0012707295
6	0xbb91b171	-0.0044462015
7	0x3b57ec23	0.0032947145
8	0xba9ee168	-0.001212162
9	0xbcd6b09d	-0.026207263
10	0x3c0d2f79	0.008617275
11	0xbba30403	-0.0049748435
12	0x3be4c819	0.0069818613
13	0xbb0b258c	-0.0021232096
14	0xbc8f8d65	-0.017523477
15	0xbc25410d	-0.01008631
16	0x3c0a9f59	0.008460843
17	0xbc183061	-0.009288878
18	0xbc9d63ec	-0.019212686
19	0x3bb18972	0.005417996
20	0x3c1b0cfc	0.009463545
21	0xbcb1f590	-0.021723539
22	0xbc49cba6	-0.01231662
23	0xbc59806c	-0.013275247
24	0xbc0fce32	-0.008777188
25	0x3c4c7e1a	0.012481237
26	0x3a050581	0.00050743675
27	0x3a962d3a	0.001145757
28	0x3c53ed9d	0.012935069
29	0x3bd0424f	0.006355561
30	0xbcb1ec20	-0.021719038
31	0x3be4ca90	0.006982155

bn2.running_mean f4 [32]
0	0xbe825ffd	-0.25463858
1	0xbf4a5e71	-0.79050356
2	0x3d64f920	0.055901647
3	0x3e352c70	0.17692733
4	0xbe88da80	-0.26729202
5	0x3e32cbef	0.17460607
6	0xbeb43170	-0.35193968
7	0x3ec99615	0.39372316
8	0x3e2723b6	0.16322216
9	0xbe564439	-0.20924462
10	0x3e040687	0.12893115
11	0xbe5cc255	-0.21558507
12	0xbe661a2a	-0.22470918
13	0x3e896137	0.26831982
14	0xbdd52985	-0.1040831
15	0xbf0bbd47	-0.5458569
16	0x3f0f990f	0.56092924
17	0xbe091eec	-0.13390702
18	0x3cfcb9e9	0.030850368
19	0x3b6af7e4	0.003585332
20	0xbd8e8544	-0.06959012
21	0xbdb3f647	-0.08787208
22	0x3e89a79d	0.2688569
23	0x3e56a693	0.2096198
24	0x3edaa149	0.42701176
25	0xbd732197	-0.059358206
26	0xbec4beee	-0.38426918
27	0xbce030eb	-0.027367076
28	0xbdf5eca4	-0.12008026
29	0x3d13317c	0.035935864
30	0xbe86bdb3	-0.26316604
31	0xbe9f57d2	-0.3112169

bn2.running_var f4 [32]
0	0x3e47ebe8	0.19523585
1	0x3ea4fd58	0.32224536
2	0x3e40e6f5	0.18838103
3	0x3e3cb775	0.18429358
4	0x3dab7364	0.083716184
5	0x3e36a4a2	0.1783624
6	0x3e0706ef	0.13186239
7	0x3e031db1	0.12804295
8	0x3df9b8f9	0.12193484
9	0x3e146a1d	0.14493604
10	0x3e935da3	0.28782377
11	0x3e16903a	0.14703456
12	0x3e1558ca	0.14584652
13	0x3e03b1fe	0.12860867
14	0x3e015efd	0.12633891
15	0x3e97c128	0.29639554
16	0x3e683b86	0.22678956
17	0x3e12da7b	0.14341156
18	0x3e264f1f	0.1624112
19	0x3dc8c629	0.09803421
20	0x3e085eae	0.13317367
21	0x3df623e0	0.12018561
22	0x3e310ea5	0.17290743
23	0x3e253fc4	0.16137606
24	0x3e5ccce8	0.2156254
25	0x3e280eb3	0.16411857
26	0x3e372cdb	0.17888205
27	0x3dbadc9d	0.0912411
28	0x3e098c9f	0.13432549
29	0x3db565c6	0.08857302
30	0x3e81c29b	0.25343785
31	0x3debdc41	0.115166195

conv3.weight f4 [64, 32, 5]
0	0x3d7d8f90	0.06190449
1	0x3da20449	0.079109736
2	0x3d4ecf96	0.050490938
3	0x3d9b59ad	0.07585464
4	0xbd488146	-0.04895141
5	0xbd8338c1	-0.06407309
6	0xbd26110c	-0.0405436
7	0xbd064f2d	-0.03279035
8	0xbd0da3cf	-0.03458005
9	0xbd71dc2c	-0.059047863
10	0xbbc7430c	-0.0060809907
11	0x3d00ecf0	0.03147596
12	0xbca29023	-0.01984412
13	0xbcb322a7	-0.02186711
14	0xbcb1c346	-0.021699559
15	0x3d8dab04	0.06917384
16	0xbd4a8515	-0.049443323
17	0xbd72f174	-0.0593123
18	0x3c9151e8	0.017739251
19	0x3c1a8f92	0.009433644
20	0x3d2be87e	0.04196977
21	0x3d14b3bf	0.03630423
22	0x3d4a0898	0.049324602
23	0xbd8acb7a	-0.06777091
24	0x3d3578c4	0.044304624
25	0x3d032b89	0.03202394
26	0x3c890610	0.016726524
27	0x3d0d9fc0	0.034576178
28	0x3d570728	0.05249706
29	0x3d62c42a	0.055362858
30	0xbc3ca4d6	-0.011513909
31	0xbccc9fb4	-0.024978496
32	0xbd2c2ec2	-0.04203678
33	0xbd2a0f14	-0.041518286
34	0xbca89090	-0.020576745
35	0x3b817181	0.0039502983
36	0xbd3c9459	-0.046039913
37	0x3b41a3e0	0.002954714
38	0x3d62c57e	0.055364124
39	0x3d412f47	0.047164228
40	0xbc0b0546	-0.008485144
41	0xbcf98c32	-0.030462358
42	0xbd6dced6	-0.058058582
43	0x3c6d750b	0.014493237
44	0xbd8cd793	-0.06877055
45	0x3d8c2c3e	0.06844376
46	0x3d81ee9f	0.063443415
47	0x3d7e20e9	0.062043104
48	0xbc56ff2b	-0.01312236
49	0x3cfb01cb	0.030640503
50	0xbd63b90c	-0.055596396
51	0x3c492184	0.012276057
52	0x3d2164c3	0.039402734
53	0xbd4efe45	-0.05053546
54	0xbd68e35d	-0.056857456
55	0xbd2f7e80	-0.04284525
56	0x3d59af8c	0.05314593
57	0x3ce89047	0.02838911
58	0xbb42a3f8	-0.0029699784
59	0x3c1d7de0	0.0096125305
60	0xbc31519f	-0.010822683
61	0x3dac24b0	0.08405435
62	0x3d0d11c1	0.03444076
63	0x3d8ea711	0.06965459
64	0x3ac3cfca	0.0014939245
65	0x3bb8478a	0.0056237625
66	0x3d3cfa83	0.046137344
67	0xbce7dc0d	-0.02830317
68	0xbca9d133	-0.020729637
69	0x3d4e8619	0.050420854
70	0xbcf1a1ad	-0.029496038
71	0x3c2f0968	0.010683395
72	0xbd3cd954	-0.046105698
73	0x3d8c17bd	0.06840465
74	0xbd0449d9	-0.03229699
75	0x3d3aafb2	0.045577712
76	0x3d4629c4	0.048379675
77	0x3bacdf91	0.0052756746
78	0x3d479b6e	0.048732214
79	0xbcfe3c47	-0.031034602
80	0xbd303521	-0.043019418
81	0x3c78e686	0.01519168
82	0x3809d9a5	3.2866043e-05
83	0x3d50fd7c	0.05102299
84	0x3ba07e58	0.004897874
85	0x3d1093dd	0.035297263
86	0xbd6006d9	-0.05469403
87	0xbc84e5ab	-0.016222795
88	0x3d59108f	0.052994307
89	0x3d9f8791	0.07789529
90	0xbd14c838	-0.036323756
91	0xbc8e7d06	-0.0173936
92	0x3c2f900a	0.010715494
93	0xbc3d00e1	-0.011535854
94	0x3b32d8c3	0.0027289845
95	0xbd93bc52	-0.072136536
96	0x3d683f29	0.05670086
97	0x3d3f2cfc	0.04667376
98	0xbd76592e	-0.060143642
99	0xbc97198f	-0.018444804
100	0x3d8921c2	0.06695892
101	0x3d695a58	0.056970924
102	0x3d4e0d7b	0.050305825
103	0x3d9978e2	0.0749376
104	0x3d3a9756	0.04555448
105	0xbcfe7aff	-0.031064508
106	0x3b3dc788	0.0028958041
107	0xbd6fbc6a	-0.058529295
108	0x3d9db429	0.077003784
109	0xbd230eed	-0.039809156
110	0x3cb61253	0.022225535
111	0x3d5783f2	0.052616067
112	0x3d788450	0.060673058
113	0x3c2385fb	0.009980674
114	0xbcfe782d	-0.031063164
115	0xbbe64ac7	-0.007027957
116	0xbd83ecb7	-0.06441634
117	0xbccf3b02	-0.025296692
118	0xbae5b980	-0.0017526597
119	0x3d1a011c	0.037598714
120	0x3d27b5c2	0.040944822
121	0x3c1475ee	0.00906132
122	0x3d283408	0.041065246
123	0xbd0ec052	-0.03485138
124	0x3ca5f9c9	0.020260708
125	0x3d8f00ce	0.06982575
126	0x3d9cd39f	0.07657551
127	0x3d0ff56c	0.035146162
128	0xbd395ca9	-0.045254383
129	0x3d3d39fa	0.04619787
130	0x3d9841ed	0.07434449
131	0xbb6dbc8e	-0.0036275717
132	0x3ce6e90f	0.028187303
133	0x3d92ba86	0.07164483
134	0x3db69211	0.08914579
135	0x3c80442d	0.015657509
136	0xbcba5efd	-0.022750372
137	0xbd1f2db7	-0.038861956
138	0xbca577d2	-0.020198736
139	0x3d1bb5f3	0.038015317
140	0x3c3a91d3	0.011387306
141	0xbd48ad3c	-0.048993334
142	0xbd0ec10d	-0.034852076
143	0xbcc927ac	-0.02455505
144	0x3d9abcc3	0.07555535
145	0xbc91b55a	-0.01778667
146	0x3c3f3932	0.011671351
147	0xb80a2c21	-3.2942862e-05
148	0xbd488350	-0.048953354
149	0x3ccea3c5	0.025224576
150	0x3cd50b50	0.02600637
151	0x3cd7a4ca	0.026323695
152	0x3d8ada20	0.06779885
153	0x3d215d80	0.03939581
154	0xbc2e8627	-0.010652102
155	0xbc28c8e7	-0.010301805
156	0x3d9ab3c0	0.07553816
157	0x3d6db099	0.058029745
158	0xbd8068f9	-0.06270022
159	0xbd9225d4	-0.071361214
160	0x3d8ad883	0.067795776
161	0x3cb2fcef	0.021849124
162	0x3d53772f	0.051627334
163	0xbc9f792c	-0.019466959
164	0x3ad0e297	0.001593667
165	0x3d67491d	0.05646621
166	0xbd3046cf	-0.04303628
167	0xbd8fabf6	-0.07015221
168	0xbc73935f	-0.014866679
169	0x3c53f575	0.0129369395
170	0xbd322bc9	-0.043498788
171	0x3c7d3e5a	0.01545676
172	0x3d5ebffc	0.05438231
173	0xbcfaf3e9	-0.030633884
174	0x3c656bd0	0.014002755
175	0xbcf7093c	-0.03015577
176	0x3c803925	0.015652249
177	0x3cab0264	0.020875163
178	0xbb982a80	-0.0046437383
179	0x3d748aeb	0.059702795
180	0xbd321328	-0.0434753
181	0x3d212592	0.03934247
182	0x3d229a3a	0.039697863
183	0xbd286993	-0.04111631
184	0xbcf6e723	-0.030139511
185	0x3d21a707	0.03946593
186	0x3d5a584a	0.053306855
187	0xbd05be51	-0.032652203
188	0x3b24f530	0.0025170557
189	0x3ca64ba1	0.020299735
190	0xbd5c3213	-0.053758692
191	0xbdad94a3	-0.08475616
192	0x3d1f8366	0.03894367
193	0xbca2070d	-0.019778753
194	0x3d81000f	0.06298839
195	0xbbd63c96	-0.006537984
196	0x3c1979e2	0.009367438
197	0x3d418887	0.047249343
198	0x3cccf30b	0.025018236
199	0x3d4c63b9	0.04989979
200	0xbd897381	-0.06711484
201	0xbdb23923	-0.08702304
202	0xbdaf41af	-0.0855745
203	0xbd2b8f8d	-0.041884948
204	0xbd84dbfb	-0.064872704
205	0xbd1d6bd8	-0.038432926
206	0xba822764	-0.0009929952
207	0x3d58e2c0	0.05295062
208	0xbd5f7b69	-0.054561052
209	0x3c15defb	0.009147401
210	0x3ce0c0fe	0.027435776
211	0xbd1c7559	-0.03819785
212	0x3cb956fc	0.022624485
213	0xbd08410c	-0.03326516
214	0x3d10151a	0.035176374
215	0x3d11e7cb	0.035621446
216	0xbd7d871f	-0.06189644
217	0x3d55e09d	0.05221616
218	0xbd75a837	-0.059974875
219	0x3c10a64d	0.008828712
220	0xbd604fac	-0.05476348
221	0x3d8d2a67	0.06892853
222	0x3cab5f5a	0.02091949
223	0xbd0b4c84	-0.034008518
224	0xbccb3e3b	-0.024809947
225	0xbd914b54	-0.07094446
226	0x3c971529	0.018442707
227	0xbb1aeabd	-0.002363845
228	0x3ce10075	0.027466038
229	0x3d8214eb	0.06351646
230	0xbce626ad	-0.028094614
231	0xbd639808	-0.05556491
232	0x3d75b0d6	0.059983097
233	0xbd9feba1	-0.078086145
234	0xbb406ef2	-0.0029363004
235	0x3c708edb	0.014682497
236	0xbd37d4aa	-0.044880547
237	0xbd8026a9	-0.06257374
238	0x3d47ee9b	0.048811536
239	0x3b75ba30	0.003749501
240	0xbc51e383	-0.012810591
241	0xbd85ed82	-0.06539442
242	0xbbfa8595	-0.0076453188
243	0xbb35fac8	-0.0027767885
244	0x3c6b0046	0.014343327
245	0x3d17ff0f	0.037108477
246	0xbc81cfc6	-0.015846144
247	0xbb09b568	-0.0021012668
248	0x3d46fa72	0.048578687
249	0x3d52259a	0.05130539
250	0x3d578e48	0.052625924
251	0x3c68826c	0.014191251
252	0x3d2c351a	0.04204283
253	0x3baa37d9	0.005194646
254	0xbcf05043	-0.029335147
255	0xbc94c892	-0.018162046

conv3.bias f4 [64]
0	0xbd3846e7	-0.044989493
1	0xbd01024e	-0.03149634
2	0xbd3797ad	-0.044822384
3	0x3d952a87	0.07283502
4	0xbd8f287d	-0.069901444
5	0xbd936e94	-0.071988255
6	0x3bdec8c7	0.006798837
7	0x3d47e4fb	0.048802357
8	0xbc8d37f3	-0.017238593
9	0x3be6d30a	0.007044201
10	0x3cb45fd0	0.022018343
11	0x3d5cccfb	0.053906422
12	0x3bb48e2c	0.0055101123
13	0x3d021c8b	0.031765502
14	0x3d5f2fbd	0.054488886
15	0x3ce59ada	0.02802794
16	0x3d1cb174	0.03825517
17	0x3d0f0637	0.034918036
18	0xbbcd8d26	-0.0062729297
19	0xbd85aeeb	-0.065275036
20	0xbd1dcccb	-0.038525384
21	0xbc71fca0	-0.014769703
22	0xbd95c97d	-0.073138215
23	0x3d7ad624	0.061239377
24	0xbc9306ac	-0.017947517
25	0x3d46c68b	0.04852919
26	0x3c5fd414	0.013661403
27	0x3d71392f	0.058892425
28	0xbd5b7afb	-0.05358408
29	0x3d9bfd67	0.07616692
30	0x3b8c4ebf	0.004281848
31	0xbd8ceb32	-0.068807974
32	0x3cf777b8	0.030208454
33	0x3cee4bbf	0.029088853
34	0x3cec2b34	0.028829195
35	0x3c1c07e3	0.009523365
36	0xbd279bbc	-0.040920004
37	0x3d9d0c41	0.07668353
38	0xbd54617c	-0.05185078
39	0xbd9d91d1	-0.07693828
40	0xbcd718c7	-0.026256932
41	0xbc209a08	-0.009802349
42	0xbd2d8b0c	-0.042368934
43	0x3d990381	0.074713714
44	0xbd49e900	-0.04929447
45	0xbd4f489b	-0.05060635
46	0xbbf2a05c	-0.0074043702
47	0xbd4afbbc	-0.04955648
48	0x3d03b8b4	0.03215857
49	0xbd889dd5	-0.06670729
50	0xbd3fd3fe	-0.04683303
51	0xbd4611cf	-0.048356827
52	0xbc3f1abd	-0.01166409
53	0xbd51886e	-0.0511555
54	0xbca70880	-0.020389795
55	0xbd160b26	-0.036631726
56	0x3d844010	0.064575315
57	0xbd35214f	-0.04422122
58	0xbcae07e7	-0.021244003
59	0xbd4578ec	-0.048211023
60	0xbcba3f8a	-0.022735376
61	0xbbf87b40	-0.007583052
62	0x3da3f6c0	0.08006048
63	0xbc9f8b42	-0.019475583

bn3.weight f4 [64]
0	0x3f7cf699	0.9881378
1	0x3f7dfc32	0.99212945
2	0x3f7e1c02	0.99261487
3	0x3f81800a	1.01172
4	0x3f7da073	0.9907295
5	0x3f8156b3	1.0104584
6	0x3f7cd8cc	0.98768306
7	0x3f83abf9	1.0286857
8	0x3f809e7a	1.0048363
9	0x3f7ec48b	0.9951865
10	0x3f7b16f0	0.98081875
11	0x3f829e6b	1.0204595
12	0x3f7c534a	0.9856459
13	0x3f802fe5	1.0014616
14	0x3f813ef5	1.0097338
15	0x3f802437	1.0011052
16	0x3f841417	1.0318631
17	0x3f7bfd96	0.98433816
18	0x3f7e413f	0.9931831
19	0x3f80d656	1.006541
20	0x3f803eb4	1.0019135
21	0x3f7e1518	0.99250937
22	0x3f80189f	1.0007514
23	0x3f80eafc	1.0071712
24	0x3f80fa57	1.0076398
25	0x3f808afc	1.0042415
26	0x3f80cf0c	1.0063186
27	0x3f7b4052	0.9814502
28	0x3f7d98e8	0.9906144
29	0x3f7efd2f	0.9960508
30	0x3f80310f	1.0014971
31	0x3f7ef174	0.9958718
32	0x3f81336c	1.0093818
33	0x3f81287c	1.009048
34	0x3f818abe	1.0120466
35	0x3f7abfde	0.97949016
36	0x3f7d8cb9	0.9904285
37	0x3f7f7f8e	0.9980401
38	0x3f7a6795	0.97814304
39	0x3f7b7497	0.98224777
40	0x3f7dd300	0.99150085
41	0x3f82115f	1.0161551
42	0x3f7d990b	0.9906165
43	0x3f7df92d	0.9920834
44	0x3f8106e8	1.0080233
45	0x3f7f0f47	0.99632686
46	0x3f80081b	1.0002474
47	0x3f80c47e	1.0059965
48	0x3f7d5c03	0.98968524
49	0x3f823d73	1.0175003
50	0x3f7e2726	0.99278486
51	0x3f829432	1.0201476
52	0x3f8168d8	1.0110121
53	0x3f7f7d62	0.99800694
54	0x3f7c2e4c	0.98508143
55	0x3f7f001d	0.9960955
56	0x3f7d8b4a	0.99040663
57	0x3f7b10bd	0.98072416
58	0x3f805fcb	1.0029234
59	0x3f80c84d	1.0061127
60	0x3f809472	1.0045302
61	0x3f813ab9	1.0096046
62	0x3f8252b6	1.0181491
63	0x3f798648	0.9747052

bn3.bias f4 [64]
0	0xbc0496ea	-0.008092621
1	0xbcb9a072	-0.022659514
2	0x3bd4fb33	0.006499672
3	0xbc0869df	-0.008326023
4	0x3ab15168	0.0013528289
5	0xbcda0c70	-0.026617259
6	0xbcd80ce1	-0.026373329
7	0x3b3e49c5	0.002903567
8	0xbc26a8bd	-0.010172066
9	0xbba280cd	-0.004959202
10	0xbc9b18af	-0.018932668
11	0xbb69b832	-0.0035662767
12	0xbc812e66	-0.015769195
13	0xbcb90c09	-0.022588747
14	0xbc8abd5e	-0.016936
15	0xba8d2dcd	-0.0010771096
16	0x3ab27133	0.0013614058
17	0xbbf83929	-0.0075751734
18	0xbc6ff343	-0.0146454
19	0x3b701ace	0.003663707
20	0xbb926be6	-0.004468429
21	0xbc737f34	-0.014861871
22	0xbb2d031b	-0.0026399556
23	0xbc1606e3	-0.009156915
24	0xbbe79f7a	-0.0070685716
25	0xbba580df	-0.005050763
26	0xba9f4845	-0.0012152275
27	0xbc309348	-0.010777302
28	0x3ba653c4	0.0050759036
29	0xbc8020c4	-0.015640624
30	0xbbcc2330	-0.0062297806
31	0x3a95548e	0.0011392997
32	0x3c16a395	0.009194274
33	0xbc910f6d	-0.01770755
34	0xbc096cae	-0.008387728
35	0xbcad1ce4	-0.02113194
36	0xbb8ddaaa	-0.0043290453
37	0xbc1032a5	-0.008801137
38	0xbce7bad5	-0.02828733
39	0xbca37f19	-0.019958066
40	0xbcea7d33	-0.028624153
41	0xbb9973fb	-0.0046830154
42	0xbcc40ac5	-0.023930917
43	0x3b0ab02a	0.002116213
44	0x3b7f7216	0.0038977913
45	0xbd17e288	-0.03708127
46	0xbc221dac	-0.00989477
47	0xbc030095	-0.007995744
48	0xbcb2f4b7	-0.021845205
49	0xbc15b856	-0.009138187
50	0xbc703123	-0.014660153
51	0xbbb39d50	-0.0054813996
52	0x3b8d9c00	0.004321575
53	0xbd22af3d	-0.0397179
54	0xbc8b0efe	-0.016974922
55	0xbc25a2e8	-0.010109641
56	0xba8b3f74	-0.0010623769
57	0xbc3b73bd	-0.011441168
58	0xbc2cdd43	-0.0105508
59	0xbc1ed934	-0.00969534
60	0xbc85161b	-0.016245892
61	0xbc84c923	-0.01620919
62	0xbb917c85	-0.0044398927
63	0x3bfffccb	0.0078121177

bn3.running_mean f4 [64]
0	0x3f2a1a1d	0.66446096
1	0xbea0bb2f	-0.3139281
2	0xbef47953	-0.47748813
3	0xbe87124a	-0.2638114
4	0xbe79330c	-0.24335879
5	0xbe8790e9	-0.26477745
6	0xbed8e7b5	-0.42364278
7	0xbe76b661	-0.2409301
8	0xbed1d995	-0.40986314
9	0xbed1bf42	-0.4096623
10	0xbe2e58a3	-0.17026
11	0xbea8ada2	-0.3294497
12	0xbeb67a44	-0.35640156
13	0x3da7aaa7	0.08186846
14	0xbe022315	-0.12708695
15	0xbebb351a	-0.3656395
16	0x3c07a349	0.008278676
17	0x3ecc6475	0.39920393
18	0x3ec5b60a	0.38615447
19	0xbe987150	-0.2977395
20	0x3dd3a461	0.10334087
21	0xbe75d8e0	-0.24008512
22	0xbd462475	-0.048374612
23	0xbd30a9f8	-0.043130845
24	0xbec49dee	-0.3840174
25	0x3e3c0760	0.18362188
26	0xbeb233f1	-0.34805253
27	0x3ec66c05	0.38754287
28	0xbe0b25e9	-0.1358868
29	0x3d266ef1	0.040633146
30	0xbf3c7adf	-0.73624986
31	0xbf154898	-0.58313894
32	0xbecfd3cc	-0.40591276
33	0xbe4d5c45	-0.2005473
34	0xbea54507	-0.32279226
35	0x3dcdff38	0.10058445
36	0x3f52bd18	0.82319784
37	0xbe1399f6	-0.144142
38	0x3d8561bc	0.06512782
39	0xbef0d522	-0.47037607
40	0x3d8ad08e	0.0677806
41	0xbda04374	-0.07825366
42	0xbe404b3e	-0.18778703
43	0xbd5b19ee	-0.053491525
44	0xbea95e81	-0.33079913
45	0xbde3b947	-0.11119323
46	0x3e4f1d3c	0.20225996
47	0xbed31a13	-0.4123083
48	0xbe4f5bb0	-0.2024982
49	0xbf18cee2	-0.5969068
50	0x3ea1cc8e	0.31601375
51	0xbeb43669	-0.35197762
52	0x3ea94c6f	0.33066127
53	0x3da7493a	0.08168264
54	0x3e2c23c6	0.16810521
55	0x3e2235fe	0.15840909
56	0xbea5400c	-0.32275426
57	0x3f00ff53	0.50389594
58	0x3e93f1dd	0.28895465
59	0xbeb42fdf	-0.35192773
60	0x3ec36199	0.381604
61	0x3e5bbfa6	0.21459827
62	0xbec0e763	-0.37676534
63	0xbe5bb3c2	-0.21455291

bn3.running_var f4 [64]
0	0x3e026b3a	0.12736216
1	0x3dff489b	0.1246502
2	0x3e671493	0.22566442
3	0x3e0901a7	0.13379537
4	0x3dfa3930	0.12217939
5	0x3dd79afa	0.10527606
6	0x3e464f3c	0.19366163
7	0x3dfac853	0.1224524
8	0x3e1a9531	0.15095975
9	0x3e596295	0.21229012
10	0x3e230f20	0.15923738
11	0x3dfe456a	0.124155834
12	0x3e16aedd	0.14715143
13	0x3e43667c	0.19082063
14	0x3dfcfc83	0.1235285
15	0x3e87a24b	0.26491007
16	0x3d82561f	0.063640825
17	0x3e17a773	0.1480997
18	0x3e7af9db	0.24509375
19	0x3e2289b8	0.15872848
20	0x3df526aa	0.11970265
21	0x3e43b700	0.19112778
22	0x3df33cd5	0.11876837
23	0x3dcd0b28	0.100118935
24	0x3df7b841	0.120956905
25	0x3e0fff29	0.1406218
26	0x3e305e3f	0.17223452
27	0x3ea9a3aa	0.33132678
28	0x3f0171da	0.5056435
29	0x3e0dc9a6	0.13846454
30	0x3e07a3be	0.13246056
31	0x3e5a358a	0.21309486
32	0x3dcc0286	0.09961419
33	0x3e2097bf	0.15682887
34	0x3dab7172	0.08371247
35	0x3db8f76c	0.09031567
36	0x3e927295	0.28603044
37	0x3dbbdac3	0.09172585
38	0x3e4a87ef	0.19778417
39	0x3e161e50	0.14660001
40	0x3e6c0fea	0.23052946
41	0x3ddc2d54	0.10750833
42	0x3e087cf6	0.13328919
43	0x3de6a0ad	0.11261115
44	0x3e0dc6d8	0.13845384
45	0x3de03da3	0.10949256
46	0x3e2d96ba	0.16952029
47	0x3e303949	0.17209353
48	0x3e28a480	0.16469002
49	0x3db085c7	0.08619266
50	0x3e238caa	0.15971628
51	0x3e18fd14	0.14940292
52	0x3e0e86a9	0.13918556
53	0x3da953cd	0.08267937
54	0x3e3b26a2	0.18276456
55	0x3e11e1ee	0.14246342
56	0x3e6f8563	0.23390727
57	0x3e26fa8b	0.16306512
58	0x3dbae90b	0.09126481
59	0x3df85f9a	0.121276096
60	0x3e0cd000	0.1375122
61	0x3e377180	0.1791439
62	0x3de260d9	0.110536285
63	0x3dfcfe43	0.12353184

conv4.weight f4 [128, 64, 5]
0	0x3c304300	0.010758162
1	0x3cd16f63	0.025565809
2	0x3c5aaedd	0.013347355
3	0xbc9126f4	-0.01771877
4	0xbcf6f1ba	-0.030144561
5	0xbd5d4566	-0.05402126
6	0xbc442228	-0.011971034
7	0x3cb00385	0.021486053
8	0xbd4ccb7d	-0.04999875
9	0xbc0ef1d5	-0.008724649
10	0x3ce76c99	0.028250026
11	0xbcd5ae81	-0.026084187
12	0x3cbe81af	0.023255197
13	0x3d8caf04	0.06869319
14	0xbbe67212	-0.007032641
15	0xbb3f53ae	-0.0029194164
16	0x3d52cb09	0.05146316
17	0x3d836d1b	0.064172946
18	0xbd3f9411	-0.046772067
19	0x3cc12b3b	0.023580184
20	0xbb9d5078	-0.0048008524
21	0xbc060641	-0.008180202
22	0x3c9de1de	0.01927274
23	0x3c38e06e	0.011283977
24	0x3c9903b8	0.018678531
25	0xbcbe4eb3	-0.023230886
26	0x3ca1f2de	0.019769128
27	0xbc73516c	-0.014850955
28	0x3cb232ed	0.021752799
29	0x3c860501	0.016359808
30	0xbd0b9f10	-0.03408724
31	0x3d46aadc	0.048502788
32	0xbbc230e0	-0.0059262365
33	0xbced7e1a	-0.028990794
34	0x3c685a5f	0.014181702
35	0xbb7ed2d4	-0.0038882988
36	0x3ce32276	0.027726393
37	0x3d985c09	0.07439429
38	0xbcb1f2da	-0.021722246
39	0x3c20b49d	0.009808687
40	0xbcefef1b	-0.029288819
41	0x3cc10e9e	0.02356654
42	0x3c525707	0.012838132
43	0x3d08b507	0.033375766
44	0xbc9a09c2	-0.018803481
45	0xbd870161	-0.0659206
46	0x3d704da7	0.058667805
47	0x3d06f0a7	0.032944348
48	0x3b41f130	0.0029593222
49	0xbcac2a16	-0.021016162
50	0x3d576168	0.05258313
51	0xbcfef71a	-0.031123687
52	0xbd6e9554	-0.05824788
53	0xbce57038	-0.028007612
54	0xbd14c14e	-0.036317162
55	0xbcce6f34	-0.02519951
56	0xbc2fb1ba	-0.010723526
57	0x3ccb5de9	0.024825053
58	0x3c8e89e1	0.01739973
59	0xbd4a02b7	-0.049318995
60	0xbc80ea83	-0.015736824
61	0x3c45e819	0.012079262
62	0x3c29a535	0.01035433
63	0x3c8a0e52	0.016852532
64	0x3cc493ad	0.023996199
65	0xbd12aedd	-0.035811294
66	0x3cf84b82	0.030309442
67	0xbb9178d4	-0.0044394527
68	0xbcdae07f	-0.026718376
69	0xbccc40ff	-0.024933336
70	0xbce84a30	-0.028355688
71	0x3b82baf6	0.0039895726
72	0xbcc51a1c	-0.024060301
73	0xbd1ecd13	-0.038769793
74	0xbd44b065	-0.048019785
75	0x3d4d2122	0.050080426
76	0xbc324c73	-0.010882485
77	0x3cf39ba8	0.029737309
78	0x3cdb7565	0.026789377
79	0x3d40bc33	0.04705448
80	0x3be1fb2e	0.006896398
81	0xbd03600e	-0.032074027
82	0xbce1186a	-0.027477462
83	0xbc9c4368	-0.01907511
84	0xbc533714	-0.01289155
85	0xbc48b377	-0.012249819
86	0xbd4503ed	-0.048099447
87	0xbd24a419	-0.04019556
88	0x3d1356bc	0.03597139
89	0x3c4c1657	0.012456498
90	0x3ca0e091	0.019638332
91	0xbd433f57	-0.047667827
92	0x3be27d08	0.0069118775
93	0xbba5e59e	-0.005062773
94	0xbcb3ca96	-0.021947186
95	0x3d0e1b0d	0.034693766
96	0x3d372fe4	0.044723406
97	0xbcdca06b	-0.026931962
98	0x3d773409	0.06035236
99	0xbd145d33	-0.036221694
100	0xbd366d91	-0.044538084
101	0x3d57c88c	0.05268149
102	0xbd0103c3	-0.031497728
103	0x3d00f695	0.03148516
104	0xbd36163e	-0.044454806
105	0xbcb0d0d9	-0.021583961
106	0xbd0051e4	-0.031328097
107	0x3b20ed5e	0.0024555544
108	0x3d10ae77	0.035322633
109	0x3d4def0a	0.050276794
110	0xbb27eb27	-0.002562234
111	0xbcdc26b1	-0.026873918
112	0xbd38d2e2	-0.04512299
113	0x3caec911	0.02133611
114	0x3c9283ba	0.017885078
115	0x3a5a0aa9	0.00083176285
116	0x3d75ab15	0.05997761
117	0x3c8ecb09	0.0174308
118	0xbd1aa421	-0.03775418
119	0xbcc115b5	-0.023569921
120	0xbd467ac0	-0.048456907
121	0x3b9a61ae	0.0047113514
122	0xbd27f822	-0.041008122
123	0xbc3113ba	-0.010807926
124	0xbd5711c5	-0.05250718
125	0x3cd5c935	0.02609692
126	0x3cbad698	0.022807404
127	0xbc603eb1	-0.013686822
128	0x3d037cec	0.032101557
129	0x3c60213f	0.0136798015
130	0xbd13d2b8	-0.03608963
131	0xbd2a1f90	-0.041534007
132	0xbcd50ac8	-0.026006117
133	0xbc0880a9	-0.008331456
134	0xbd470088	-0.04858449
135	0xbb773c80	-0.003772527
136	0x3c717a10	0.014738575
137	0x3bfe1f28	0.007755179
138	0xbcd0605e	-0.025436576
139	0xbc71431e	-0.014725475
140	0x3c1138ef	0.008863672
141	0x3c15a266	0.009132957
142	0x3d1826af	0.037146267
143	0xbcb14611	-0.021639856
144	0xbb615817	-0.003438478
145	0xbd178d48	-0.03699997
146	0x3c4a84ba	0.012360746
147	0x3c1fe52a	0.009759227
148	0x3d1fb7db	0.038993698
149	0x3c7e109c	0.01550689
150	0x3d230ada	0.03980527
151	0x3d2e7deb	0.042600553
152	0x3c5186bc	0.012788471
153	0x3c0dab05	0.008646731
154	0xbceee94f	-0.029163985
155	0xbcddbbfe	-0.02706718
156	0xbd02a04d	-0.031891156
157	0xbd1e8d9b	-0.038709264
158	0xbc7e8ed1	-0.01553698
159	0xbcc8aafb	-0.024495592
160	0x3a2534c1	0.00063021114
161	0x3cbe3279	0.023217427
162	0x3d0dc1a1	0.034608487
163	0x3d13e17d	0.036103714
164	0x3d34fde8	0.044187456
165	0x3cb5d3ea	0.022195775
166	0xbd0f4cea	-0.03498546
167	0x3b71320c	0.0036803512
168	0x3d1e5dcf	0.03866368
169	0xbd25df82	-0.040496357
170	0x3d3d4455	0.046207745
171	0x3c9443c8	0.018098727
172	0xbb460ea1	-0.0030221122
173	0x3b45e42b	0.0030195813
174	0x3ccb9f96	0.02485637
175	0x3a8755fd	0.0010325309
176	0xbc86ec00	-0.016469955
177	0xbd2f78de	-0.042839877
178	0x3b72e5e3	0.0037063293
179	0x3cec25e6	0.028826665
180	0x3d35c669	0.04437867
181	0xbd14f51c	-0.036366567
182	0xbcf77370	-0.030206412
183	0x3c3cba9c	0.0115191005
184	0x3c34fa3e	0.0110459905
185	0x3b2a3c59	0.0025975911
186	0xbcfe3136	-0.031029325
187	0x3d8b9fc0	0.06817579
188	0xbd654b78	-0.055980176
189	0xbd0abf0a	-0.033873595
190	0xbd2fcbd1	-0.042918984
191	0x3c1fa105	0.00974298
192	0x3d031e8c	0.032011554
193	0xbc8f543b	-0.017496219
194	0xbd2d4f66	-0.04231205
195	0x38c2121d	9.254015e-05
196	0x3d37c831	0.04486865
197	0x3d138cf7	0.036023106
198	0xbcb8d570	-0.022562712
199	0x3ba418e6	0.005007851
200	0xbd5fa994	-0.05460508
201	0xbd359b46	-0.044337533
202	0xbb8aa955	-0.0042316117
203	0xbd4ca01c	-0.04995738
204	0xbd1c4a9a	-0.038157083
205	0xbd169434	-0.03676243
206	0xbd36ca18	-0.044626325
207	0xbd38e25f	-0.04513776
208	0xbcf8aa0e	-0.030354526
209	0x3cea3a17	0.028592153
210	0xbcbffdcf	-0.023436455
211	0xbc8ce27b	-0.017197838
212	0x3cd904b7	0.026491506
213	0x3d2fe561	0.042943362
214	0xbb5e7950	-0.003394682
215	0xbc94aae8	-0.0181479
216	0x3d4cfa8b	0.050043624
217	0xbd232f34	-0.03983994
218	0x3d52083d	0.051277388
219	0xbca4bc73	-0.02010939
220	0xbd28e91d	-0.04123794
221	0x3c9b8c76	0.018987875
222	0xbcfe9ac1	-0.031079652
223	0xbc1abda4	-0.009444628
224	0x3d1a14e9	0.037617598
225	0x3d7680f8	0.060181588
226	0x3c3b6d41	0.011439622
227	0xbbffabad	-0.007802448
228	0xbbc414cb	-0.005983924
229	0x3bfe458f	0.007759757
230	0xbc9845ca	-0.018587966
231	0x3cbec11f	0.023285447
232	0x3d22d37f	0.03975248
233	0xbd009103	-0.031388294
234	0xbcc7f736	-0.024409872
235	0x3b54e1a6	0.003248313
236	0xbd0584d4	-0.032597378
237	0xbc924a13	-0.017857587
238	0x3cb946c4	0.022616751
239	0xbd192e5c	-0.037397727
240	0xbc998ad1	-0.01874295
241	0xbcd2c1fb	-0.025727263
242	0x3cddd39e	0.027078446
243	0x3d08f54a	0.03343705
244	0xbc9ecee6	-0.019385766
245	0xbd2e187c	-0.04250382
246	0xbce9d12d	-0.028542126
247	0x3cc1be4e	0.023650315
248	0x3ca57a7e	0.02020001
249	0xbc843433	-0.016138172
250	0x3d34af64	0.044112578
251	0xbc7ec621	-0.015550167
252	0xbcca022c	-0.024659239
253	0xbcf04236	-0.029328447
254	0x3d466c6c	0.048443243
255	0x3d05853b	0.03259776

conv4.bias f4 [128]
0	0xbd28304e	-0.041061692
1	0xbcbfd461	-0.0234167
2	0xbc7b7624	-0.015347991
3	0xbcc8525f	-0.02445334
4	0xbc0005b8	-0.007813863
5	0xbd03a2f6	-0.032137834
6	0xbca5593c	-0.020184152
7	0xbb62f34c	-0.003462988
8	0x3b2ae01b	0.0026073519
9	0x3b398386	0.0028307154
10	0xbd3e5a48	-0.046472818
11	0x3c53c3a9	0.012925067
12	0xbccf031f	-0.025270043
13	0x3d587b27	0.052851822
14	0xbc0e5965	-0.0086883055
15	0xbd69f277	-0.057115998
16	0xbd3902fb	-0.045168858
17	0xbd5a8c0b	-0.05335621
18	0x3cceca48	0.02524294
19	0xbd0c960f	-0.034322795
20	0x3d141e4c	0.036161706
21	0xbc463825	-0.012098347
22	0x3cc2a596	0.023760598
23	0xbcacd7f3	-0.021099066
24	0x3c53e264	0.012932394
25	0xb9b92ab9	-0.0003531778
26	0xbc9d68bf	-0.019214986
27	0xbca5fe24	-0.020262785
28	0xbd0b5383	-0.03401519
29	0x3d225f9b	0.039641958
30	0x3d420670	0.04736942
31	0x3c206c91	0.009791509
32	0xbd472ff2	-0.04862971
33	0xbc9944fb	-0.01870965
34	0xbd0eb343	-0.034838926
35	0x3c700d1b	0.014651562
36	0x3baa7e74	0.0052030627
37	0xbccf5a65	-0.025311658
38	0xbca90412	-0.020631824
39	0xbd1e2d80	-0.03861761
40	0xbd2d2b6a	-0.04227773
41	0xbc73515a	-0.014850939
42	0xbd100b04	-0.035166755
43	0xbc455f95	-0.012046714
44	0xbd3377cf	-0.04381543
45	0xbd2651b4	-0.040605262
46	0xbb2d2fe2	-0.0026426245
47	0xbc691840	-0.014226973
48	0x3c76fc94	0.015074868
49	0x3d5fda0b	0.0546513
50	0x3d2ed080	0.04267931
51	0x3cb2f85d	0.021846944
52	0x3c1fa7fa	0.009744639
53	0xbb625ca2	-0.0034540077
54	0xbc838e00	-0.016058922
55	0x3cd4d0f4	0.025978543
56	0x3c3c1cf4	0.011481512
57	0xbd0af790	-0.0339275
58	0xbd3637c5	-0.04448678
59	0x3cf7262d	0.03016957
60	0xba01ba55	-0.0004948725
61	0x3d190af3	0.037363958
62	0x3c7d2b7a	0.01545226
63	0xbd14d006	-0.0363312
64	0xbcaad8da	-0.020855356
65	0x3c7b709b	0.015346671
66	0xbc5ef494	-0.013608117
67	0xbb7eaa8c	-0.0038858978
68	0xbc84a81c	-0.016193442
69	0xbd545f9b	-0.05184899
70	0xbd281dae	-0.04104393
71	0x3ccc6a08	0.024952903
72	0xbc2b785d	-0.010465709
73	0x3d14e39d	0.03634988
74	0xbc98bcff	-0.018644808
75	0x3d277ed3	0.040892433
76	0xbd29e50b	-0.041478198
77	0xbca87d2c	-0.0205675
78	0xbd5f6bb6	-0.05454608
79	0x3ba3a19a	0.0049936296
80	0x3d2c7173	0.04210038
81	0xbcf3d1a9	-0.02976306
82	0xbd318fda	-0.04335008
83	0xbd268f2c	-0.040663883
84	0xbd01c330	-0.031680286
85	0x3d5f06d8	0.054449886
86	0x3cc34c23	0.023840016
87	0x3b8e4619	0.0043418524
88	0xbd30d2b8	-0.043169707
89	0x3d51878b	0.051154654
90	0xbbad68f7	-0.005292054
91	0x3c66a506	0.014077431
92	0xbd428b8b	-0.04749636
93	0x3c3f9f76	0.011695733
94	0x3c0e3904	0.008680586
95	0xbb642d44	-0.003481702
96	0xbd36ac3c	-0.04459785
97	0x3cce52f6	0.025186043
98	0xbd1c7037	-0.038192954
99	0xbd393de6	-0.045225047
100	0x3cdf4399	0.027253913
101	0xbc87e7d0	-0.016590029
102	0xbd561c06	-0.05227282
103	0xbcaf43e1	-0.021394672
104	0x3cc2dc3b	0.023786655
105	0x3cf62270	0.030045718
106	0x3c85a9a4	0.016316243
107	0xbcc6a333	-0.024247741
108	0xbd02d7ce	-0.03194409
109	0xbd2fd39e	-0.042926423
110	0x3cf62b21	0.030049862
111	0xbccde314	-0.025132693
112	0x3d133487	0.035938766
113	0xbbaf749e	-0.005354478
114	0xbcb89c95	-0.022535602
115	0x3c7d3752	0.015455084
116	0x3d227b09	0.039668117
117	0xbcb6e45c	-0.022325687
118	0x3c33e737	0.010980419
119	0x3c08581e	0.00832179
120	0xbd3fba28	-0.04680839
121	0xbd34fa19	-0.044183824
122	0x3ce4fa80	0.027951479
123	0x3d27ddf0	0.04098314
124	0xbd538d67	-0.051648524
125	0x3d61eb28	0.055155903
126	0x3c3d1eb8	0.011542968
127	0x3d21cfe3	0.039504897

bn4.weight f4 [128]
0	0x3f8272c5	1.0191275
1	0x3f82e963	1.0227474
2	0x3f82f8c6	1.023217
3	0x3f825d71	1.0184766
4	0x3f83a004	1.0283208
5	0x3f81d098	1.0141783
6	0x3f821110	1.0161457
7	0x3f842542	1.032387
8	0x3f83d421	1.0299112
9	0x3f845996	1.033984
10	0x3f83d515	1.0299402
11	0x3f831c57	1.0243024
12	0x3f815c60	1.0106316
13	0x3f8410d1	1.0317632
14	0x3f837a71	1.0271741
15	0x3f83bd91	1.0292226
16	0x3f8478c8	1.034936
17	0x3f835787	1.0261086
18	0x3f835a2e	1.0261896
19	0x3f83ce6a	1.0297368
20	0x3f84fc0c	1.0389419
21	0x3f837023	1.0268596
22	0x3f84e071	1.0380994
23	0x3f82e1e8	1.0225191
24	0x3f82d399	1.0220824
25	0x3f844355	1.0333048
26	0x3f8501fc	1.039123
27	0x3f82d8aa	1.0222371
28	0x3f85c49d	1.0450627
29	0x3f842017	1.0322293
30	0x3f861e7a	1.0478051
31	0x3f83b365	1.0289122
32	0x3f84b806	1.036866
33	0x3f844690	1.0334034
34	0x3f851e71	1.0399915
35	0x3f83ab4b	1.028665
36	0x3f8485a8	1.0353289
37	0x3f823c3c	1.0174632
38	0x3f86162e	1.0475519
39	0x3f825d84	1.0184789
40	0x3f839bf2	1.0281966
41	0x3f83e1d0	1.0303288
42	0x3f834dd3	1.0258125
43	0x3f83e71c	1.0304904
44	0x3f8410b1	1.0317594
45	0x3f85ecd9	1.0462905
46	0x3f83ed61	1.0306817
47	0x3f8366f5	1.0265795
48	0x3f81ea8a	1.0149701
49	0x3f829f44	1.0204854
50	0x3f84e3af	1.0381984
51	0x3f83d615	1.0299708
52	0x3f8437f4	1.0329576
53	0x3f8452d8	1.0337782
54	0x3f82d58d	1.022142
55	0x3f82bb7e	1.0213468
56	0x3f827997	1.0193356
57	0x3f83a386	1.0284278
58	0x3f83909e	1.0278509
59	0x3f8503e3	1.0391811
60	0x3f863a9e	1.0486639
61	0x3f839ae6	1.0281646
62	0x3f82f16a	1.0229924
63	0x3f84fba0	1.038929
64	0x3f834fe9	1.0258762
65	0x3f822db1	1.0170194
66	0x3f830c81	1.0238191
67	0x3f829ef8	1.0204763
68	0x3f843692	1.0329154
69	0x3f839fd4	1.0283151
70	0x3f84417a	1.0332482
71	0x3f8291b1	1.0200711
72	0x3f841e6b	1.0321783
73	0x3f82a1bd	1.0205609
74	0x3f82b615	1.0211817
75	0x3f82e988	1.0227518
76	0x3f860257	1.0469464
77	0x3f85310f	1.0405596
78	0x3f84402c	1.0332084
79	0x3f831499	1.0240661
80	0x3f82c79f	1.021717
81	0x3f84c357	1.0372113
82	0x3f8214f9	1.016265
83	0x3f85d74a	1.0456326
84	0x3f835781	1.0261079
85	0x3f855fff	1.0419921
86	0x3f840e6b	1.03169
87	0x3f836627	1.026555
88	0x3f82575b	1.0182909
89	0x3f829d85	1.0204321
90	0x3f84f98b	1.0388654
91	0x3f85866a	1.0431645
92	0x3f834520	1.025547
93	0x3f83e062	1.0302851
94	0x3f840796	1.0314815
95	0x3f82d306	1.0220649
96	0x3f829ed2	1.0204718
97	0x3f84b162	1.0366633
98	0x3f83f98e	1.0310533
99	0x3f831a7c	1.0242457
100	0x3f82b513	1.021151
101	0x3f829388	1.0201273
102	0x3f84d061	1.0376092
103	0x3f838b13	1.0276817
104	0x3f830975	1.0237261
105	0x3f83292e	1.0246942
106	0x3f84f81c	1.0388217
107	0x3f839e0c	1.0282607
108	0x3f85137b	1.039657
109	0x3f82b826	1.0212448
110	0x3f8326e3	1.0246242
111	0x3f82afa2	1.0209849
112	0x3f82915b	1.0200609
113	0x3f8522fe	1.0401304
114	0x3f849620	1.0358315
115	0x3f826f58	1.019023
116	0x3f82d567	1.0221375
117	0x3f82726e	1.0191171
118	0x3f8535b8	1.0407019
119	0x3f846398	1.0342894
120	0x3f826cd3	1.018946
121	0x3f833d01	1.0252992
122	0x3f8280ae	1.019552
123	0x3f84ce5d	1.0375477
124	0x3f82b2d1	1.021082
125	0x3f8474fb	1.03482
126	0x3f836b5a	1.0267136
127	0x3f83f004	1.0307622
