core/pretrained_nets/trts_classifier_te.ckpt (torch, 642990 bytes, 28 tensors)

conv1.weight f4 [16, 3, 5]
0	0x3d94e151	0.07269538
1	0xbdd3d21b	-0.10342809
2	0x3df43477	0.119240694
3	0xbb9f8182	-0.0048677335
4	0xbd2cf03b	-0.04222129
5	0xbe3b9a0a	-0.1832048
6	0x3e70cd0b	0.23515718
7	0x3e5764d2	0.21034554
8	0xbdde81fe	-0.10864638
9	0xbdfa7202	-0.122287765
10	0x3dbbb776	0.09165852
11	0x3d010d1e	0.03150665
12	0x3d9e790d	0.07737932
13	0x3e7949a6	0.24344501
14	0xbc06d0eb	-0.008228521
15	0x3d99439a	0.07483597
16	0x3e63fb84	0.22263914
17	0x3cc6f376	0.024286013
18	0x3e568844	0.20950419
19	0x3e1e8a58	0.15482461
20	0x3d2514fc	0.040303215
21	0x3e4eb0c6	0.20184621
22	0x3e79a209	0.24378218
23	0xbe0e7a18	-0.13913763
24	0x3cea2b11	0.028584989
25	0x3e65d5de	0.22444865
26	0x3e376a98	0.17911756
27	0xbdb445b5	-0.08802358
28	0x3e288a2a	0.16458955
29	0x3e27ba70	0.16379714
30	0x3d09264f	0.0334838
31	0x37db1217	2.6115258e-05
32	0x3e8279ef	0.25483653
33	0xbe53260e	-0.20619985
34	0x3e4bbf0b	0.19897096
35	0x3dd0457d	0.10169504
36	0x3e6424f8	0.22279727
37	0x3e1b8dda	0.15190831
38	0x3c5a05c9	0.013307043
39	0xbe31c0ba	-0.17358676
40	0x3d377f62	0.044799216
41	0xbda5bc1b	-0.08092519
42	0xbe1a4ca1	-0.15068294
43	0x3dd838ad	0.10557685
44	0xbe635527	-0.22200452
45	0x3e4287d2	0.18997124
46	0x3c078d5e	0.008273451
47	0xbe22ce34	-0.15898973
48	0xbdc9eafa	-0.09859271
49	0x3e4fc9fd	0.20291896
50	0xbcbc4c67	-0.02298565
51	0x3d407e38	0.04699537
52	0x3ddbdcf1	0.107355006
53	0xbe4648fe	-0.19363782
54	0x3df509cf	0.119647615
55	0xbdfd9a95	-0.12383
56	0x3e139ec5	0.14416035
57	0xbd64dcad	-0.055874515
58	0xbe08f60a	-0.13375106
59	0xbe1af6c3	-0.15133195
60	0xbd433cde	-0.04766547
61	0xbe16b3ea	-0.1471707
62	0x3c77c5bd	0.015122828
63	0xbe7ee285	-0.24891098
64	0xbe18461b	-0.14870493
65	0xbd83d2cd	-0.064366914
66	0x3d40a95f	0.047036525
67	0x3e18c1ff	0.14917754
68	0xbe5fae7c	-0.21843904
69	0xbd29c745	-0.041449804
70	0xbe7f2243	-0.24915414
71	0xbc573bf8	-0.013136856
72	0xbe3591f8	-0.17731464
73	0xbe2fe445	-0.17176922
74	0x3dfde2ae	0.12396751
75	0x3de46e49	0.11153848
76	0xbc9156ee	-0.017741647
77	0x3ded73ef	0.11594378
78	0x3e57687b	0.2103595
79	0xbda4935d	-0.0803592
80	0xbe6e1d09	-0.23253264
81	0xbda747ec	-0.08168015
82	0x3e7229f2	0.23648813
83	0xbdaa408a	-0.08313091
84	0x3db1d2fe	0.08682822
85	0x3c8393f2	0.016061757
86	0xbe6d21c9	-0.2315742
87	0xbb51262a	-0.0031913617
88	0xbdc9fcce	-0.09862672
89	0x3ddc9a76	0.107716486
90	0x3e2d0863	0.1689773
91	0x3e2b221c	0.1671223
92	0xbe5a1867	-0.21298371
93	0xbe7750fd	-0.24151988
94	0xbdf6fac2	-0.12059547
95	0x3e69bb2e	0.2282531
96	0xbe0cfae0	-0.13767576
97	0xbe815891	-0.25262883
98	0x3de143e2	0.10999276
99	0xbe529d2c	-0.20567769
100	0xbc70a145	-0.014686887
101	0x3de881d7	0.1135289
102	0x3d7a5b7d	0.061122406
103	0x3d5fb45f	0.054615375
104	0x3e85cdeb	0.26133665
105	0x3e0b8631	0.13625409
106	0xbe0075f3	-0.12544994
107	0xbe3c73d4	-0.1840356
108	0x3d449b2d	0.04799955
109	0xbe0cb2dd	-0.13740106
110	0xbe40a1a5	-0.18811662
111	0xbd9a2a41	-0.075275905
112	0x3c6cee90	0.014461175
113	0x3c590a21	0.013247044
114	0x3df208e2	0.118181005
115	0xbe7723bc	-0.24134725
116	0xbe843f18	-0.25829387
117	0x3e124636	0.14284596
118	0xbc53338a	-0.012890706
119	0x3cd048c9	0.025425332
120	0xbe7b26b7	-0.24526487
121	0x3dbfa0e1	0.09356857
122	0xbe426e33	-0.1898735
123	0xbd821fc9	-0.06353719
124	0x3ddebd8e	0.108759984
125	0xbe0ceb6d	-0.13761683
126	0x3cc25560	0.02372235
127	0xbcb5e003	-0.022201544
128	0x3c5adbeb	0.013358097
129	0x3e31cd7f	0.17363547
130	0x3e3fa0a7	0.18713628
131	0xbe2a63cd	-0.16639633
132	0xbe3a877f	-0.1821575
133	0xbe3dd58e	-0.18538496
134	0xbc980063	-0.018554872
135	0xbe506d03	-0.20354085
136	0x3e202fb5	0.15643199
137	0xbd2f239c	-0.04275857
138	0x3e73e751	0.23818709
139	0x3e268dfb	0.16265099
140	0x3c97a3ce	0.018510725
141	0x3d646154	0.05575688
142	0x3e80981c	0.2511605
143	0x3dfd3689	0.123639174
144	0x3e14cd1a	0.14531365
145	0xbd9ee933	-0.07759323
146	0x3e1e628e	0.15467283
147	0x3e760b69	0.2402779
148	0xbcf3ed1b	-0.029776147
149	0xbe6f976a	-0.23397604
150	0x3de3abc2	0.111167446
151	0xbde3e93f	-0.111284725
152	0xbe489a93	-0.19590215
153	0x3e4e4b5b	0.20145933
154	0x3e11c99e	0.14237067
155	0x3c38acb7	0.011271647
156	0xbe114142	-0.1418505
157	0x3e27e89f	0.16397332
158	0xbd835d20	-0.064142466
159	0x3e4767ae	0.19473144
160	0x3e269362	0.1626716
161	0xbdcfd472	-0.101479426
162	0x3e68f108	0.22748196
163	0x3e75b944	0.23996454
164	0xbcbdaac7	-0.023152722
165	0x3e84080b	0.25787386
166	0xbe6ee795	-0.23330529
167	0x3dd0b927	0.10191565
168	0xbe0c4ba2	-0.13700727
169	0xbe138cab	-0.1440913
170	0xbe5c8ecf	-0.21538852
171	0xbdf19fd3	-0.11798062
172	0xbe1ebad3	-0.15500955
173	0xbe4313c6	-0.19050512
174	0x3e6d0b62	0.23148873
175	0xbe1724a9	-0.14760078
176	0xbb90ce40	-0.004419118
177	0xbdff453f	-0.124643795
178	0x3e83ecdd	0.2576665
179	0xbe329d3a	-0.1744279
180	0xbd632c83	-0.05546237
181	0x3db33ac3	0.08751442
182	0x3e3bff47	0.183591
183	0x3e0789cb	0.13236158
184	0x3e1e036b	0.15430991
185	0x3e607251	0.21918608
186	0xbdca32d8	-0.09872979
187	0xbe06ab4d	-0.13151284
188	0xbe6555ae	-0.22395965
189	0xbe2566fb	-0.16152565
190	0x3de3540b	0.11100014
191	0xbd760f44	-0.060073152
192	0xbe0b026b	-0.13575141
193	0x3e87617d	0.26441565
194	0xbd498f81	-0.04920912
195	0x3ce4db8b	0.027936717
196	0xbaf381fe	-0.0018578169
197	0x3ded947f	0.11600589
198	0x3e898139	0.26856402
199	0x3e8851a6	0.26624793
200	0x3e190ce3	0.14946322
201	0x3e64b6c8	0.2233535
202	0x3d3b880d	0.045784045
203	0xbdd855f4	-0.10563269
204	0x3dbe9062	0.093048826
205	0x3d03beaf	0.032164272
206	0x3d3cfe66	0.04614105
207	0xbdd759e2	-0.10515191
208	0x3e43dcde	0.19127223
209	0xbd6e85dd	-0.05823313
210	0x3e7d0348	0.24708283
211	0x3d5eb2a8	0.0543696
212	0x3e3dae88	0.1852361
213	0x3d93d033	0.07217445
214	0xbe649468	-0.22322237
215	0x3d1cda00	0.03829384
216	0xbe5bd7a7	-0.21468984
217	0xbe082697	-0.13295971
218	0xbd7a9d67	-0.061185267
219	0x3e04e36e	0.12977383
220	0xbe691f97	-0.22765957
221	0x3e5b78ee	0.2143285
222	0xbe6cebd6	-0.2313684
223	0x3e2b7468	0.16743624
224	0x3e18cb4e	0.14921305
225	0xbe412f1d	-0.18865629
226	0x3e433e8d	0.1906683
227	0x3d55ae9e	0.05216848
228	0xbc4584a8	-0.0120555535
229	0xbe3a1b05	-0.1817437
230	0xbe14ea7a	-0.1454257
231	0x3e6b6447	0.22987472
232	0x3dfa5cbb	0.12224718
233	0xbd44c1ef	-0.048036512
234	0xbd20e240	-0.03927827
235	0x3e7a2b3f	0.2443056
236	0x3e66ee94	0.22551948
237	0xbe73ecbf	-0.2382078
238	0xbe626b6f	-0.22111295
239	0x3dab0306	0.08350186

conv1.bias f4 [16]
0	0x3dd09424	0.101845056
1	0xbe51be5e	-0.20482776
2	0xbc381f32	-0.011237906
3	0xbe127872	-0.14303759
4	0xbcd1f30d	-0.025628591
5	0xbe1ef6f9	-0.155239
6	0xbe7229fe	-0.23648831
7	0x3d4fb4ae	0.05070942
8	0xbe400efa	-0.18755713
9	0xbe3c8c16	-0.18412814
10	0xbddfe1e5	-0.10931758
11	0x3e06af4e	0.13152811
12	0xbda3241c	-0.07965872
13	0x3e4c4c30	0.19950938
14	0x3e0acf3b	0.13555615
15	0x3e1b3a59	0.15158977

bn1.weight f4 [16]
0	0x3f82a47f	1.020645
1	0x3f7f85bd	0.99813443
2	0x3f7fc3c2	0.9990808
3	0x3f804c5d	1.0023304
4	0x3f7df955	0.99208575
5	0x3f7d89f4	0.99038625
6	0x3f80c797	1.006091
7	0x3f7ff696	0.99985635
8	0x3f7e5039	0.9934116
9	0x3f80d183	1.0063938
10	0x3f816960	1.0110283
11	0x3f7cf758	0.98814917
12	0x3f8035aa	1.0016377
13	0x3f8043ff	1.0020751
14	0x3f7dcad8	0.9913764
15	0x3f7c8416	0.9863905

bn1.bias f4 [16]
0	0x3d397412	0.04527671
1	0x3cc7b8c8	0.024380103
2	0x3cb1c7ae	0.02170166
3	0x3af42ea4	0.0018629623
4	0x3c4d6ef7	0.012538663
5	0x3c7fed07	0.015620477
6	0x3ca1233d	0.019670123
7	0x3c07ba7f	0.00828421
8	0x3cfcfa2c	0.03088101
9	0x3ce03eaa	0.02737363
10	0x3c6b18f9	0.014349216
11	0xbc895b31	-0.016767116
12	0x3b7d36ca	0.0038637393
13	0x3ce48377	0.027894719
14	0x3c0facdd	0.008769241
15	0xbc099f14	-0.008399744

bn1.running_mean f4 [16]
0	0x3eb7fbb4	0.35934222
1	0x3f48f258	0.7849479
2	0x3e513deb	0.20433776
3	0xbe2af620	-0.16695452
4	0xbf3d479d	-0.739374
5	0xbd3ada62	-0.045618422
6	0xbe9fc97c	-0.31208408
7	0xbeb9797d	-0.362255
8	0xbf0df054	-0.55444837
9	0x3ebaad64	0.36460412
10	0x3ea3d95f	0.32001778
11	0xbe974f03	-0.2955247
12	0x3e176b07	0.14786921
13	0x3f709c57	0.93988556
14	0x3e960ed9	0.29308203
15	0x3e1fd2f2	0.15607813

bn1.running_var f4 [16]
0	0x3ae52e18	0.001748505
1	0x3c4a874b	0.012361358
2	0x3b34de58	0.0027598348
3	0x3add131c	0.0016866657
4	0x3c05a717	0.008157513
5	0x3b4facda	0.003168872
6	0x3bf01c2a	0.007327576
7	0x3b71e748	0.0036911536
8	0x3b9bcb94	0.004754493
9	0x3baa3a30	0.005194925
10	0x3b74bbb5	0.0037343327
11	0x3b6954f8	0.0035603624
12	0x3bc6672c	0.0060547795
13	0x3c2ba046	0.010475224
14	0x3bb0d790	0.005396791
15	0x3b4646c9	0.0030254594

conv2.weight f4 [32, 16, 5]
0	0x3d7758b8	0.060387343
1	0xbc800983	-0.015629536
2	0x3dd9f84c	0.10643062
3	0xbc9d715f	-0.019219099
4	0x3d2c9650	0.042135537
5	0x3d4271a2	0.04747165
6	0x3cf4fed6	0.029906671
7	0x3d1948d9	0.03742299
8	0xbda45a0f	-0.0802499
9	0xbde6f23d	-0.11276672
10	0x3d4adfb4	0.049529746
11	0x3cc99ebb	0.024611821
12	0x3c675a01	0.01412058
13	0x3d4845e2	0.04889477
14	0x3b64e573	0.0034926801
15	0xbd8cfc42	-0.06884052
16	0xbd8aa746	-0.06770186
17	0xbc2b3c04	-0.010451321
18	0xbd03016f	-0.03198379
19	0xbbbeeba8	-0.0058264323
20	0xbafdedb3	-0.0019373208
21	0xbd7c967f	-0.06166696
22	0xbd2269ce	-0.039651684
23	0xbd6f66c2	-0.058447607
24	0xbc01de78	-0.007926576
25	0xbde393ea	-0.11112197
26	0x3d4befe8	0.04978934
27	0xbd399558	-0.04530844
28	0xbdab498c	-0.08363637
29	0x3d5f6764	0.05454196
30	0xbd915470	-0.07096183
31	0x3d438593	0.04773481
32	0xbc1b8b97	-0.00949373
33	0x3d2559be	0.040368788
34	0xbdd3ab5c	-0.103354186
35	0x3d8e21a0	0.06940007
36	0x3bafa547	0.0053602788
37	0xbd82ce45	-0.06386999
38	0x3dae51a2	0.08511664
39	0x3c91dc8b	0.017805358
40	0xbc4ac4a4	-0.012375984
41	0xbd914a21	-0.07094217
42	0xbd8927c7	-0.0669704
43	0x3cd70b7c	0.026250593
44	0xbbd8a60d	-0.0066115917
45	0x3d146240	0.03622651
46	0x3cdf86a0	0.027285874
47	0xbc02ad3d	-0.007975874
48	0x3dd5b0f9	0.104341455
49	0xbc701a12	-0.014654653
50	0xbd1cfa5b	-0.038324695
51	0x3d8da16e	0.06915556
52	0x3db6ca5b	0.08925315
53	0x3d85f328	0.06540519
54	0xbd29cdc0	-0.041455984
55	0xbd38017f	-0.0449233
56	0xbd95d586	-0.07316117
57	0x3b776d74	0.0037754448
58	0x3d3e391f	0.046441194
59	0xbdab379f	-0.08360218
60	0xbd6e3f26	-0.05816569
61	0xbd92d387	-0.07169252
62	0xbcdce67b	-0.02696537
63	0xbd8a778c	-0.06761083
64	0xbdd01f20	-0.101621866
65	0x3ca23750	0.019801766
66	0x3dad0470	0.08448112
67	0x3d4075cc	0.04698734
68	0xbc4ebffb	-0.012619014
69	0x3d83f757	0.06443661
70	0xbda6d593	-0.08146205
71	0x3d93adf1	0.07210911
72	0xbd1138c9	-0.035454545
73	0x3d1cc796	0.038276277
74	0xbd004d1b	-0.031323534
75	0x3cac4bfb	0.021032324
76	0xbbb113ab	-0.005403956
77	0x3d43a4ca	0.047764577
78	0x3cff95b7	0.03119932
79	0x3c70f2df	0.0147063425
80	0x3c930441	0.017946364
81	0xbcab3e9f	-0.020903884
82	0x3d78dfde	0.06076037
83	0xbd96c74c	-0.073622316
84	0x3d1c649d	0.03818189
85	0xbc0e54de	-0.008687226
86	0xbb36b6ae	-0.0027879882
87	0xbdc47b8f	-0.095938794
88	0x3d82cf65	0.063872136
89	0x3d9ef636	0.07761805
90	0x3d9742b2	0.07385768
91	0xbda8826d	-0.08228002
92	0x3cb48ea7	0.022040678
93	0xbdb58dc7	-0.088649325
94	0x3da745b9	0.081675954
95	0xbd9c9440	-0.07645464
96	0xbd965978	-0.073412836
97	0xbd71f906	-0.059075378
98	0xbdebed99	-0.115199275
99	0xbdad7a97	-0.08470648
100	0xbdd108e6	-0.10206775
101	0xbd2735e1	-0.040822867
102	0x3d87caaf	0.06630456
103	0xbd024150	-0.031800568
104	0x3cf501b1	0.029908033
105	0xbd4e8981	-0.050424103
106	0xbd174dfe	-0.036939614
107	0xbdc49218	-0.09598178
108	0x3d25dc0f	0.040493067
109	0xbd635a21	-0.055505875
110	0x3cbd463a	0.023104776
111	0xbc29a660	-0.010354608
112	0x3d168456	0.0367473
113	0x3c2f389f	0.010694652
114	0xbd4073f9	-0.0469856
115	0x3db0b35e	0.086279616
116	0xbd5bf8b0	-0.053703964
117	0xbd469932	-0.048485942
118	0xbcfaae4d	-0.030600691
119	0xbde94d2b	-0.11391672
120	0xbc30eb65	-0.01079831
121	0x3d8bfe77	0.06835645
122	0xbd05be97	-0.032652464
123	0x3dbb4e35	0.09145776
124	0x3d83cd52	0.06435646
125	0x3cd8388a	0.026394147
126	0xbd65b081	-0.05607653
127	0x3cbb6bc7	0.02287854
128	0xbdca84b8	-0.09888595
129	0x3c920c49	0.017828124
130	0x3d9fad8c	0.07796773
131	0x3d1edaed	0.038783003
132	0xbdc485f5	-0.09595863
133	0xbca17453	-0.019708788
134	0xbc45ebe4	-0.0120801665
135	0x3c2d86f2	0.0105912555
136	0x3d86e209	0.065860815
137	0xbdfa889a	-0.12233086
138	0x3d9ebf97	0.077513866
139	0x3dab3d3a	0.083612874
140	0xbd4f8e10	-0.05067259
141	0x3d836258	0.06415242
142	0xbdb2b32b	-0.0872558
143	0xbdaed0a6	-0.0853589
144	0xbddde330	-0.10834348
145	0x3d8c4546	0.0684915
146	0xbdc2e061	-0.09515453
147	0xbcda701e	-0.02666479
148	0xbd83c3a6	-0.06433801
149	0xbd80159f	-0.06254124
150	0xbd4f7ea4	-0.050657883
151	0xbd5e597a	-0.05428455
152	0xbdd15d7d	-0.102229096
153	0x3db24dd7	0.08706253
154	0x3bb39427	0.0054803076
155	0x3db8c310	0.0902158
156	0x3d76b535	0.060231406
157	0xbdb2067f	-0.08692645
158	0xbc0fabd6	-0.008768996
159	0x3ca3f377	0.020013554
160	0xbd3dc62d	-0.046331573
161	0xbdb16e1d	-0.086635806
162	0x3de48f36	0.11160128
163	0xbd212033	-0.03933735
164	0x3d3b340f	0.045703944
165	0xbca8b529	-0.020594196
166	0xbda1aa43	-0.07893803
167	0xb9e3927e	-0.0004340596
168	0x3dec8448	0.11548668
169	0xbdc6682d	-0.09687839
170	0xbdc58313	-0.09644141
171	0xbcd28f7c	-0.025703184
172	0xbd863936	-0.06553881
173	0x3ca76361	0.02043313
174	0x3d074a0a	0.033029594
175	0x3d3fed63	0.04685725
176	0x3dbe4715	0.092909016
177	0x3d5c1db7	0.053739276
178	0x3d69c200	0.05706978
179	0xbd6b9949	-0.05751923
180	0x3dc66dea	0.09688933
181	0xbdb8755a	-0.09006758
182	0xbc8e24c3	-0.017351514
183	0xbcb6f37d	-0.022332901
184	0xbd0ad114	-0.0338908
185	0xbd9367d2	-0.071975365
186	0xbd5802fc	-0.05273722
187	0xbd72be08	-0.05926326
188	0x3dbfa175	0.09356967
189	0x3ddc8290	0.1076709
190	0xbd562ba6	-0.05228772
191	0xbd02cb8d	-0.031932402
192	0x3d27a1ef	0.040925916
193	0x3d966f92	0.07345499
194	0xbd8b7b44	-0.068106204
195	0xbcf5dd95	-0.030012885
196	0xbd472497	-0.04861888
197	0x3dd2c599	0.10291595
198	0xbdd6b6aa	-0.10484059
199	0xbdb20428	-0.08692199
200	0xbdddf205	-0.10837177
201	0xbdb8a4ef	-0.090158336
202	0x3d182ff0	0.03715509
203	0xbd94e197	-0.0726959
204	0x3cd3f626	0.025874209
205	0x3dbc2886	0.09187417
206	0xbdae5476	-0.085122034
207	0x3d5ac1c1	0.053407434
208	0x3daef80d	0.08543406
209	0x3baf4077	0.005348261
210	0x3dc6e6d4	0.09711996
211	0x3dc72c03	0.097251914
212	0x3c043be9	0.008070924
213	0x3d8e8c2c	0.069603294
214	0x3dea0c9a	0.11428185
215	0x3bbec1c5	0.005821439
216	0xbc9b1f91	-0.01893595
217	0x3d65fbf3	0.05614848
218	0x3d488e82	0.04896403
219	0x3b92dbe6	0.0044817803
220	0xbd65102d	-0.05592363
221	0x3dc192e7	0.094518475
222	0x3d2713c8	0.04079035
223	0xbda836d2	-0.08213581
224	0xbd200037	-0.039062705
225	0xbdd840b3	-0.105592154
226	0x3cd9828a	0.026551504
227	0x3db75b9f	0.08953022
228	0xbc938111	-0.01800588
229	0xbd4de578	-0.050267667
230	0xbd2a222c	-0.041536495
231	0xbd603a3d	-0.05474304
232	0xbdaeee85	-0.08541588
233	0x3d1352e7	0.035967734
234	0x3d0107e3	0.031501662
235	0xbcafa7cf	-0.021442322
236	0x3d36e913	0.04465587
237	0x3db4a977	0.08821385
238	0x3ddff9a0	0.10936284
239	0x3ddc4060	0.10754466
240	0x3bc42068	0.0059853084
241	0x3bca4b33	0.006173515
242	0xbdaf5b54	-0.08562341
243	0x3d9c60af	0.076356284
244	0x3dc85c3b	0.097832166
245	0xbbf6a025	-0.007526415
246	0x3dab80d5	0.08374182
247	0x3cabc39b	0.020967295
248	0x3c6d73b6	0.01449292
249	0x3d2501d7	0.040284958
250	0x3ca5ca7a	0.02023815
251	0xbc0f1d5b	-0.008735026
252	0x3dbdc8b1	0.092667945
253	0x3d532cfa	0.051556565
254	0x3d13a21e	0.03604328
255	0xbd827838	-0.06370586

conv2.bias f4 [32]
0	0xbcb336e6	-0.021876764
1	0xbde14ec4	-0.110013515
2	0x3de0b2f3	0.10971632
3	0xbcf668d1	-0.030079277
4	0xbdd640d3	-0.10461583
5	0xbddfd8f8	-0.109300554
6	0x3d2e0ca4	0.042492524
7	0x3de458eb	0.11149772
8	0x3c20627a	0.009789104
9	0xbd383f48	-0.044982225
10	0xbdb252d9	-0.08707208
11	0xbd96542b	-0.073402725
12	0x3ca82047	0.020523204
13	0x3d640882	0.055672176
14	0x3d41d681	0.047323707
15	0xbadc7c57	-0.0016821724
16	0x3d3d9655	0.046285946
17	0x3c424c1a	0.011858964
18	0xb8844a9f	-6.30815e-05
19	0x3d708981	0.058724884
20	0x3d0d3e74	0.034483388
21	0xbd52c9cd	-0.051461983
22	0xbdaadeec	-0.083433
23	0xbc9da499	-0.019243525
24	0x3d09fe0f	0.033689555
25	0x3d1c95b8	0.03822872
26	0xbdb07325	-0.08615712
27	0x3c6ddd14	0.014518041
28	0xbc392fdc	-0.0113029145
29	0x3d778ad6	0.06043514
30	0xbdc0a92f	-0.09407269
31	0xbda54207	-0.08069234

bn2.weight f4 [32]
0	0x3f80b9bb	1.005668
1	0x3f83b632	1.0289977
2	0x3f7e06c0	0.9922905
3	0x3f7e6ad8	0.9938178
4	0x3f7c6366	0.9858917
5	0x3f813a95	1.0096003
6	0x3f81224b	1.008859
7	0x3f7f1833	0.996463
8	0x3f7e053b	0.9922673
9	0x3f81faf7	1.0154713
10	0x3f7f4f87	0.99730724
11	0x3f8166fb	1.0109552
12	0x3f80c4b7	1.0060033
13	0x3f7d6d4d	0.98994905
14	0x3f811b54	1.0086465
15	0x3f7fd8af	0.9994001
16	0x3f7e26b2	0.99277794
17	0x3f7f2c45	0.99676925
18	0x3f7df895	0.9920743
19	0x3f7bba04	0.9833071
20	0x3f7ed2ea	0.9954058
21	0x3f7dc8d5	0.9913457
22	0x3f7ee214	0.9956372
23	0x3f7baee6	0.9831375
24	0x3f7f3d94	0.99703336
25	0x3f806f3b	1.0033945
26	0x3f816079	1.0107566
27	0x3f80810d	1.0039383
28	0x3f80cf22	1.0063212
29	0x3f826638	1.0187445
30	0x3f7fd05a	0.99927294
31	0x3f808f70	1.0043774

bn2.bias f4 [32]
0	0x3c036b68	0.008021213
1	0x3c831a1a	0.016003657
2	0xbbf2135d	-0.007387562
3	0xbc3a0381	-0.011353374
4	0xbcab1428	-0.020883635
5	0x3c9e76bd	0.019343728
6	0x3b1c8eed	0.0023888901
7	0x3c578aae	0.013155622
8	0x3c23408b	0.009964119
9	0x3bdf73fe	0.0068192473
10	0xbb874f0c	-0.004129296
11	0xbba268e8	-0.0049563535
12	0x3b1254d7	0.00223284
13	0xbb53a788	-0.0032295901
14	0xbbcbf5ab	-0.0062243543
15	0xbc6adecd	-0.014335346
16	0xbbeceff2	-0.007230752
17	0xbb6ff882	-0.0036616628
18	0xbc31e73a	-0.010858351
19	0xbba8584c	-0.005137479
20	0x3c615b41	0.013754667
21	0xbb948afb	-0.0045331693
22	0xbbf0d03d	-0.0073490427
23	0x3c1eb337	0.009686283
24	0xbb26339a	-0.0025360347
25	0x3c8929f7	0.016743643
26	0xbbc1129e	-0.005892112
27	0xbbcb25d7	-0.006199579
28	0x3b0b72ae	0.0021278071
29	0x3ca8eb5a	0.020620037
30	0xbc03200d	-0.008003247
31	0xbc885dff	-0.016646383

bn2.running_mean f4 [32]
0	0xbe135f74	-0.14391881
1	0xbf20c9c3	-0.62807864
2	0x3e6532b7	0.22382627
3	0x3ee0ccd9	0.43906286
4	0xbd5e5378	-0.05427882
5	0x3c9b4eb6	0.01895843
6	0xbe8dbfe0	-0.27685452
7	0x3e1497ba	0.14511004
8	0x3e089584	0.13338286
9	0xbea7fa5f	-0.32808205
10	0x3e5e8ac2	0.2173262
11	0xbe200d4e	-0.15630075
12	0xbe492e56	-0.19646582
13	0x3e8a6a5a	0.27034265
14	0xbdb69e1d	-0.089168765
15	0xbec55af6	-0.3854596
16	0x3f0df0c2	0.5544549
17	0xbe680bda	-0.22660771
18	0x38277c11	3.993145e-05
19	0x3ded8fa5	0.11599664
20	0xbd534809	-0.05158237
21	0xbe4169ee	-0.18888065
22	0x3e51a9bc	0.20474905
23	0xbb9e0539	-0.0048224
24	0x3e94c70a	0.29058105
25	0x3e4e24f3	0.20131283
26	0xbeb8df6f	-0.36107966
27	0xbe1d9c08	-0.15391552
28	0xbe4b1261	-0.1983123
29	0xbcde7d01	-0.027159216
30	0xbd944689	-0.07240016
31	0xbe3c682e	-0.18399116

bn2.running_var f4 [32]
0	0x3dfeebe3	0.124473356
1	0x3e5e6c9b	0.21721117
2	0x3e23e4ff	0.16005324
3	0x3e860473	0.2617527
4	0x3de8d79f	0.113692515
5	0x3dfaaf18	0.12240428
6	0x3df6660e	0.12031184
7	0x3db6559f	0.0890305
8	0x3e01b23a	0.12665644
9	0x3e0f0aa8	0.13968909
10	0x3eb0258f	0.34403655
11	0x3ddecabf	0.108785145
12	0x3e026649	0.12734331
13	0x3df61648	0.120159686
14	0x3dcdd551	0.100504525
15	0x3e929733	0.2863098
16	0x3e62b056	0.2213758
17	0x3e03171d	0.12801786
18	0x3e02486e	0.12722942
19	0x3e0204c1	0.12697126
20	0x3de466de	0.11152433
21	0x3def5399	0.11685867
22	0x3e180021	0.14843799
23	0x3e10a171	0.14124085
24	0x3e792b1d	0.24332853
25	0x3e193d77	0.14964853
26	0x3e4545db	0.19264929
27	0x3dde6a23	0.10860088
28	0x3df9eb86	0.12203126
29	0x3db330ad	0.087495185
30	0x3e5cb3e5	0.21553
31	0x3e1342fe	0.14381024

conv3.weight f4 [64, 32, 5]
0	0x3d4c191f	0.049828645
1	0x3d924dcf	0.07143747
2	0x3d07fcff	0.03320026
3	0x3d8d2a14	0.068927914
4	0xbd5adc9d	-0.05343305
5	0xbd84ae00	-0.064785
6	0xbd5b74c8	-0.05357817
7	0xbc3d102c	-0.0115395
8	0xbcb08b7f	-0.021550892
9	0xbd44ea07	-0.04807475
10	0xbcc5a6a5	-0.024127314
11	0x3c3b0001	0.011413575
12	0xbd12ef37	-0.035872664
13	0xbcddbafe	-0.027066704
14	0xbce23101	-0.027611258
15	0x3d9e8fb8	0.07742256
16	0xbd3a4480	-0.045475483
17	0xbd767357	-0.06016859
18	0x3cb12226	0.021622729
19	0x3c7b05d8	0.0153212175
20	0x3d07aabd	0.033121813
21	0x3d3eecee	0.046612673
22	0x3d1c0a66	0.038095854
23	0xbd8d9f72	-0.069151774
24	0x3d3c2acc	0.04593925
25	0x3c4b4a38	0.012407832
26	0x3c202ea0	0.009776741
27	0x3c0309f8	0.007997982
28	0x3d14036e	0.036136083
29	0x3d48bb7a	0.049006917
30	0xbb7c7d01	-0.0038526657
31	0xba4d9187	-0.00078418147
32	0xbd843895	-0.06456105
33	0xbd7b2761	-0.06131685
34	0xbc1eec21	-0.009699852
35	0x3c64ae1a	0.013957525
36	0xbd1a9ad9	-0.03774533
37	0x3be46911	0.0069705327
38	0x3d405682	0.0469575
39	0x3d5b2719	0.053504083
40	0xba05003a	-0.0005073581
41	0xbc61a264	-0.013771627
42	0xbd45f1e1	-0.048326377
43	0x3c6907f3	0.014223087
44	0xbd864e6a	-0.06557925
45	0x3d8605ff	0.065441124
46	0x3d64740c	0.055774733
47	0x3d9d2be0	0.07674384
48	0x3b25b385	0.0025284004
49	0x3d430a83	0.047617447
50	0xbd4221de	-0.04739558
51	0x3c0f292c	0.0087378435
52	0x3d2c5762	0.042075522
53	0xbd575d4c	-0.05257921
54	0xbd7f2b96	-0.062297426
55	0xbd619ff8	-0.0550842
56	0x3d9dc844	0.07704213
57	0x3d3e04d3	0.04639132
58	0xbc848eda	-0.016181398
59	0x3b2d7fba	0.0026473836
60	0x3b11efbc	0.0022268137
61	0x3d8d2116	0.06891076
62	0x3d645225	0.0557424
63	0x3da51283	0.080601715
64	0x3ca3ee96	0.020011228
65	0xbaf92951	-0.0019009506
66	0x3d5d7641	0.054067854
67	0xbcdd1866	-0.026989173
68	0xbcbe1b7a	-0.023206461
69	0x3d5ac95e	0.053414695
70	0xbd68fe3f	-0.056883093
71	0xbb8386e7	-0.0040138843
72	0xbd34348e	-0.043995433
73	0x3d813fea	0.06311019
74	0xbd1c81ab	-0.0382096
75	0x3d91e180	0.07123089
76	0x3d6c6dc7	0.05772188
77	0x3c5c0e19	0.0134310955
78	0x3d9b777c	0.07591149
79	0xbcdf9a5a	-0.02729528
80	0xbd73276a	-0.05936376
81	0x3c6c2f81	0.014415623
82	0xbc1d9d06	-0.009619957
83	0x3d1941dc	0.037416324
84	0xbb2206ba	-0.0024723248
85	0x3d03073b	0.031989317
86	0xbd4d91f2	-0.050188012
87	0xbd2acc2d	-0.041698623
88	0x3d562933	0.052285384
89	0x3da4d8d8	0.08049172
90	0xbce30a93	-0.027715003
91	0xbc511b26	-0.01276282
92	0x3cbeb877	0.023281319
93	0xbc3ab7ea	-0.011396388
94	0xbbf8a543	-0.00758806
95	0xbd73633e	-0.059420817
96	0x3d718c03	0.058971416
97	0x3ce0366e	0.027369704
98	0xbd58f261	-0.052965526
99	0xbcb7cca7	-0.022436453
100	0x3d934412	0.07190718
101	0x3d64db96	0.055873476
102	0x3d18b886	0.03728535
103	0x3d47f1f4	0.04881473
104	0x3d278f8c	0.04090838
105	0xbd20e363	-0.039279353
106	0xbacfe41e	-0.0015860831
107	0xbd24d5f0	-0.04024309
108	0x3d73a548	0.059483796
109	0xbd1bcbcc	-0.038036153
110	0x3cabb26b	0.0209591
111	0x3d0c681a	0.034278966
112	0x3d79cd58	0.060986847
113	0x3c95de3c	0.018294446
114	0xbd208cd1	-0.039196793
115	0x3ba764ae	0.0051084375
116	0xbd3b123a	-0.04567168
117	0xbb91a570	-0.0044447705
118	0x3c31b950	0.010847405
119	0x3d33aae8	0.04386416
120	0x3d29f4e5	0.041493315
121	0x39c5e87d	0.00037747985
122	0x3d53fb7e	0.051753514
123	0xbd0d78f2	-0.03453917
124	0x3c21e86b	0.009882073
125	0x3d51ac85	0.051189918
126	0x3d997caf	0.07494485
127	0x3c780405	0.015137677
128	0xbd55fe2f	-0.05224436
129	0x3d173fc0	0.03692603
130	0x3d9dc232	0.077030554
131	0x3b9b34ca	0.0047365176
132	0x3d1de6b6	0.0385501
133	0x3d982e01	0.074306495
134	0x3daa14c1	0.0830474
135	0x3d02aeb4	0.03190489
136	0xbd165b34	-0.03670807
137	0xbd28a776	-0.04117533
138	0xbc0f0458	-0.008729063
139	0x3d55e008	0.052215606
140	0xba45943f	-0.0007537044
141	0xbd3e2e52	-0.046430893
142	0xbd07daae	-0.033167534
143	0xbc92f9f2	-0.017941449
144	0x3d9f2c9f	0.07772183
145	0xbc8e532d	-0.017373646
146	0x3b90d344	0.004419716
147	0xbc812577	-0.015764935
148	0xbd649d6b	-0.055814188
149	0x3bd41213	0.006471881
150	0x3d151e92	0.036406107
151	0x3ceb2daa	0.028708298
152	0x3d9abb59	0.07555265
153	0x3d04e21e	0.032442205
154	0xbcd62484	-0.026140459
155	0xbc6e76ff	-0.014554738
156	0x3d9dea72	0.077107325
157	0x3d6067f0	0.054786623
158	0xbd72de12	-0.059293814
159	0xbd803213	-0.06259551
160	0x3da6bf54	0.08141962
161	0x3cc3c5d0	0.023898035
162	0x3d632b79	0.05546138
163	0xbc8bbda6	-0.017058205
164	0x3aa5c54e	0.0012647302
165	0x3d891de5	0.06695155
166	0xbcc5e734	-0.024158098
167	0xbd1c748b	-0.03819708
168	0xbc7a44f6	-0.015275231
169	0x3ce9c0d6	0.028534334
170	0xbd3e34a4	-0.04643692
171	0x3b8f8a92	0.0043805325
172	0x3d3e9720	0.046530843
173	0xbd40dcb2	-0.04708547
174	0x3bf5a4fd	0.007496475
175	0xbd1c33ab	-0.038135212
176	0x3c7b3b88	0.015334018
177	0x3ca65554	0.02030436
178	0x3b389f53	0.0028171137
179	0x3d5ae74f	0.05344325
180	0xbd80f8b9	-0.0629744
181	0x3d2a538a	0.041583575
182	0x3d337f9e	0.043822877
183	0xbd07d10d	-0.03315835
184	0xbcd49540	-0.025950074
185	0x3cafbb9b	0.021451762
186	0x3d20175f	0.03908479
187	0xbd17f8b4	-0.037102416
188	0xba18dadf	-0.0005830954
189	0x3c33cac4	0.010973636
190	0xbccc889f	-0.02496749
191	0xbd5f5afd	-0.054530133
192	0x3d43e3a1	0.047824506
193	0xbcd2507b	-0.025673142
194	0x3d1b3672	0.03789372
195	0xbcb04318	-0.021516368
196	0x3c29afd1	0.010356859
197	0x3d2e687e	0.04258012
198	0x3cf9012e	0.03039607
199	0x3d44b54c	0.04802446
200	0xbd7e8744	-0.062140718
201	0xbd944083	-0.07238867
202	0xbd8c7eaf	-0.068601005
203	0xbd010fb3	-0.031509113
204	0xbd82fa1e	-0.06395362
205	0xbd086751	-0.033301655
206	0xbb9f046d	-0.0048528225
207	0x3d558e7b	0.052137833
208	0xbd4f69b6	-0.050637923
209	0xbbf372c8	-0.0074294545
210	0x3cce4e47	0.02518381
211	0xbd477ca8	-0.048702866
212	0x3c8ff10a	0.017570991
213	0xbd1215e7	-0.03566542
214	0x3cc9e332	0.024644468
215	0x3d013634	0.031545833
216	0xbd906f40	-0.07052469
217	0x3d34c560	0.044133544
218	0xbd90420b	-0.07043847
219	0x3bf0bc39	0.0073466566
220	0xbd8aa7cf	-0.06770288
221	0x3d918b12	0.07106604
222	0x3d0d846b	0.03455011
223	0xbc618db4	-0.013766695
224	0xbc93dfee	-0.018051114
225	0xbdaa977c	-0.083296746
226	0x3ca00bb4	0.01953683
227	0x3caa6bfe	0.020803448
228	0x3d1ebc2b	0.03875367
229	0x3d948a25	0.072529115
230	0xbc95c245	-0.018281111
231	0xbd915661	-0.070965536
232	0x3dac873d	0.08424232
233	0xbda50c6b	-0.08059009
234	0x3c3e9055	0.011631091
235	0x3c8ad548	0.016947404
236	0xbcb2810b	-0.021790048
237	0xbd827ba1	-0.063712366
238	0x3d6fdf40	0.058562517
239	0xbc65b6a8	-0.014020599
240	0xbbd95102	-0.0066319713
241	0xbd8a6300	-0.06757164
242	0xbc316638	-0.0108275935
243	0x3a61b229	0.0008609617
244	0x3cf852cd	0.03031292
245	0x3d4dcaec	0.05024235
246	0x3caa2017	0.020767255
247	0x3cf30eda	0.029670168
248	0x3d42a1bc	0.047517523
249	0x3d2a0b48	0.041514665
250	0x3d569473	0.052387666
251	0x3c583bbd	0.0131978365
252	0x3d2d1f74	0.042266324
253	0x3b81ef2e	0.00396528
254	0xbd13efa0	-0.036117196
255	0xbc2c2513	-0.010506886

conv3.bias f4 [64]
0	0xbd3a0ed0	-0.045424283
1	0xbcf79820	-0.030223906
2	0xbd360762	-0.044440635
3	0x3d93e073	0.07220545
4	0xbd8f920b	-0.07010277
5	0xbd973b43	-0.0738435
6	0x3bf00583	0.007324876
7	0x3d473b8e	0.04864078
8	0xbc89bde6	-0.016814183
9	0x3c08f5cf	0.008359387
10	0x3cc01a23	0.023449963
11	0x3d570d0a	0.05250267
12	0x3ba353ab	0.0049843392
13	0x3d015626	0.0315763
14	0x3d5bd715	0.053671915
15	0x3cef1bc6	0.029188048
16	0x3d1d844a	0.03845624
17	0x3d100c73	0.035168123
18	0xbbbb6f4d	-0.005720055
19	0xbd86c072	-0.06579675
20	0xbd19156c	-0.037373945
21	0xbc6d7e2e	-0.014495416
22	0xbd9ba005	-0.07598881
23	0x3d763d59	0.0601171
24	0xbc8be410	-0.017076522
25	0x3d4338d7	0.04766163
26	0x3c52b827	0.012861288
27	0x3d6fed70	0.058576047
28	0xbd5a0217	-0.05322465
29	0x3d9b34cb	0.07578429
30	0x3b79305b	0.0038023207
31	0xbd8ed1c9	-0.06973607
32	0x3cea2430	0.028581709
33	0x3cf16a26	0.02946956
34	0x3cea2c88	0.028585687
35	0x3c2e3937	0.010633758
36	0xbd267120	-0.04063523
37	0x3d9b6ecb	0.075894915
38	0xbd53a1e9	-0.05166808
39	0xbd9ab349	-0.07553727
40	0xbcd178bd	-0.025570268
41	0xbc16dffc	-0.0092086755
42	0xbd29d206	-0.04146006
43	0x3d971d79	0.07378668
44	0xbd434170	-0.047669828
45	0xbd53d527	-0.05171695
46	0xbbed742e	-0.0072465157
47	0xbd49fe79	-0.04931495
48	0x3cfd9281	0.030953648
49	0xbd8a7a3b	-0.06761595
50	0xbd46baf2	-0.04851813
51	0xbd43e3ed	-0.04782479
52	0xbc3ec53b	-0.011643703
53	0xbd51e217	-0.051241007
54	0xbcaf961d	-0.021433884
55	0xbd1e52eb	-0.038653295
56	0x3d805805	0.062667884
57	0xbd31c099	-0.043396566
58	0xbca0c8d4	-0.019627012
59	0xbd5254fd	-0.051350582
60	0xbcb4c283	-0.022065407
61	0xbb946175	-0.0045282193
62	0x3d9a432f	0.075323455
63	0xbc9b8fb7	-0.018989427

bn3.weight f4 [64]
0	0x3f7e30af	0.99293035
1	0x3f80fb21	1.0076638
2	0x3f802c33	1.0013489
3	0x3f801fda	1.000972
4	0x3f7fae97	0.9987578
5	0x3f80750e	1.0035722
6	0x3f7f2669	0.99667984
7	0x3f80755b	1.0035814
8	0x3f825d6b	1.0184759
9	0x3f81b84a	1.0134366
10	0x3f7cb95a	0.98720324
11	0x3f803151	1.001505
12	0x3f7d8477	0.9903025
13	0x3f7eb1e9	0.9949022
14	0x3f7d1db2	0.98873436
15	0x3f7f9a83	0.9984514
16	0x3f825ba3	1.0184215
17	0x3f7e173b	0.99254197
18	0x3f7e56e6	0.99351346
19	0x3f81a8cc	1.0129638
20	0x3f813b28	1.0096178
21	0x3f80d41f	1.0064734
22	0x3f836b0d	1.0267044
23	0x3f7dd648	0.9915509
24	0x3f802b71	1.0013257
25	0x3f8255c7	1.0182427
26	0x3f82776e	1.0192697
27	0x3f7c4038	0.9853549
28	0x3f7d7efa	0.99021876
29	0x3f7daa4b	0.9908797
30	0x3f80a901	1.0051576
31	0x3f811734	1.0085206
32	0x3f8182d0	1.0118046
33	0x3f80be6a	1.005811
34	0x3f80c242	1.0059283
35	0x3f79905b	0.97485894
36	0x3f7d4127	0.9892754
37	0x3f7a251d	0.9771288
38	0x3f802b28	1.001317
39	0x3f7e1092	0.99244034
40	0x3f7a4c5d	0.9777277
41	0x3f812e24	1.0092206
42	0x3f7ec470	0.9951849
43	0x3f7fe1c4	0.99953866
44	0x3f7e53fc	0.993469
45	0x3f7fcf53	0.99925727
46	0x3f7d7e13	0.990205
47	0x3f80659a	1.0031006
48	0x3f7fc521	0.9991017
49	0x3f81fd85	1.0155493
50	0x3f7eb005	0.99487334
51	0x3f800f50	1.0004673
52	0x3f806bc7	1.0032891
53	0x3f7fbd5a	0.998983
54	0x3f7f193c	0.9964788
55	0x3f79e928	0.97621393
56	0x3f7f2e0f	0.99679655
57	0x3f7ce21f	0.98782533
58	0x3f7fbd77	0.99898475
59	0x3f806795	1.0031611
60	0x3f81388d	1.0095383
61	0x3f7fba8f	0.9989404
62	0x3f80f8c2	1.0075915
63	0x3f7e0a91	0.99234873

bn3.bias f4 [64]
0	0xbba44afa	-0.0050138207
1	0xbc469a61	-0.012121768
2	0x3bad52af	0.0052893977
3	0xbc545ca8	-0.012961544
4	0xbb2491aa	-0.0025111237
5	0xbb84ddfe	-0.004054784
6	0xbbf3637a	-0.00742763
7	0x3b87cfef	0.0041446607
8	0x3b003bdd	0.0019566931
9	0x3a3f3192	0.00072934583
10	0xbb3fed98	-0.0029285904
11	0x3af6a82b	0.0018818429
12	0xbc1d32bd	-0.0095946165
13	0xbb2a0c10	-0.0025947131
14	0xbce74663	-0.028231805
15	0x3ba63c76	0.0050731255
16	0xbc136544	-0.008996312
17	0xbb8cd3b6	-0.004297699
18	0xbc6e59d1	-0.014547781
19	0x39a435ea	0.00031320687
20	0x3bd78b1d	0.006577863
21	0x39ae1c2a	0.0003320885
22	0x3bdf2e11	0.0068109115
23	0x3bd78bac	0.0065779295
24	0xbbd80c2c	-0.006593248
25	0x3b5e20fd	0.0033894174
26	0x3b309539	0.0026944412
27	0xbbcbb764	-0.00621693
28	0xbba303e3	-0.0049748286
29	0xbba5d5b6	-0.0050608767
30	0xbc0dca24	-0.008654151
31	0x3b9045e2	0.004402862
32	0xbc6547a4	-0.013994131
33	0xbbc383a8	-0.0059666224
34	0xbb748fb4	-0.00373171
35	0xbc1d560b	-0.009603034
36	0xbb6cb440	-0.003611818
37	0xbc312854	-0.010812838
38	0xbc3f6437	-0.011681608
39	0xbc7c4a82	-0.015398623
40	0xbc329135	-0.010898878
41	0x3ac4c6c7	0.0015012854
42	0xbc6d784d	-0.014494014
43	0x3bbf2f2f	0.005834482
44	0x3b85a64c	0.004078662
45	0xbb21c036	-0.0024681217
46	0xbb3d7a4f	-0.0028912013
47	0xbaaeeefd	-0.001334637
48	0xbc240403	-0.010010722
49	0xbb878bdb	-0.004136545
50	0x3ad7afd5	0.00164556
51	0xbc21d167	-0.009876586
52	0xbb0c2209	-0.0021382591
53	0xbc71d64d	-0.014760566
54	0xbc379db6	-0.011207035
55	0xbc2e79b3	-0.010649133
56	0xbc1f9254	-0.009739477
57	0x3a76160b	0.000938744
58	0xbc82a577	-0.01594804
59	0xbbd40f55	-0.0064715543
60	0x3ad031c8	0.0015883977
61	0xbb9a74ce	-0.0047136312
62	0xbbff90b5	-0.007799233
63	0xbc2ac132	-0.010422038

bn3.running_mean f4 [64]
0	0x3f232c0f	0.63739103
1	0xbe9cd3b5	-0.3063027
2	0xbedcb9ec	-0.43110597
3	0x3db653e5	0.0890272
4	0xbcd452a3	-0.02591831
5	0xbe80469c	-0.2505387
6	0xbf15ba9b	-0.5848786
7	0xbe73b545	-0.23799618
8	0xbea198e2	-0.31561953
9	0xbee25bb7	-0.44210598
10	0x3d6444ce	0.05572968
11	0xbe4da50e	-0.20082495
12	0xbecbbfc1	-0.39794734
13	0xbe4c18c1	-0.19931318
14	0x3e14e82a	0.14541689
15	0xbe9d6c66	-0.30746764
16	0xbca7ab3c	-0.020467393
17	0x3f410f95	0.754144
18	0x3ea07443	0.313387
19	0xbec24cc2	-0.37949187
20	0x3d1b024a	0.03784398
21	0xbe82b2b2	-0.2552696
22	0x3da948e6	0.082658574
23	0x3d526671	0.051367227
24	0xbecd6a08	-0.40119958
25	0xbd97c78a	-0.07411106
26	0xbeb3280f	-0.349915
27	0x3ea63951	0.32465604
28	0xbd4493ff	-0.047992703
29	0xbe298d37	-0.16557775
30	0xbf0d2b86	-0.55144536
31	0xbf0269e3	-0.5094282
32	0x3c076cd1	0.00826569
33	0xbc2240e2	-0.009903165
34	0xbe9244bb	-0.28568062
35	0x3d4895f8	0.048971146
36	0x3f3e18a9	0.7425638
37	0xbe0e2981	-0.1388302
38	0x3d84636a	0.06464274
39	0xbed2a434	-0.41140902
40	0xbd06227f	-0.03274774
41	0xbecb599d	-0.39716807
42	0xbe6e3005	-0.23260505
43	0xbd8f8a4e	-0.070088014
44	0xbeb70a5f	-0.357501
45	0xbebc909e	-0.36829084
46	0xbc9574d2	-0.01824418
47	0xbecde602	-0.40214545
48	0xbe053cd4	-0.13011485
49	0xbf1065d1	-0.5640536
50	0x3d056cdd	0.032574523
51	0xbe85bd03	-0.26120767
52	0x3ec986a4	0.39360535
53	0xbd8ea8cc	-0.06965789
54	0xbe3c8889	-0.18411459
55	0xbda0fef5	-0.07861129
56	0xbe876e62	-0.26451403
57	0x3e2871f1	0.16449715
58	0x3e5cc75b	0.21560423
59	0xbeb92515	-0.36161104
60	0x3e3458e2	0.17612031
61	0xbdb8333b	-0.089941464
62	0xbe899882	-0.26874167
63	0xbdc0593f	-0.09392022

bn3.running_var f4 [64]
0	0x3e4bc98d	0.19901104
1	0x3df37df1	0.11889256
2	0x3e3d1ee9	0.18468823
3	0x3dfd36c1	0.12363959
4	0x3dda3399	0.10654373
5	0x3dd50c16	0.10402696
6	0x3e549628	0.20760405
7	0x3df356d4	0.118817955
8	0x3e2a55f3	0.1663435
9	0x3e3041c4	0.17212588
10	0x3e4594c1	0.19295026
11	0x3e2653b2	0.16242865
12	0x3e621055	0.22076543
13	0x3e901656	0.2814204
14	0x3e05dba0	0.13072062
15	0x3e29f3bd	0.16596885
16	0x3ddf9ddd	0.10918782
17	0x3de34a84	0.11098197
18	0x3e67206d	0.22570963
19	0x3e2d8792	0.16946247
20	0x3df06bd7	0.11739319
21	0x3e25dc0b	0.16197221
22	0x3df610c4	0.120149165
23	0x3e0f86cc	0.14016265
24	0x3e5db1df	0.21649884
25	0x3db68e03	0.08913805
26	0x3e2531b8	0.16132247
27	0x3e8b4eed	0.27208653
28	0x3eb2f415	0.34951845
29	0x3e6c94c2	0.23103622
30	0x3dfef14b	0.12448367
31	0x3e436723	0.19082312
32	0x3db0a42f	0.086250655
33	0x3dda2c15	0.10652939
34	0x3de82102	0.11334421
35	0x3dd1599c	0.1022217
36	0x3ec152fd	0.37758628
37	0x3e1563ea	0.14588895
38	0x3e057d86	0.13036165
39	0x3dde8f62	0.10867192
40	0x3e98e1fa	0.29859906
41	0x3e82f2fd	0.2557601
42	0x3e194a15	0.14969666
43	0x3e26a2c3	0.16273026
44	0x3e24e28a	0.16102043
45	0x3e2f6420	0.17128038
46	0x3de6a540	0.11261988
47	0x3e179c97	0.14805828
48	0x3e0a7fe3	0.13525347
49	0x3dc6ed10	0.09713185
50	0x3e269f1d	0.16271634
51	0x3e25eb1f	0.16202973
52	0x3e1ffd55	0.15623982
53	0x3e0c91d6	0.13727507
54	0x3e2236ac	0.15841168
55	0x3e48db9b	0.19615023
56	0x3e20ced0	0.15703893
57	0x3e3e6dab	0.18596523
58	0x3df4c46c	0.11951527
59	0x3e3595f5	0.17732985
60	0x3d9a87cc	0.075454324
61	0x3e8685fc	0.26274097
62	0x3df26fc4	0.11837724
63	0x3e06fc35	0.13182147

conv4.weight f4 [128, 64, 5]
0	0xba1fd1cc	-0.0006096631
1	0x3cceada3	0.02522928
2	0x3c9682f6	0.018372994
3	0xbc88a213	-0.016678846
4	0xbcfe5c25	-0.031049797
5	0xbd17626c	-0.036959097
6	0xbcb0894a	-0.02154984
7	0x3c35e0f8	0.011101
8	0xbd3d28e1	-0.046181563
9	0xbc96bcdf	-0.018400608
10	0x3cd4ab2c	0.025960527
11	0xbd01c70c	-0.031683967
12	0x3c08cfbd	0.00835031
13	0x3d3ba585	0.04581215
14	0xbc2a634e	-0.010399653
15	0xbb807476	-0.003920133
16	0x3d01fae9	0.031733427
17	0x3d1ee26c	0.03879015
18	0xbd784d75	-0.060620744
19	0xbbedb6b8	-0.007254448
20	0x3bbd52af	0.005777679
21	0x3a8cda16	0.0010746147
22	0x3cb06b29	0.021535473
23	0x3c8e7512	0.017389808
24	0x3cabaaea	0.020955522
25	0xbce8623e	-0.028367158
26	0x3c38d880	0.011282086
27	0xbbc7634b	-0.0060848347
28	0x3ca06db7	0.019583566
29	0x3b7224fb	0.0036948312
30	0xbcdcf752	-0.0269734
31	0x3d43b86d	0.047783304
32	0xbc7951dd	-0.015217272
33	0xbd12d208	-0.035844833
34	0x3ca644d6	0.020296495
35	0x3aeb291a	0.0017941326
36	0x3d377a04	0.044794098
37	0x3d2124c7	0.039341714
38	0xbc79c0c9	-0.0152437175
39	0x3c299435	0.010350277
40	0xbd03ce3f	-0.032179113
41	0x3cf27d81	0.02960086
42	0x3c1e38f5	0.009657134
43	0x3cfde126	0.030991148
44	0xbcb6cb71	-0.022313805
45	0xbd6e9f56	-0.058257423
46	0x3d8246e2	0.06361176
47	0x3d27a84a	0.040931977
48	0x3cc9e384	0.02464462
49	0xbd003345	-0.031298894
50	0x3d5e6660	0.05429685
51	0xbd1f0a18	-0.038827986
52	0xbd357983	-0.044305336
53	0xbd09ce8e	-0.03364425
54	0xbd0430de	-0.032273166
55	0xbd0fd2f2	-0.035113283
56	0xbcc249d5	-0.023716846
57	0x3c957901	0.018246176
58	0x3c8af516	0.01696257
59	0xbd5211ec	-0.051286623
60	0xbb910ce2	-0.0044265846
61	0x3c9b808e	0.018982198
62	0x3c4b1aaa	0.012396494
63	0x3d117ca3	0.035519253
64	0x3d62ef7e	0.05540418
65	0xbd46817c	-0.04846333
66	0x3d1792f1	0.03700537
67	0x3b057b50	0.002036769
68	0xbd2710c3	-0.04078747
69	0xbc049681	-0.008092524
70	0xbd4795ed	-0.048726965
71	0xbb9eaf42	-0.0048426697
72	0xbc709410	-0.014683738
73	0xbd201de5	-0.03909101
74	0xbd585b3b	-0.05282138
75	0x3d5c1164	0.053727522
76	0xbb2524da	-0.0025198967
77	0x3cd9ccb9	0.026586877
78	0x3d106a7b	0.035257798
79	0x3d520199	0.051271055
80	0xbc4290c6	-0.011875337
81	0xbd337eab	-0.043821972
82	0x3bdaf8fb	0.006682513
83	0xbaae2b77	-0.00132881
84	0xbcca19c5	-0.024670491
85	0xbce61eff	-0.028090952
86	0xbd696023	-0.05697645
87	0xbd280506	-0.041020416
88	0x3cf46dc1	0.029837491
89	0x3b10c03e	0.0022087242
90	0x3caa040b	0.020753881
91	0xbd198203	-0.037477504
92	0x3c768383	0.015046003
93	0xbb8efb69	-0.0043634665
94	0xbca847fe	-0.020542141
95	0x3d22b48f	0.039722975
96	0x3d755f6e	0.059905462
97	0xbcc6d3dd	-0.024270946
98	0x3d544988	0.051827937
99	0xbcb718d0	-0.022350699
100	0xbd2530ef	-0.04032987
101	0x3d64ee3a	0.055891253
102	0xbcba4219	-0.022736596
103	0x3c38e461	0.0112849185
104	0xbd570592	-0.052495547
105	0xbcbb90b3	-0.022896146
106	0xbcfba279	-0.030717121
107	0x3c15855e	0.0091260355
108	0x3d190ab2	0.037363715
109	0x3d30ba5b	0.043146472
110	0xbb863de8	-0.0040967353
111	0xbc9c1c08	-0.019056335
112	0xbc2970e1	-0.010341854
113	0x3cba1541	0.022715213
114	0x3b671c04	0.0035264501
115	0xbc5e58cf	-0.013570978
116	0x3d4b9aff	0.049708363
117	0x3a5d1f28	0.00084351236
118	0xbd3a6258	-0.045503944
119	0xbd12c17a	-0.035829045
120	0xbd3a00a5	-0.04541077
121	0x3c0ee1ed	0.008720857
122	0xbd3c69ba	-0.045999266
123	0xbc20656a	-0.009789804
124	0xbd3377ad	-0.043815304
125	0x3c5d05c5	0.013490145
126	0x3caf51e6	0.021401357
127	0xbb05bea4	-0.002040782
128	0x3cfb5bff	0.030683516
129	0x3cf48dc0	0.029852748
130	0xbcc863f8	-0.024461731
131	0xbce6e223	-0.028184002
132	0xbcf6ea13	-0.030140912
133	0xbbf439d7	-0.007453184
134	0xbd29ae5d	-0.04142605
135	0xbb94233e	-0.0045208028
136	0x3cd2e529	0.025744038
137	0x3c2df403	0.010617259
138	0xbc90c58a	-0.017672319
139	0xbb8a3c16	-0.0042185886
140	0xbb85d352	-0.0040840292
141	0x3c2b1fe2	0.010444613
142	0x3d090d19	0.033459757
143	0xbce5f071	-0.028068753
144	0xbb0e21c9	-0.0021687618
145	0xbd3674ec	-0.0445451
146	0x3c96439e	0.01834279
147	0x3c679597	0.014134786
148	0x3c84f0f1	0.016228171
149	0x3c000d82	0.0078157205
150	0x3ce33e93	0.027739799
151	0x3d42f50c	0.047596976
152	0x3ca8699a	0.020558167
153	0x3cd0d21c	0.025490813
154	0xbd18bebf	-0.037291285
155	0xbc84d3b9	-0.016214238
156	0xbccddf51	-0.0251309
157	0xbcaff89a	-0.021480847
158	0xbafa8ed7	-0.0019116056
159	0xbbcf1bdb	-0.0063204593
160	0xbc5bcc6f	-0.01341544
161	0x3ca0703c	0.019584768
162	0x3d6c22d9	0.05765042
163	0x3d4d7664	0.050161734
164	0x3d00f05d	0.03147923
165	0x3c6cf299	0.014462137
166	0xbd3cb5d1	-0.04607183
167	0xbaf4f8ed	-0.0018689908
168	0x3c9d85fc	0.019228928
169	0xbd939e3b	-0.072079144
170	0x3d3cb4db	0.046070915
171	0x3b28e29c	0.0025769835
172	0xbc78c03a	-0.015182549
173	0x3cee6041	0.029098632
174	0x3c577c8d	0.013152254
175	0x3c1c7610	0.009549633
176	0xbc023817	-0.007947943
177	0xbd15730d	-0.036486674
178	0xba813b6f	-0.0009859632
179	0x3c90a906	0.017658722
180	0x3d32206f	0.043487962
181	0xbd239ff8	-0.03994748
182	0xbd013625	-0.031545777
183	0x3c3b691e	0.011438636
184	0x3c6718c5	0.014105027
185	0x3c96c88f	0.01840618
186	0xbcf86e54	-0.030326046
187	0x3d5ac6fb	0.05341242
188	0xbd663e82	-0.056211956
189	0xbcd1d6e4	-0.025615163
190	0xbd14c24e	-0.036318116
191	0x3b3291f3	0.0027247637
192	0x3cfe2539	0.031023609
193	0xbb2eb932	-0.0026660678
194	0xbd5e33ba	-0.05424855
195	0xbbd9972c	-0.0066403355
196	0x3d543cd0	0.051815808
197	0x3d219c2f	0.03945559
198	0xbd1da820	-0.038490415
199	0x3c8d1808	0.017223373
200	0xbd27e9c4	-0.04099442
201	0xbcfa973f	-0.030589698
202	0x3c802bb3	0.015645837
203	0xbd3851d5	-0.044999916
204	0xbca50ab3	-0.020146703
205	0xbd0ac829	-0.033882294
206	0xbb13a953	-0.0022531345
207	0xbc5c6221	-0.01345113
208	0xbbd41107	-0.0064717564
209	0x3d0edca2	0.03487838
210	0xbcc3ff8d	-0.023925567
211	0x3b8f4c4e	0.00437311
212	0x3cc92b9a	0.024556924
213	0x3d20e21a	0.039278127
214	0x3be8d3cb	0.007105326
215	0xbca97f29	-0.020690518
216	0x3d87c4c1	0.06629325
217	0xbd1c70d3	-0.038193535
218	0x3d6710b7	0.056412425
219	0xbc4a4aad	-0.012346906
220	0xbd36e32d	-0.044650245
221	0x3d0340f5	0.03204437
222	0xbd209abb	-0.039210062
223	0xbb6ad0f1	-0.0035830105
224	0x3d217a89	0.0394235
225	0x3d470329	0.048586998
226	0x3c43c9d7	0.011949978
227	0xbcdc6ed1	-0.02690831
228	0xbc9baa32	-0.019002054
229	0x3cb810e1	0.022468986
230	0xbce005db	-0.027346542
231	0x3c40907a	0.011753196
232	0x3d10ba21	0.035333756
233	0xbd204c0b	-0.03913502
234	0xbcc2aff0	-0.023765534
235	0xba35f51c	-0.0006941126
236	0xbce786e6	-0.028262567
237	0xbd0d0a55	-0.03443368
238	0x3cdcf832	0.026973817
239	0xbcd05263	-0.02542991
240	0xbd257bf2	-0.040401407
241	0xbd1bae55	-0.038008053
242	0x3c3adf62	0.011405798
243	0x3cd223bd	0.025651807
244	0xbcee162d	-0.029063309
245	0xbd4833f6	-0.04887768
246	0xbc8e0aa1	-0.017339053
247	0x3d395d26	0.04525485
248	0x3cc5786a	0.02410527
249	0xbba28983	-0.0049602403
250	0x3d7d1f0e	0.061797194
251	0xbce2390e	-0.027615096
252	0xbc4ecf50	-0.012622669
253	0xbcc00f84	-0.023444898
254	0x3d628679	0.055304024
255	0x3ce4b382	0.027917627

conv4.bias f4 [128]
0	0xbd2669b0	-0.040628135
1	0xbcc20902	-0.023685936
2	0xbc7ffa76	-0.015623679
3	0xbccbfc2f	-0.024900524
4	0xbbfdbe46	-0.0077436296
5	0xbd03e61b	-0.032201868
6	0xbca3e0e4	-0.020004697
7	0xbb647cf2	-0.0034864512
8	0x3b4dda73	0.0031410723
9	0x3b5e9191	0.0033961276
10	0xbd3ba889	-0.045815025
11	0x3c54685e	0.012964336
12	0xbccb2091	-0.024795802
13	0x3d5910ba	0.052994467
14	0xbbf94e00	-0.0076081753
15	0xbd637a73	-0.0555367
16	0xbd3858ef	-0.04500669
17	0xbd54eacb	-0.05198173
18	0x3cd2a3c4	0.025712855
19	0xbd0b48ea	-0.034005083
20	0x3d15b37f	0.036548134
21	0xbc36b060	-0.0111504495
22	0x3cc1f828	0.0236779
23	0xbcabb2fd	-0.020959372
24	0x3c456654	0.012048323
25	0xb83e6893	-4.5396922e-05
26	0xbc99da2d	-0.018780792
27	0xbca5cf1c	-0.020240359
28	0xbd0aa0ae	-0.033844642
29	0x3d284354	0.041079834
30	0x3d4411ca	0.047868527
31	0x3c31b5f6	0.0108466055
32	0xbd46f11d	-0.048569787
33	0xbc9986b8	-0.018740997
34	0xbd0ee6b8	-0.034888
35	0x3c71162e	0.014714761
36	0x3ba30633	0.0049751042
37	0xbccb6960	-0.02483052
38	0xbca4b718	-0.020106837
39	0xbd1f52ef	-0.03889745
40	0xbd2abf70	-0.041686475
41	0xbc5744f1	-0.0131389955
42	0xbd10707f	-0.035263535
43	0xbc48d5e9	-0.012258031
44	0xbd34dd94	-0.044156626
45	0xbd25f51c	-0.040516958
46	0xbb51c8f8	-0.0032010656
47	0xbc5e9e23	-0.013587507
48	0x3c762f6b	0.015025954
49	0x3d612c5c	0.054973945
50	0x3d2c185a	0.04201541
51	0x3cb1642e	0.021654215
52	0x3c21374a	0.009839842
53	0xbb65ee3c	-0.0035084626
54	0xbc82658f	-0.015917568
55	0x3ccdeb00	0.02513647
56	0x3c2e304d	0.010631633
57	0xbd0af569	-0.033925448
58	0xbd345d6b	-0.044034403
59	0x3cf79e55	0.030226866
60	0xba28152e	-0.00064118474
61	0x3d176379	0.0369601
62	0x3c7b51bb	0.01533931
63	0xbd15e466	-0.03659477
64	0xbca5b92e	-0.020229902
65	0x3c7e4e29	0.0155215645
66	0xbc598ab0	-0.013277695
67	0xbb8dee22	-0.004331366
68	0xbc819a67	-0.015820695
69	0xbd50b027	-0.050949242
70	0xbd2731cd	-0.040818978
71	0x3cce187e	0.025158163
72	0xbc1cfcc1	-0.009581746
73	0x3d122b3e	0.03568577
74	0xbc97f740	-0.018550515
75	0x3d296c7b	0.04136322
76	0xbd291988	-0.041284114
77	0xbca51656	-0.020152252
78	0xbd5e4205	-0.05426218
79	0x3b8c5bf9	0.004283425
80	0x3d2d54db	0.042317253
81	0xbcf604f7	-0.030031664
82	0xbd3509ca	-0.04419879
83	0xbd267a87	-0.040644195
84	0xbd02cbb6	-0.031932555
85	0x3d5fa754	0.054602936
86	0x3cb0df9f	0.021591006
87	0x3b511b7c	0.003190725
88	0xbd2fffeb	-0.04296867
89	0x3d4d9d17	0.05019864
90	0xbba906bc	-0.0051582735
91	0x3c6b122b	0.014347593
92	0xbd43a854	-0.047767952
93	0x3c2612a8	0.010136284
94	0x3c117031	0.008876846
95	0xbb62b192	-0.0034590703
96	0xbd361522	-0.044453748
97	0x3cce2f3c	0.025169007
98	0xbd174765	-0.03693332
99	0xbd3798c8	-0.044823438
100	0x3cec7419	0.028863953
101	0xbc83200d	-0.016006494
102	0xbd5683a7	-0.052371647
103	0xbcb6a51f	-0.022295533
104	0x3cc1d59d	0.023661429
105	0x3cf2633e	0.029588338
106	0x3c846966	0.01616354
107	0xbcc851c9	-0.02445306
108	0xbd03e0c2	-0.032196768
109	0xbd316793	-0.043311667
110	0x3cf31043	0.02967084
111	0xbcce52ce	-0.025185969
112	0x3d129a36	0.0357916
113	0xbbb40299	-0.0054934737
114	0xbcb80cd3	-0.022467053
115	0x3c75ab4b	0.014994453
116	0x3d236f77	0.039901223
117	0xbcb69b7e	-0.022290941
118	0x3c2eeb7f	0.010676264
119	0x3bec2744	0.0072068293
120	0xbd40215c	-0.046906814
121	0xbd305e6e	-0.043058805
122	0x3ceb117e	0.028694864
123	0x3d275795	0.04085501
124	0xbd53b51f	-0.051686402
125	0x3d64e4d4	0.05588229
126	0x3c3eff80	0.011657596
127	0x3d22f114	0.03978069

bn4.weight f4 [128]
0	0x3f8299c0	1.0203171
1	0x3f81dba5	1.0145155
2	0x3f81fe5d	1.015575
3	0x3f82a8f7	1.0207814
4	0x3f81f5bf	1.0153121
5	0x3f83d8bf	1.0300521
6	0x3f81d0db	1.0141863
7	0x3f840485	1.0313879
8	0x3f82c681	1.0216829
9	0x3f82d39f	1.0220832
10	0x3f831ef3	1.024382
11	0x3f833980	1.0251923
12	0x3f832b62	1.0247614
13	0x3f830045	1.0234457
14	0x3f846ce2	1.0345728
15	0x3f81d90e	1.0144365
16	0x3f829c5a	1.0203965
17	0x3f836776	1.0265949
18	0x3f82e16b	1.0225042
19	0x3f82cbdd	1.0218464
20	0x3f827a0f	1.0193499
21	0x3f8287a5	1.0197645
22	0x3f83e734	1.0304933
23	0x3f821a73	1.0164322
24	0x3f8312de	1.0240133
25	0x3f824be4	1.017941
26	0x3f82d0ec	1.0220008
27	0x3f835445	1.0260092
28	0x3f8278ea	1.019315
29	0x3f81fd83	1.0155491
30	0x3f82d983	1.0222629
31	0x3f82945b	1.0201524
32	0x3f82190e	1.0163896
33	0x3f82684d	1.018808
34	0x3f82a044	1.0205159
35	0x3f83d3f0	1.0299053
36	0x3f83d242	1.029854
37	0x3f81df72	1.0146315
38	0x3f83c5d9	1.0294753
39	0x3f81ed1c	1.0150485
40	0x3f8307b5	1.0236727
41	0x3f8324d6	1.0245616
42	0x3f82da68	1.0222902
43	0x3f81269a	1.0089905
44	0x3f837c55	1.0272318
45	0x3f83dd25	1.0301863
46	0x3f82833f	1.0196303
47	0x3f8257cc	1.0183043
48	0x3f821127	1.0161484
49	0x3f816d12	1.0111411
50	0x3f831814	1.0241723
51	0x3f82f47e	1.0230863
52	0x3f82ab41	1.0208513
53	0x3f82cea1	1.0219308
54	0x3f82df0b	1.0224317
55	0x3f8212bc	1.0161967
56	0x3f820142	1.0156634
57	0x3f836985	1.0266577
58	0x3f8359f3	1.0261825
59	0x3f831fb2	1.0244048
60	0x3f82b19d	1.0210453
61	0x3f829b95	1.020373
62	0x3f82873b	1.0197519
63	0x3f8357bd	1.0261151
64	0x3f825af3	1.0184005
65	0x3f8206c9	1.0158321
66	0x3f831180	1.0239716
67	0x3f82df3a	1.0224373
68	0x3f8398dd	1.0281025
69	0x3f8198b7	1.012473
70	0x3f826889	1.0188152
71	0x3f82a869	1.0207645
72	0x3f836290	1.0264454
73	0x3f833edf	1.0253562
74	0x3f82911e	1.0200536
75	0x3f82ec03	1.0228275
76	0x3f836e08	1.0267954
77	0x3f83401f	1.0253943
78	0x3f83d75f	1.0300101
79	0x3f827fcd	1.0195252
80	0x3f822cea	1.0169957
81	0x3f829bbb	1.0203775
82	0x3f81c65a	1.0138657
83	0x3f83a72c	1.0285392
84	0x3f82f13c	1.0229869
85	0x3f846022	1.0341837
86	0x3f82fdde	1.0233724
87	0x3f839345	1.0279318
88	0x3f836776	1.0265949
89	0x3f8298f1	1.0202924
90	0x3f8392c6	1.0279167
91	0x3f8422bd	1.0323101
92	0x3f822132	1.016638
93	0x3f83759a	1.0270264
94	0x3f82a726	1.020726
95	0x3f8242a0	1.0176582
96	0x3f805337	1.0025395
97	0x3f82eb92	1.022814
98	0x3f8336df	1.025112
99	0x3f83434f	1.0254916
100	0x3f8221c0	1.016655
101	0x3f8298f3	1.0202926
102	0x3f833141	1.0249406
103	0x3f82e37c	1.0225673
104	0x3f8316a7	1.0241288
105	0x3f82a184	1.0205541
106	0x3f8230bf	1.0171126
107	0x3f82930f	1.0201129
108	0x3f842efe	1.0326841
109	0x3f824c5d	1.0179554
110	0x3f837776	1.0270832
111	0x3f846efe	1.0346372
112	0x3f828806	1.0197761
113	0x3f833b5c	1.025249
114	0x3f836e8a	1.0268109
115	0x3f820c2c	1.0159965
116	0x3f833073	1.024916
117	0x3f81c339	1.0137702
118	0x3f82d43e	1.0221021
119	0x3f8355b5	1.0260531
120	0x3f819db2	1.012625
121	0x3f82959f	1.0201911
122	0x3f822737	1.0168217
123	0x3f833475	1.0250384
124	0x3f820575	1.0157915
125	0x3f835488	1.0260172
126	0x3f82b1cf	1.0210513
127	0x3f82aa8d	1.0208298
